models/better_mini_lstm_best.pth (torch, 770333 bytes, 20 tensors)

lstm.weight_ih_l0 f4 [256, 111]
0	0xbdf1caae	-0.11806236
1	0x3dd52938	0.104082525
2	0x3d18de82	0.037321575
3	0x3d9ec10e	0.07751666
4	0xbda6a150	-0.08136237
5	0x3d4e17fe	0.05031585
6	0x3a6ca817	0.0009027733
7	0x3db6c2a6	0.08923845
8	0xbd80a8d4	-0.062822014
9	0x3c9ab05d	0.018882925
10	0x3de59acb	0.11211165
11	0x3ca8cc8b	0.020605346
12	0x3d488359	0.048953388
13	0xbd9ac15b	-0.07556411
14	0x3defb915	0.117052235
15	0x3d819dad	0.063289024
16	0x3cc7509d	0.024330432
17	0xbdb94c6b	-0.09047779
18	0xbcb66cff	-0.02226877
19	0xbd1ae074	-0.03781171
20	0xbd1a29b5	-0.03763743
21	0x3db8f1ae	0.09030472
22	0x3dfc5ffa	0.123229936
23	0x3de96eca	0.113980845
24	0x3db24d82	0.0870619
25	0x3d932385	0.07184509
26	0xbd8e5a29	-0.069507904
27	0x3dd5ac7e	0.10433291
28	0x3d7e48b2	0.062081046
29	0xbd0446b8	-0.032294005
30	0x3da015c5	0.07816652
31	0xbde143ca	-0.10999258
32	0xbc9469ce	-0.018116858
33	0xbc65fe7e	-0.014037726
34	0x3dd15da5	0.102229394
35	0xbd80d235	-0.06290094
36	0x3dc7bf6a	0.09753306
37	0xbbab35e1	-0.0052249287
38	0xbd3cfb71	-0.04613823
39	0x3d9ef949	0.07762391
40	0xbdae5f8a	-0.085143164
41	0xbd6d25a1	-0.057897214
42	0x3da1752b	0.07883676
43	0x3de4e733	0.1117691
44	0xbd1e5393	-0.03865392
45	0xbddf24c5	-0.10895685
46	0x3de81b5c	0.113333434
47	0xbdb5bb07	-0.08873563
48	0x3d972d01	0.07381631
49	0x3e031022	0.12799123
50	0x3ddc767c	0.107647866
51	0xbdea38d1	-0.11436618
52	0xbddd0836	-0.10792582
53	0x3cbfc40f	0.023408918
54	0x3ca54e28	0.02017887
55	0xbdd4e592	-0.103953496
56	0x3bc52ad9	0.0060170707
57	0xbd2321f6	-0.03982731
58	0x3ceb330a	0.02871086
59	0xbd5bcb92	-0.053660937
60	0x3dee4926	0.11635046
61	0xbddeb57d	-0.1087446
62	0x3d919c9a	0.071099475
63	0x3dd2735c	0.10275909
64	0x3cadbe0d	0.021208787
65	0xbdc6e090	-0.09710801
66	0xbd75854c	-0.059941575
67	0xbc95d88f	-0.01829174
68	0xbde92e4a	-0.11385782
69	0x3dd6ba25	0.10484723
70	0x3b08c069	0.0020866639
71	0x3e043ca3	0.12913756
72	0x3d339a65	0.043848414
73	0x3decf8cc	0.11570892
74	0x3da12431	0.07868231
75	0xbd58ea27	-0.05295768
76	0xbd35109d	-0.044205297
77	0x3d520536	0.0512745
78	0x3d81d737	0.06339877
79	0x3dda61cd	0.10663185
80	0x3d9164d0	0.070993066
81	0xbda7e163	-0.08197286
82	0x3db180fa	0.086671785
83	0x394bd7ae	0.00019439936
84	0x3d15d5c1	0.036580805
85	0x3d5364b8	0.051609725
86	0x3ddf28c2	0.10896446
87	0xbdf15fe4	-0.11785868
88	0x3d83984e	0.06425534
89	0xbcef0cb0	-0.029180855
90	0x3c16dd08	0.009207971
91	0x3dc0b8ca	0.09410246
92	0xbd4d54f1	-0.050129835
93	0x3de4ce6e	0.11172186
94	0x3dcbf8cb	0.09959563
95	0xbd4a94ef	-0.04945844
96	0xbcc71148	-0.024300233
97	0xbccb0680	-0.024783373
98	0xbd3d5d12	-0.046231337
99	0xbe07d8b4	-0.1326626
100	0x3d326a1e	0.043558232
101	0x3c390044	0.011291567
102	0xbd853f4b	-0.06506213
103	0x3dcae56b	0.09907039
104	0xbdc731d9	-0.097263046
105	0xbdf76620	-0.12080026
106	0xbd9a5da2	-0.0753739
107	0xbdd25eb0	-0.102719665
108	0x3cb2dbbe	0.021833297
109	0xbda83d54	-0.082148224
110	0x3d8b36d4	0.06797567
111	0xbdbd37be	-0.092391476
112	0x3d4c6cee	0.04990857
113	0xbd70f1c3	-0.058824312
114	0x3d52c0e9	0.051453505
115	0x3da737f4	0.08164969
116	0x3c1b558e	0.009480847
117	0x3db6d397	0.08927076
118	0xbcf5f7ac	-0.030025326
119	0x3b768d9e	0.0037621032
120	0xbdbef649	-0.09324319
121	0x3d75aaad	0.059977222
122	0xbc335f3c	-0.010947999
123	0x3d688c7a	0.056774594
124	0x3d6bf793	0.057609152
125	0x3e0b6c54	0.13615543
126	0x3dbf0937	0.093279295
127	0xbcc8bf4b	-0.024505278
128	0x3be15b2f	0.006877325
129	0xbdd91cfd	-0.10601232
130	0xbc8792e3	-0.016549533
131	0x3b1b3396	0.002368187
132	0x3d108044	0.035278574
133	0xbced119e	-0.028939065
134	0x3df305f5	0.118663706
135	0xbda37343	-0.07980969
136	0x3e020e77	0.1270083
137	0xbde3d198	-0.11123961
138	0x3e02dfbb	0.12780659
139	0x3db3aa7e	0.08772753
140	0xbd974064	-0.073853284
141	0xbd86bd7f	-0.06579112
142	0x3db0755a	0.08616133
143	0x3bdf8703	0.0068215146
144	0x3d96392c	0.073351234
145	0x3d1e234c	0.03860788
146	0xbb3fc0fa	-0.002925931
147	0x3ca2bdb7	0.019865854
148	0x3da39dfe	0.07989119
149	0xbd6402c4	-0.0556667
150	0xbdb0d4f4	-0.086343676
151	0x3decb81c	0.115585536
152	0x3da845c2	0.0821643
153	0x3d38246e	0.044956617
154	0x3bac0566	0.005249667
155	0x3da7fed1	0.08202899
156	0xbd36aa9b	-0.044596296
157	0xbdf0100e	-0.11721812
158	0x3d4f06db	0.050543647
159	0xbd0538d1	-0.032524887
160	0xbda03da5	-0.07824258
161	0xbdb2aa36	-0.087238714
162	0xbd5bf461	-0.053699855
163	0x3da95d0a	0.08269699
164	0x3dd17744	0.10227826
165	0x3dcf8085	0.10131935
166	0xbde3bf38	-0.111204565
167	0x3d8b6245	0.06805853
168	0x3d77f85b	0.060539585
169	0xbd8189cf	-0.06325113
170	0xbdcbfc76	-0.099602625
171	0xbdef5e12	-0.11687864
172	0x3da23339	0.07919926
173	0x3dc285c8	0.09498173
174	0xbd4e795b	-0.050408702
175	0xbcf3ab64	-0.029744811
176	0xbd4f7ec1	-0.05065799
177	0x3af28598	0.0018502949
178	0xbc59df9c	-0.013297942
179	0x3d4b478b	0.049628776
180	0xbdc8fd3b	-0.09813925
181	0xbd416598	-0.047216028
182	0x3d6f8392	0.058475085
183	0x3d98be1b	0.07458135
184	0xbba654f3	-0.0050760447
185	0x3d06d9aa	0.032922424
186	0xbda75a87	-0.081715636
187	0x3dc2b129	0.09506447
188	0x3d0b4e23	0.034010064
189	0xbd68f90f	-0.056878146
190	0xbd246ce2	-0.0401429
191	0x3dd692e8	0.10477239
192	0xbc934219	-0.017975854
193	0xbd759a5e	-0.05996167
194	0xbe05e54e	-0.13075754
195	0xbde360ec	-0.11102471
196	0x3d78ac49	0.06071118
197	0x3d02a7a6	0.031898163
198	0xbd9547ab	-0.0728906
199	0x3dc517df	0.09623694
200	0xbbe8e82c	-0.007107755
201	0x3c8eaa49	0.017415183
202	0xbc03a7d3	-0.008035618
203	0xbd788710	-0.06067568
204	0xbcc8ae02	-0.024497036
205	0xbdca1aa3	-0.09868362
206	0x3cec4f6a	0.028846461
207	0x3b9fa8ba	0.0048724087
208	0x3d3c68f5	0.045998532
209	0xbdefc800	-0.11708069
210	0xbdcf87a6	-0.10133295
211	0x3d2cd902	0.042199142
212	0x3c8f3bc0	0.017484546
213	0xbd5c33bf	-0.053760286
214	0x3db65fea	0.08905013
215	0x3daf0725	0.085462846
216	0xbd65103a	-0.055923678
217	0x3d927ae3	0.07152345
218	0xbdfc4479	-0.123177476
219	0xbce0e306	-0.027452003
220	0xbdfb17a3	-0.12260368
221	0x3b44d473	0.0030033856
222	0x3c38bd15	0.011275549
223	0xbdaa66db	-0.083203994
224	0x3c7f1dc7	0.015571064
225	0xbdcb0e8a	-0.099148825
226	0x3d09c906	0.033638977
227	0x3dea5bb1	0.1144327
228	0x3dc2d903	0.09514048
229	0x3dd266d4	0.10273519
230	0xbc81cfaf	-0.015846102
231	0x3d23175e	0.039817207
232	0xbd3f9997	-0.046777334
233	0xbde1f3f7	-0.11032861
234	0x3d275652	0.040853806
235	0x3dd67a0d	0.10472498
236	0x3cbfd3a9	0.023416357
237	0xbd276338	-0.040866107
238	0xbd0d14d1	-0.03444368
239	0x3cb1e0fa	0.021713722
240	0x3c65bab3	0.014021563
241	0x3c86943b	0.016428104
242	0x3d9f53e0	0.0777967
243	0xbdbd1302	-0.09232141
244	0xbda42250	-0.08014357
245	0x3d396d62	0.04527033
246	0x3e000d06	0.12504968
247	0xbdefa86d	-0.117020465
248	0x3d7e5834	0.062095836
249	0xbd9f13eb	-0.07767471
250	0xbcf5a2da	-0.02998488
251	0x3dd3e1ee	0.10345827
252	0x3d3e6d01	0.046490673
253	0xbde69ff1	-0.11260975
254	0xbd94e305	-0.07269863
255	0xbdabfff0	-0.083984256

lstm.weight_hh_l0 f4 [256, 64]
0	0x3d0c9c2d	0.03432863
1	0x3e10d3aa	0.14143243
2	0x3dd38911	0.10328878
3	0xba0a30e2	-0.00052715663
4	0x3b850930	0.004059933
5	0x3c28305d	0.010265437
6	0x3d858b8d	0.06520758
7	0x3dabb230	0.08383596
8	0x3d41047f	0.04712343
9	0x3c772654	0.015084822
10	0x3d8db766	0.06919746
11	0xbd27921f	-0.040910836
12	0xbd23cac3	-0.03998829
13	0x3de4c32f	0.11170041
14	0x3d8feaa1	0.07027174
15	0x3df2b290	0.11850464
16	0xbd624c8c	-0.055248782
17	0xbc207a4c	-0.009794783
18	0x3e01fba0	0.12693644
19	0x3d7e8f16	0.062148176
20	0x3db62957	0.08894604
21	0x3ceced90	0.028921872
22	0xbcd100db	-0.025513103
23	0xbda2018b	-0.079104505
24	0x3daf8244	0.08569768
25	0x3dac4483	0.08411505
26	0x3db5a547	0.08869415
27	0xbc2a2eff	-0.010387181
28	0xbc07b57c	-0.008283015
29	0x3d84fe2c	0.06493792
30	0xbcb2ac41	-0.021810653
31	0xbda3da43	-0.080006145
32	0xbdfb7c9e	-0.12279628
33	0xbd944a2f	-0.07240712
34	0x3d52f2d0	0.051501095
35	0x3d776a0e	0.060403876
36	0x3dd2d02b	0.10293611
37	0x3d5269ba	0.05137036
38	0x3db9f83f	0.09080552
39	0x3d348cbf	0.04407954
40	0xbddc6c1c	-0.10762808
41	0xba8e9a87	-0.0010879793
42	0x3c8d11b3	0.017220354
43	0x3d54487e	0.051826946
44	0x3d4d0e06	0.050062202
45	0xbdcd33c4	-0.10019639
46	0x3d69a172	0.057038732
47	0x3b07dbe1	0.0020730423
48	0xbde14ab7	-0.11000579
49	0x3dcee9b8	0.10103172
50	0xbb135f12	-0.0022487086
51	0x3d8ed1f8	0.06973642
52	0x3de234d3	0.11045232
53	0xbd5ec0ae	-0.054382972
54	0xbdd68e33	-0.10476341
55	0x3b946dd7	0.0045296955
56	0x3d6131b8	0.054979056
57	0x3cec3e6a	0.028838355
58	0x3cd111c1	0.025521161
59	0xbda09fca	-0.07842977
60	0x3d24f86b	0.040275972
61	0x3c958b2f	0.018254844
62	0x3d980b0a	0.074239805
63	0xbdcee9f5	-0.101032175
64	0xbc491877	-0.012273899
65	0x3ccb22a2	0.024796788
66	0x3d8e7e8c	0.06957731
67	0x3cd1f81c	0.025631003
68	0xbbc0450d	-0.0058676065
69	0xbc688a1a	-0.014193082
70	0xbce7b02e	-0.028282251
71	0xbcb764e3	-0.022386974
72	0x3cc6dee0	0.024276197
73	0xbd32556f	-0.043538507
74	0x3dff6d05	0.12471966
75	0xbe177c2f	-0.14793466
76	0x3d69f3e4	0.057117358
77	0x3dc2f2ea	0.095189884
78	0x3e175b75	0.14780982
79	0x3dc47b4e	0.09593831
80	0xbca5ffa9	-0.02026351
81	0x3e00557f	0.12532614
82	0x3d8582fa	0.065191224
83	0x3d1671a2	0.036729462
84	0x3d1ed0ad	0.038773227
85	0xbc9a95b3	-0.01887021
86	0xbd985636	-0.074383184
87	0xbdc6b66f	-0.09702765
88	0xbd274228	-0.040834576
89	0x3d98682e	0.07441746
90	0x3d2ceafa	0.04221628
91	0x3c802ed6	0.015647333
92	0xbd9a2393	-0.075263165
93	0xbda56f99	-0.08077926
94	0xbd9dc96d	-0.077044345
95	0x3d23164c	0.039816186
96	0xbda9403a	-0.08264203
97	0xbcb0163e	-0.02149498
98	0x3e02c0e2	0.12768891
99	0xbd74b21d	-0.059740175
100	0xbd9ffbf7	-0.0781173
101	0x3cb998bc	0.022655837
102	0xbd8bc364	-0.06824377
103	0xbc9b754b	-0.018976828
104	0x3d021f32	0.03176803
105	0x3d322e33	0.04350109
106	0xbcad0be7	-0.02112384
107	0x3dd6bfed	0.10485826
108	0xbc30f6c2	-0.010801019
109	0xbe177e6a	-0.14794317
110	0xbd20b84a	-0.03923825
111	0x3c1c74cc	0.009549331
112	0xbc60f7a7	-0.01373092
113	0xbc4d99d4	-0.0125488825
114	0xbda7b5e8	-0.08188993
115	0xbdffa22d	-0.124821045
116	0x3df591a4	0.11990669
117	0x3d82a1a2	0.06378485
118	0x3dbc9b70	0.09209335
119	0xbcbfe477	-0.02342437
120	0xbdb39609	-0.08768851
121	0x3cb1df9c	0.02171307
122	0x3dcb5276	0.099278376
123	0x3dbe4c74	0.09291926
124	0x3ba804fd	0.005127548
125	0xbb0415b5	-0.002015454
126	0x3dce755e	0.1008098
127	0x3c886b15	0.016652623
128	0xbd225997	-0.03963622
129	0x3b9402d4	0.0045169387
130	0xbd1a6de1	-0.037702445
131	0x3dc6c521	0.09705568
132	0xbe0659db	-0.13120215
133	0xbd9bda25	-0.07609967
134	0xbdc0266b	-0.09382328
135	0xbdd31f80	-0.103087425
136	0x3d8f6ec3	0.07003548
137	0x3cced973	0.025250172
138	0xbdec8da3	-0.115504526
139	0xbc334099	-0.010940694
140	0xbdc586b4	-0.09644833
141	0x3d823b82	0.063590065
142	0x3a5fec06	0.0008541945
143	0x3d2eeafc	0.042704567
144	0xbd9b75dd	-0.0759084
145	0x3de2ee77	0.1108064
146	0xbdac3d05	-0.08410076
147	0xbe01e94c	-0.12686652
148	0xbdbc125c	-0.09183189
149	0xbd4f84c9	-0.050663743
150	0xbcdfabb5	-0.027303556
151	0xbb7d183c	-0.003861918
152	0xbd1205eb	-0.035650175
153	0xbde8dfb9	-0.11370797
154	0x3da5bc63	0.080925725
155	0xbd6e5ca1	-0.058193807
156	0xbe0332a7	-0.12812291
157	0x3c59f1ae	0.01330225
158	0xbdaf7164	-0.085665494
159	0xbb6de2de	-0.0036298553
160	0xbd33909b	-0.04383908
161	0x3e00c36e	0.1257455
162	0xbbe10843	-0.00686744
163	0x3d4da6ad	0.050207783
164	0x3c20ce4c	0.00981481
165	0x3da19c51	0.07891143
166	0xbd4410a5	-0.047867436
167	0xbe0a8ede	-0.13531062
168	0xb9a688fe	-0.00031764054
169	0x3d3ed605	0.046590824
170	0xbd16c21c	-0.03680621
171	0x3dd45422	0.103676096
172	0x3d29c383	0.04144622
173	0xbda4910c	-0.08035478
174	0xbe072308	-0.13196957
175	0x3d9d74df	0.07688307
176	0x3cadfcc0	0.021238685
177	0x3aa589ec	0.0012629605
178	0x3e13d27f	0.14435767
179	0xbd02d540	-0.031941652
180	0xbc9c5e13	-0.019087827
181	0x3d8b36b3	0.067975424
182	0xbcc4f8ca	-0.024044413
183	0x3dd82f65	0.10555915
184	0xbd96c298	-0.073613346
185	0xbdaaf2eb	-0.08347114
186	0xbdab7873	-0.08372583
187	0xbdc71749	-0.09721238
188	0xbcf49187	-0.02985455
189	0xbdec23dd	-0.11530278
190	0xbd3b81b7	-0.045778003
191	0x3af5c76c	0.0018751449
192	0xbe06faba	-0.13181582
193	0xbdecf70b	-0.11570557
194	0x3c8f817f	0.017517803
195	0xbd5cd2f3	-0.053912114
196	0x3d95d504	0.0731602
197	0x3dd3eec0	0.10348272
198	0xbd751917	-0.05983838
199	0x3d59fbeb	0.053218763
200	0x3ddaedb4	0.106898695
201	0x3dab4b5d	0.08363984
202	0xbd238efd	-0.039931286
203	0x3e0288db	0.12747519
204	0xbda121e6	-0.07867794
205	0xbcadf21e	-0.021233615
206	0x3d36afe0	0.04460132
207	0xbdee05e8	-0.1162222
208	0x3da9e79c	0.08296129
209	0x3d289476	0.04115721
210	0x3debb71d	0.115095355
211	0x3c3bc10b	0.011459599
212	0xbba806b4	-0.005127752
213	0x3da85831	0.08219946
214	0xbd9f5bca	-0.07781179
215	0xbdd2c5b1	-0.10291613
216	0x3db71179	0.089388795
217	0xbca435c7	-0.020045174
218	0xbc80ee90	-0.015738755
219	0xbdb37139	-0.0876183
220	0x3dad3d0f	0.08458912
221	0xbdc6d008	-0.097076476
222	0x3de3ef59	0.11129636
223	0xbd161a23	-0.03664602
224	0x3da76d2f	0.08175122
225	0xbdba5193	-0.0909759
226	0x3dbbed2e	0.09176098
227	0xbb435d54	-0.0029810267
228	0xbb89ba43	-0.0042031123
229	0xbdbb1835	-0.091354765
230	0x3d81f19f	0.06344914
231	0x3c251b0c	0.010077249
232	0x3da4fd3c	0.08056113
233	0xbdd73647	-0.105083995
234	0xbd44b7be	-0.048026793
235	0x3cd0a430	0.025468916
236	0x3d6aebb7	0.0573537
237	0xbd2e47a2	-0.042548783
238	0xbd3b90a0	-0.045792222
239	0x3c6b326d	0.014355284
240	0xbd26a903	-0.040688526
241	0xbdd374c0	-0.10325003
242	0xbd8704ea	-0.06592734
243	0x3cf025f9	0.029314982
244	0x3dedbeee	0.116086826
245	0x3da556f6	0.08073227
246	0xbd3f9d07	-0.046780612
247	0x3e03d370	0.12873626
248	0x3d60c86c	0.054878637
249	0xbbe347b2	-0.006936037
250	0x3df8c281	0.12146474
251	0x3c963967	0.018337918
252	0x3d9b9333	0.075964354
253	0xbd339dcb	-0.043851655
254	0xbd83d07c	-0.064362496
255	0xbbcfa9cd	-0.0063373805

lstm.bias_ih_l0 f4 [256]
0	0xbd71928a	-0.05897764
1	0x3ce34e0a	0.027747173
2	0xbbe8606d	-0.007091573
3	0xbc9c4530	-0.01907596
4	0xbdc4cf1e	-0.09609817
5	0xbc5e9fb6	-0.013587883
6	0x3dcea17d	0.10089395
7	0x3e006bbe	0.125411
8	0xbdc45418	-0.09586352
9	0xbdbadc06	-0.091239974
10	0xbdf4a557	-0.119455986
11	0x3d607758	0.054801315
12	0x3df9a630	0.12189901
13	0x3d414f7c	0.047194943
14	0x3c8a9de1	0.016920986
15	0x3d9b433c	0.07581183
16	0x3ca63a21	0.02029139
17	0xbd89bdbb	-0.06725641
18	0xbd7c86f9	-0.061652157
19	0x3dc34b9d	0.095359065
20	0xbc961801	-0.018321993
21	0x3d217e01	0.039426807
22	0xbda2a8f3	-0.07942381
23	0xbd0aab9a	-0.03385506
24	0x3d562e90	0.0522905
25	0xbd31abf6	-0.043376885
26	0x3e060503	0.1308785
27	0x3d3e0ba0	0.046397805
28	0xbddbab95	-0.10726086
29	0xbd8957b7	-0.067061834
30	0x3d9bd90b	0.07609757
31	0xbdcda3e2	-0.10041024
32	0x3d6431fb	0.055711728
33	0x3ddd3f21	0.108030565
34	0x3cd076dc	0.025447302
35	0x3caf1347	0.021371497
36	0xbd2b9f18	-0.04189977
37	0x3df243fa	0.11829372
38	0xbc771aa9	-0.01508204
39	0xbb31fc3a	-0.0027158395
40	0x3d0f1c75	0.034939248
41	0x3d001e52	0.031278916
42	0xbc3bf6ea	-0.011472443
43	0x3b873393	0.004126021
44	0x3d73c088	0.059509784
45	0xbda32b95	-0.07967297
46	0x3b691ef6	0.0035571433
47	0xbbb2c7ce	-0.0054559475
48	0x3de7aca8	0.113122284
49	0x3d6d2405	0.05789568
50	0x3dce25c9	0.10065801
51	0x3e025b8c	0.12730235
52	0xbda1e29f	-0.07904553
53	0xb979c3c9	-0.00023819426
54	0xbb141fe1	-0.002260201
55	0x3d002a1d	0.031290162
56	0x3d0dac40	0.0345881
57	0xbcd72885	-0.026264438
58	0x3d553361	0.052050952
59	0xbbd3ddaa	-0.0064656334
60	0x3d95b320	0.07309556
61	0x3c37c36a	0.011216024
62	0xbdb83329	-0.08994133
63	0xbd9dea1f	-0.07710671
64	0x3c8e39ab	0.017361483
65	0x3da27f7c	0.07934472
66	0x3d477fda	0.048705913
67	0x3dd84c68	0.10561448
68	0xbd216f93	-0.039413046
69	0xbd906cb3	-0.07051983
70	0x3d6b17a3	0.05739559
71	0xbd1e6efd	-0.038680065
72	0x3d8c16ef	0.06840312
73	0xbcdfcc6c	-0.027319156
74	0x3daa1211	0.08304227
75	0x3db2fd5d	0.087397315
76	0xbdc14135	-0.094362654
77	0xbd61d7e2	-0.055137523
78	0xbcc4c35b	-0.024018934
79	0x3dd8f913	0.10594382
80	0x3daebcef	0.0853213
81	0xbd7870a1	-0.060654286
82	0x3dda0f70	0.10647476
83	0x3d5a0039	0.05322287
84	0xbdf6eef6	-0.12057297
85	0xbde14fc4	-0.11001542
86	0x3cd6b68b	0.02621009
87	0x3d91de67	0.07122498
88	0x3d87ae6d	0.06625066
89	0x3d0f919c	0.035050973
90	0xbd266c8c	-0.040630862
91	0x3d67512a	0.05647389
92	0xbd669b87	-0.056300666
93	0x3db33f55	0.08752314
94	0xbc47810f	-0.012176766
95	0x3ce05da1	0.027388396
96	0xbd064373	-0.03277917
97	0x3dc750ab	0.09732183
98	0xbc66a87d	-0.014078257
99	0xbddd1cdb	-0.10796519
100	0x3d6240a2	0.05523742
101	0xbd23208b	-0.039825957
102	0xbd91843f	-0.07105302
103	0xbca00562	-0.019533817
104	0xbcf79753	-0.030223524
105	0xbd6a0ddc	-0.057142124
106	0xbd8996a7	-0.06718188
107	0xbd336b91	-0.043803755
108	0x3dc635be	0.09678219
109	0x3dbe46e6	0.092908666
110	0x3d8f9c98	0.0701229
111	0x3cfaaf67	0.030601216
112	0x3e080470	0.13282943
113	0x3d237bad	0.03991287
114	0x3d2b38bc	0.041802153
115	0xbd9944bd	-0.07483814
116	0x3d056c9b	0.032574277
117	0x3d1c6540	0.038182497
118	0xbc89f822	-0.016841952
119	0x3da9a2e3	0.08283021
120	0x3da7f338	0.08200687
121	0xbc617b88	-0.013762362
122	0x3e029671	0.12752701
123	0xbd2bbcef	-0.041928228
124	0x3d5509bb	0.052011233
125	0x3c1c9574	0.009557117
126	0xbd6f8c80	-0.0584836
127	0xbbb8460a	-0.0056235837
128	0xbd04c014	-0.032409742
129	0xbc92981c	-0.017894797
130	0xbd3eae18	-0.046552747
131	0xbc899313	-0.016793763
132	0x3d903274	0.07040873
133	0xbcd338cf	-0.025783924
134	0x3d1b61f3	0.03793521
135	0x3c5327de	0.012887923
136	0x3cca87a4	0.024722882
137	0xbd259ce8	-0.04043284
138	0xbc3e0d97	-0.01159992
139	0xbcceb04f	-0.025230555
140	0x3cfc44f1	0.030794593
141	0x3d2d0459	0.042240474
142	0xbd86f32f	-0.06589352
143	0xbe0a0cd0	-0.1348145
144	0xbdab2bed	-0.083579876
145	0x3d2c79ec	0.04210846
146	0xbc0cc8af	-0.008592769
147	0x3bfbb336	0.0076812757
148	0xbdbc0144	-0.09179929
149	0xbc0e14cf	-0.008671953
150	0x3d19cfcd	0.03755169
151	0xbd5d8fd0	-0.05409223
152	0xbd87ba23	-0.066273
153	0xbd9b9bb0	-0.075980544
154	0xbb8be553	-0.004269281
155	0xbdbe255c	-0.092844695
156	0x3c8373e2	0.016046468
157	0x3c891807	0.01673509
158	0xbde93950	-0.113878846
159	0xbdc3f447	-0.095680766
160	0xbda13cf9	-0.07872958
161	0x3c2e513f	0.010639488
162	0xbbea72e2	-0.0071548084
163	0x3d28385d	0.041069377
164	0x3d4a16e1	0.049338225
165	0xbd885f1f	-0.06658768
166	0x3d919151	0.07107795
167	0x3bf9001e	0.007598891
168	0x3d95965a	0.07304068
169	0xbdf8eea6	-0.121548936
170	0xbcf21a6c	-0.029553615
171	0xbd75190e	-0.059838347
172	0x3cbfee36	0.023429018
173	0xbdbce1d7	-0.09222763
174	0xbda81618	-0.08207339
175	0x3d358845	0.04431941
176	0x3d8da042	0.069153324
177	0xbd5448cc	-0.051827237
178	0xbd9499ca	-0.072558954
179	0x3c543c24	0.012953792
180	0xbe01b304	-0.12665945
181	0x3c8e98c4	0.017406829
182	0xbdcb90e0	-0.09939742
183	0xbdc58932	-0.096453086
184	0xbcab9d3e	-0.020949002
185	0x3d0f1339	0.03493044
186	0x3cfdc256	0.030976456
187	0xbdde8763	-0.10865667
188	0xbe11d239	-0.1424035
189	0xbd63189a	-0.055443384
190	0x3cabeeae	0.020987835
191	0x3db0ee1d	0.086391665
192	0x3d6c552d	0.057698417
193	0xbdc17760	-0.09446597
194	0x3d5b02d4	0.053469494
195	0xbd6aa720	-0.05728829
196	0xbd610e3b	-0.05494521
197	0xbcbe532b	-0.023233017
198	0x3d13ed42	0.03611494
199	0x3dbde776	0.09272663
200	0x3d0972d8	0.03355679
201	0x3dd94501	0.106088646
202	0x3cab3f50	0.020904213
203	0xbda6ff96	-0.08154218
204	0xbb5d846d	-0.0033800856
205	0xbd17352a	-0.036915936
206	0xbdbc42a2	-0.09192397
207	0xbe0673ae	-0.13130066
208	0x3cc1ade8	0.023642495
209	0x3e094c56	0.13408026
210	0x3db11812	0.08647169
211	0xbda8ded0	-0.08245623
212	0x3dac9f90	0.08428872
213	0x3d945bf2	0.072441
214	0x3dd684ab	0.10474523
215	0xbda2961a	-0.07938786
216	0xbcbe07ae	-0.023197021
217	0xbdaa49a8	-0.0831483
218	0xbdb1e948	-0.08687073
219	0xbd4c3adf	-0.04986083
220	0x3d301db9	0.042997096
221	0x3cb27dd5	0.021788517
222	0x3d445c6e	0.04793971
223	0xbd885204	-0.06656268
224	0x3e0008af	0.12503313
225	0xbae62971	-0.0017559958
226	0x3deecd80	0.1166029
227	0x3c8aaaf8	0.016927227
228	0xbd9b30e2	-0.07577683
229	0x3e0d65ee	0.13808414
230	0xbdd9f29c	-0.10641977
231	0x3cb66f41	0.022269847
232	0xbd533d49	-0.051572118
233	0x3e013a11	0.12619807
234	0xbd82d927	-0.06389075
235	0xbd8d0930	-0.06886518
236	0x3dbf3236	0.09335749
237	0x3de67e3f	0.11254548
238	0x3caa2339	0.020768749
239	0x3d0de7d6	0.034644924
240	0x3cfc32d4	0.030785955
241	0x3d5bbee4	0.053648844
242	0xbdb9d7b1	-0.09074343
243	0x3c7e20da	0.015510762
244	0xbd86b55a	-0.06577559
245	0x3da2a139	0.07940907
246	0x3df79a28	0.1208995
247	0xbd255ff8	-0.040374726
248	0x3d89cb55	0.06728236
249	0x3d66b15a	0.05632148
250	0x3b63f9e1	0.003478639
251	0xbdb03061	-0.086029775
252	0x3da35346	0.079748675
253	0xbd7393f1	-0.05946726
254	0x3e0a8c47	0.13530074
255	0xbd43e5a8	-0.04782644

lstm.bias_hh_l0 f4 [256]
0	0x3dde8dad	0.10866866
1	0x3a124664	0.0005579947
2	0x3db2d17c	0.08731362
3	0xbd8d92b6	-0.069127485
4	0xbde9799a	-0.11400147
5	0xbdf186b7	-0.11793273
6	0x3cb0f6e2	0.021602098
7	0x3dc320e1	0.095277555
8	0xbd9c8d47	-0.07644134
9	0x3c8cdebb	0.01719605
10	0xbc5d88c5	-0.013521378
11	0x3da81675	0.08207408
12	0xbddff0ac	-0.109345764
13	0xbdce6b88	-0.10079104
14	0x3d831ff4	0.06402579
15	0x3ce71116	0.02820639
16	0xbdd22ad9	-0.10262079
17	0xbd970c1b	-0.07375356
18	0xbda2cc07	-0.079490714
19	0x3da0a7da	0.07844515
20	0x3db0df32	0.08636321
21	0x3dce554b	0.10074862
22	0xbd044d21	-0.03230012
23	0x3dcb87a0	0.09937978
24	0x3de2c63d	0.11072967
25	0x3d778316	0.060427748
26	0xbd5f4cce	-0.054516606
27	0x3dff95ce	0.12479745
28	0x3cdb8b46	0.02679981
29	0xbd648618	-0.055791944
30	0xbd4db2d1	-0.05021936
31	0x3d89e262	0.06732632
32	0xbd97fedc	-0.074216574
33	0x3dc90327	0.098150544
34	0x3d72884a	0.059212007
35	0x3dbede7a	0.09319778
36	0xbdeeefff	-0.11666869
37	0x3e056fb1	0.13030888
38	0xbc8355cb	-0.01603212
39	0xbe02faae	-0.12790939
40	0xbdf21274	-0.11819926
41	0x3d966029	0.0734256
42	0x3dad7b90	0.08470833
43	0xbd3faa99	-0.046793554
44	0xbdbe1597	-0.09281462
45	0x3d49418b	0.049134772
46	0x3cfb009d	0.03063994
47	0x3da6a725	0.08137349
48	0xbd6525d6	-0.055944286
49	0xbca15bfa	-0.019697178
50	0x3d7dfa75	0.062006433
51	0x3dff77b6	0.12474005
52	0xbdd5481b	-0.10414144
53	0xbd0b8cf0	-0.034069955
54	0x3d924768	0.07142526
55	0xbd14be3e	-0.03631424
56	0xbd434ce3	-0.047680747
57	0xbcf2e726	-0.029651236
58	0xbcd4aa78	-0.025960192
59	0x3d160066	0.036621474
60	0x3dc3923c	0.09549376
61	0xbbf7439b	-0.007545901
62	0xbc975d39	-0.01847707
63	0xbc9ed8e9	-0.01939054
64	0xbd9008ca	-0.070329264
65	0xbd8be631	-0.06831015
66	0xbd9950ac	-0.0748609
67	0x3cc25990	0.023724347
68	0xbdd44654	-0.103649765
69	0x3d94ba6b	0.07262119
70	0xbde0f11c	-0.10983488
71	0x3dd977a4	0.10618523
72	0xbccba54c	-0.024859093
73	0x3c6fadbd	0.014628825
74	0xbdd217a0	-0.10258412
75	0x3d025048	0.031814843
76	0x3dded245	0.108799495
77	0xbd604ef6	-0.054762803
78	0xbdcc1bab	-0.09966215
79	0xbdb94b83	-0.09047606
80	0x3dd6f3d3	0.104957245
81	0x3d0e127a	0.03468559
82	0x3dfc4f40	0.12319803
83	0x3ddca897	0.107743435
84	0xba878518	-0.0010339348
85	0x3e0179e1	0.1264415
86	0xbccf7a9c	-0.02532702
87	0x3de113ad	0.10990081
88	0x3c4b9e02	0.012427809
89	0xbd694f04	-0.05696012
90	0x3df27ac8	0.11839825
91	0xbd4912bb	-0.04909013
92	0x3d9be94e	0.07612859
93	0xbdb0b0fb	-0.08627506
94	0x3d9dd3a2	0.077063814
95	0x3d22e212	0.03976638
96	0xbd938c4d	-0.072044946
97	0xbcc51223	-0.0240565
98	0xbd7e0cfe	-0.06202411
99	0x3dd259ef	0.1027106
100	0xbbf58efb	-0.0074938512
101	0x3dd90068	0.105957806
102	0x3dc78624	0.09742382
103	0x3d94a917	0.07258814
104	0x3d8dcc18	0.069236934
105	0x3d49d348	0.04927376
106	0x3e014146	0.12622556
107	0x3e019e09	0.12657942
108	0x3dbb92bc	0.09158847
109	0xbd5544f2	-0.052067704
110	0x3d384477	0.04498717
111	0x3db5799b	0.08861085
112	0xbd39f5b6	-0.045400344
113	0xbd3a05d6	-0.04541572
114	0xbb3d40e6	-0.0028877794
115	0x3d50fa9e	0.051020257
116	0xbd0eed89	-0.0348945
117	0x3b8f4a3d	0.0043728636
118	0x3df75f7d	0.1207876
119	0x3d42e1df	0.04757869
120	0x3d845388	0.06461245
121	0x3e14a28c	0.14515132
122	0x3d4d2f29	0.050093804
123	0x3d6c48e6	0.05768671
124	0x3e01914c	0.12653083
125	0xbdd86052	-0.10565247
126	0xbdbf8700	-0.09351921
127	0x3da67ca5	0.08129243
128	0xbb8702f7	-0.0041202265
129	0xbda5c16e	-0.080935344
130	0x3d9920ca	0.07476957
131	0xbddf323e	-0.10898255
132	0xbdab70a5	-0.083710946
133	0x3de868c8	0.113481104
134	0x3de00af5	0.1093959
135	0x3d83c051	0.06433166
136	0x3d362ca9	0.044476185
137	0xbbf915db	-0.0076014823
138	0x3dd2850f	0.10279285
139	0xbd5f6623	-0.054540765
140	0x3d0007ab	0.031257313
141	0xbe048725	-0.12942179
142	0xbd0cd402	-0.034381874
143	0x3da4149a	0.08011742
144	0x3cf9595e	0.030438121
145	0xbd4c17f1	-0.04982752
146	0xbd97f14e	-0.07419072
147	0xba4cd50d	-0.00078137295
148	0xbd967df0	-0.073482394
149	0x3d738051	0.059448544
150	0x3c03d79e	0.008047013
151	0x3bedcf0b	0.0072573475
152	0x3d14e690	0.036352694
153	0xbc58deda	-0.013236726
154	0x3db5963a	0.08866544
155	0x3dad91e7	0.08475094
156	0xbd7e0174	-0.062013105
157	0xbd83dd12	-0.0643865
158	0xbd80d22e	-0.062900886
159	0xbd9a4f4e	-0.075346574
160	0xbaabd987	-0.0013111093
161	0x3d1945b3	0.037419986
162	0x3d8b13b5	0.06790868
163	0x3d5647bd	0.05231451
164	0xbde7f2cd	-0.113256074
165	0x3df00183	0.11719038
166	0x3dc29589	0.09501178
167	0xbdb3a18a	-0.087710455
168	0x3cf521c6	0.029923331
169	0x3bbd5b65	0.0057787173
170	0x3d6d84ed	0.057988096
171	0x3d89b8dc	0.06724712
172	0x3dbba06d	0.09161458
173	0x3d3b14d8	0.045674175
174	0xbdc5fdde	-0.09667562
175	0x3da96d6a	0.08272822
176	0x3d77bc1b	0.060482126
177	0xbd9c8bca	-0.0764385
178	0xbe11b2b4	-0.14228326
179	0x3ca8fa53	0.020627176
180	0x3d2c7c76	0.042110883
181	0xbd5cf949	-0.053948674
182	0x3d7ac7c7	0.06122568
183	0x3d181994	0.03713377
184	0xbd991c95	-0.07476155
185	0x3c8762de	0.016526636
186	0xbc59df21	-0.013297827
187	0xbd240733	-0.04004593
188	0xbd897055	-0.06710879
189	0x3c8244a2	0.015901867
190	0x3d8a6cb4	0.06759015
191	0x3dc281f1	0.094974406
192	0x3cc7cf9c	0.024390988
193	0xbd3872f4	-0.045031503
194	0x3d4e6304	0.050387397
195	0x3d584130	0.052796543
196	0x3d291edf	0.041289207
197	0xbd9ef5ab	-0.07761701
198	0x3cada837	0.021198375
199	0x3dcc6a47	0.09981208
200	0xbd176f3b	-0.036971312
201	0x3da326fb	0.07966419
202	0x3d53a6de	0.05167281
203	0xbcb10b8c	-0.021611951
204	0xbda7e13a	-0.081972554
205	0x3d550bbd	0.052013148
206	0x3dc7e7c6	0.09761004
207	0x3dd1933a	0.10233159
208	0xbdbf1d93	-0.09331813
209	0x3e00fdac	0.12596768
210	0xbd7d4a00	-0.06183815
211	0x3d09a4fa	0.0336046
212	0xbd8b363c	-0.06797454
213	0x3d62a26d	0.055330683
214	0x3c0c279d	0.008554366
215	0x3dede10f	0.11615192
216	0x3c696648	0.014245577
217	0x3cd23f45	0.025664935
218	0x3dc9d074	0.098542124
219	0xbcf3426a	-0.029694755
220	0x3dee1758	0.11625546
221	0xbc8d05f3	-0.01721475
222	0xbc8ac0ce	-0.01693764
223	0x3dc40b41	0.09572459
224	0x3df5af43	0.11996319
225	0x3d2ba1d2	0.04190237
226	0xbd8d6b11	-0.06905187
227	0xbe02e2c9	-0.12781824
228	0xbde5010e	-0.11181842
229	0x3c882b95	0.016622344
230	0x3d08c94b	0.033395093
231	0xbdb1516b	-0.08658107
232	0xbd8256ee	-0.06364237
233	0x3d4fb186	0.05070641
234	0x3c8331ce	0.01601496
235	0xbddec8f0	-0.108781695
236	0x3d098dbb	0.03358243
237	0xbdad9a65	-0.08476714
238	0xbdc89a50	-0.09795058
239	0x3e072b4f	0.13200115
240	0x3dd28f28	0.10281211
241	0xbdecb80b	-0.11558541
242	0x3d1d1338	0.038348407
243	0xbdde6076	-0.10858242
244	0x3d9d0074	0.07666102
245	0xbd214863	-0.039375674
246	0x3c6ee8e4	0.014581893
247	0x3db2f795	0.08738629
248	0xbda16f29	-0.0788253
249	0x3e0446bb	0.12917607
250	0x3df66c19	0.12032337
251	0xbb8db956	-0.0043250723
252	0xbd2d98ef	-0.042382177
253	0x3dfb1d89	0.12261493
254	0xbd9ab2fd	-0.075536706
255	0x3d89b4d5	0.06723944

lstm.weight_ih_l0_reverse f4 [256, 111]
0	0xbd9338ba	-0.07188554
1	0x3da2a418	0.07941455
2	0x3dcbde0b	0.09954461
3	0xbdb4e82e	-0.08833347
4	0xbe063307	-0.13105403
5	0xbdbc38a0	-0.09190488
6	0x3e0995db	0.13436072
7	0x3c130c7c	0.0089751445
8	0x3ccecf66	0.02524538
9	0x3d836555	0.06415812
10	0x3d4df911	0.050286356
11	0x3ceb7731	0.028743358
12	0x3dba95b1	0.091105826
13	0xbda82856	-0.082108185
14	0xbe0af3e1	-0.13569595
15	0x3dceb8c3	0.10093834
16	0xbdb397d3	-0.087691925
17	0xbdd0c010	-0.10192883
18	0x3daeb84c	0.085312456
19	0xbca0b6d5	-0.019618431
20	0x3d97ab3b	0.074057065
21	0x3d3c964e	0.04604178
22	0xbb401b82	-0.002931327
23	0x3c814176	0.015778285
24	0xbde66e2a	-0.11251481
25	0x3d2194f7	0.039448705
26	0x3be84245	0.007087978
27	0xbdc9330d	-0.0982419
28	0x3b6bb48c	0.0035965769
29	0x3dfb58cc	0.12272796
30	0x3db9d364	0.09073523
31	0x3d232154	0.039826706
32	0x3dba30d3	0.09091344
33	0x3d144148	0.03619507
34	0xbca5ab37	-0.020223243
35	0x3daaf32b	0.08347162
36	0x3d2e441b	0.04254542
37	0x3d9aca0c	0.07558069
38	0x3dca3ae8	0.09874517
39	0xbd5e892f	-0.054330047
40	0x3d23fdcf	0.040036973
41	0xbd359afa	-0.04433725
42	0xbb59655d	-0.003317199
43	0xbdb4151c	-0.08793089
44	0x3dd8540f	0.10562908
45	0xbd236695	-0.03989275
46	0xbd483617	-0.04887971
47	0x3db6a821	0.08918787
48	0x3dc1c14d	0.09460697
49	0x3d5937ee	0.053031854
50	0xbdac94cf	-0.084268205
51	0xbbe8f93a	-0.0071097882
52	0x3d636309	0.05551437
53	0x3d5c39bf	0.05376601
54	0x3d16409d	0.036682714
55	0xbd92e898	-0.0717327
56	0x3df51793	0.11967387
57	0xbdc5cde9	-0.09658415
58	0xbdd2cbce	-0.10292779
59	0x3d1b929d	0.03798162
60	0x3d368780	0.044562817
61	0x3ddbb82d	0.10728488
62	0xbd354f31	-0.044264976
63	0xbd13fbdb	-0.03612886
64	0x3d4c90aa	0.04994265
65	0xbd55bfd6	-0.052184902
66	0x3e0d5558	0.13802087
67	0x3d951227	0.07278853
68	0x3d013a36	0.031549655
69	0xbd8abac5	-0.06773905
70	0xbd76767a	-0.06017158
71	0x3d351d1c	0.044217214
72	0x3cc4ee14	0.024039306
73	0xbb87376c	-0.00412648
74	0xbd2468ce	-0.040139012
75	0x3df5f8e6	0.12010364
76	0xbd9dcbc7	-0.07704883
77	0xbd4cf591	-0.050038878
78	0xbdc65a0d	-0.096851446
79	0x3d8ba97d	0.06819437
80	0xbd0cb0c4	-0.034348264
81	0x3d8420de	0.064515814
82	0xbbf9f918	-0.0076285712
83	0xbd72e5b2	-0.059301086
84	0xbc499d2f	-0.012305542
85	0x3d972fa6	0.07382135
86	0x3dbc511a	0.091951564
87	0x3c9415a6	0.018076729
88	0xbdb4e369	-0.088324375
89	0x3cc4d7c1	0.02402866
90	0xbdbbac2b	-0.09163698
91	0xbd2b62f6	-0.041842423
92	0xbc855c35	-0.01627932
93	0x3d2fa65d	0.042883266
94	0xbda070d6	-0.07834022
95	0x3ddda2ff	0.10822105
96	0x3d9f8bfb	0.07790371
97	0x3d33e552	0.04391987
98	0xbdfe932c	-0.124304146
99	0x3c09d68b	0.008412967
100	0xbd51bb37	-0.051203933
101	0xbd3d9433	-0.046283912
102	0xbddf3b1d	-0.10899947
103	0x3d9cd907	0.07658582
104	0xbd8b4291	-0.06799806
105	0x3df5255d	0.11970017
106	0xbab097b8	-0.001347295
107	0xbcdaa89e	-0.026691731
108	0xbab2b8c7	-0.001363539
109	0xbd787cfe	-0.060666077
110	0x3dcf2401	0.10114289
111	0xbd25e5ae	-0.040502243
112	0x3da3a6c9	0.07990796
113	0x3b1afa42	0.00236477
114	0xbd0f9191	-0.035050932
115	0x3dd4dbe1	0.10393501
116	0xbcc664f7	-0.024218066
117	0x3ca35c09	0.019941347
118	0x3d995344	0.07486585
119	0xbda7763c	-0.08176848
120	0x3daa2ba2	0.083091035
121	0xbdf191f6	-0.11795418
122	0x3dfa7ff6	0.12231438
123	0xbccfed53	-0.02538172
124	0xbd6e0875	-0.058113534
125	0xbcc86398	-0.024461553
126	0xbdb7a79e	-0.08967517
127	0x3dd97285	0.10617546
128	0x3d27c661	0.040960673
129	0xbdafd209	-0.08584983
130	0xbd4d027d	-0.0500512
131	0xbdd8b4ec	-0.10581383
132	0x3de9afec	0.114105076
133	0xbd8e1f35	-0.06939546
134	0xbd13bcf5	-0.036068875
135	0x3df1c625	0.11805371
136	0x3ca60966	0.020268153
137	0x3bc34cad	0.005960068
138	0xbd86a99e	-0.06575321
139	0xbdda06e5	-0.10645846
140	0xbdc09a1c	-0.09404394
141	0xbdf6ba2b	-0.120472275
142	0x3c4c9251	0.012486056
143	0xbd3f2338	-0.046664447
144	0x3d1be337	0.038058486
145	0xbd944821	-0.0724032
146	0x3dd05d48	0.10174042
147	0x3dad57dd	0.08464024
148	0x3d855e49	0.06512124
149	0x3dddc317	0.10828226
150	0xbd1df35c	-0.038562164
151	0xbd8c2e8a	-0.06844814
152	0xbdd7ba73	-0.10533609
153	0x3dbd7c1c	0.092521876
154	0x3d88e0ff	0.066835396
155	0x3db937af	0.09043824
156	0xbc3b3916	-0.011427185
157	0x3da568b2	0.0807661
158	0x3c013b41	0.007887662
159	0xbd90bd6e	-0.07067381
160	0x3d60ed9f	0.054914113
161	0xbdd2e81e	-0.10298179
162	0x3d5238a8	0.051323563
163	0xbdd8e87f	-0.1059122
164	0x3dadf83c	0.084946126
165	0xbd6fce4a	-0.058546342
166	0xbde98c8f	-0.114037625
167	0xbdee0ff2	-0.11624135
168	0xbd71dd3c	-0.059048876
169	0x3c8f2332	0.017472837
170	0xbdfb0175	-0.12256137
171	0xbde2eae9	-0.11079962
172	0x3df093a9	0.11746914
173	0x3d8c3ae5	0.06847171
174	0xbb861c11	-0.0040927012
175	0xbdd0116c	-0.10159573
176	0xbdfe61ed	-0.124210216
177	0x3d42ba04	0.04754068
178	0xbdadfcca	-0.08495481
179	0xbd98169e	-0.07426189
180	0xbdd6c9e0	-0.10487723
181	0x3d71e461	0.05905569
182	0xbda06b10	-0.078329206
183	0xbdaed5f1	-0.085369
184	0x3e033fa0	0.1281724
185	0xbc48b01e	-0.012249021
186	0xbbb061c2	-0.0053827474
187	0x3e0430ec	0.12909287
188	0xbcd771e7	-0.02629943
189	0x3db500a7	0.08838015
190	0x3dbe593c	0.09294364
191	0xbdfc31dd	-0.12314198
192	0x3dd55541	0.104166515
193	0x3d531fc9	0.051543985
194	0xbc816843	-0.015796786
195	0xbd0b3122	-0.033982404
196	0x3dcecf72	0.10098161
197	0xbcc1e54f	-0.023668913
198	0x3dc60272	0.09668435
199	0xbdd3fc49	-0.10350854
200	0x3cb7ecda	0.022451807
201	0xbd2caf03	-0.04215909
202	0x3e103bf4	0.1408537
203	0x3dcd8e40	0.10036898
204	0xbd2fc455	-0.042911846
205	0x3e0be9a6	0.13663349
206	0xbce1f171	-0.027580949
207	0xbd9ad323	-0.075598024
208	0x3d510b86	0.05103638
209	0x3db25623	0.087078355
210	0xbd455923	-0.04818071
211	0xbd69a7ae	-0.057044677
212	0xbdb67f91	-0.0891105
213	0x3cfe6156	0.031052273
214	0x3d0f6205	0.035005588
215	0xbc00721e	-0.007839708
216	0xbd7084e1	-0.058720473
217	0x3dbc6ee9	0.09200842
218	0x3c05f289	0.008175501
219	0xbcc2d896	-0.023784917
220	0xbdbb8170	-0.091555476
221	0x3d17d001	0.037063602
222	0xbd651697	-0.055929746
223	0xbdf1be4d	-0.11803875
224	0xbde258fc	-0.11052129
225	0xbdacaee6	-0.08431797
226	0xba77ae36	-0.00094482617
227	0x3d3a83b4	0.04553576
228	0xbdd78663	-0.10523679
229	0x3d44dcef	0.04806226
230	0xbc715649	-0.014730045
231	0xbd775b75	-0.060389955
232	0x3d8bb7b6	0.068221495
233	0xbd5a8bcc	-0.053355977
234	0xbcb79794	-0.022411145
235	0x3db691c5	0.08914522
236	0x3d397d64	0.045285597
237	0x3c682bee	0.01417063
238	0x3d610533	0.0549366
239	0xbb0e14e2	-0.0021679928
240	0x3dbd5124	0.09243992
241	0xbd9aeb14	-0.07564369
242	0x3da65fb1	0.081237204
243	0x3c205df9	0.00978803
244	0x3c876713	0.016528642
245	0xbd4c5a2f	-0.049890693
246	0xbdfad8aa	-0.12248357
247	0xbdbff01d	-0.0937197
248	0x3d8a9a3c	0.06767699
249	0x3dae1320	0.084997416
250	0x3cbc0b80	0.022954702
251	0x3d8ffcdf	0.07030653
252	0x3ce6a340	0.028154016
253	0x3d81c080	0.063355446
254	0x3e01e7e7	0.1268612
255	0x3dc88d87	0.09792619

lstm.weight_hh_l0_reverse f4 [256, 64]
0	0xbd6b1da6	-0.05740132
1	0xbc2b1690	-0.010442391
2	0x3dd593e6	0.104286
3	0x3dcb3b09	0.099233694
4	0x3d8c9367	0.06864052
5	0x3d9b007f	0.07568454
6	0x3d13ac57	0.036053028
7	0x3dc686e7	0.09693699
8	0xbc259a05	-0.010107522
9	0x3e011515	0.12605698
10	0x3d9d30f5	0.076753534
11	0x3d9fc984	0.07802108
12	0x3d4cfdf9	0.050046895
13	0x3d5af17b	0.05345295
14	0xbda52f53	-0.08065667
15	0x3cf497b3	0.029857492
16	0x3da7aa84	0.0818682
17	0x3e0a1c9f	0.1348748
18	0xbd4a5e01	-0.049406055
19	0x3ceeebe3	0.029165214
20	0x3dd460cb	0.10370024
21	0xbca1d3b0	-0.01975426
22	0x3d2c363d	0.042043913
23	0x3d8b6a38	0.06807369
24	0x3d3b3767	0.045707133
25	0x3c26e9a4	0.01018754
26	0xbde41a68	-0.11137849
27	0x3dbb717a	0.09152503
28	0xbd8cd788	-0.06877047
29	0xbc3dffd8	-0.011596642
30	0xbdaa4f19	-0.08315868
31	0x3d11b2cd	0.03557091
32	0x3df2d4f2	0.11857022
33	0xbcae7d38	-0.021299943
34	0xbdaa04ff	-0.08301734
35	0x3dc25f8f	0.094908826
36	0xbd7e24be	-0.06204676
37	0xbce8e4cf	-0.028429417
38	0xbd961a84	-0.07329276
39	0xbd07df75	-0.03317209
40	0xbc0878a2	-0.008329542
41	0xbc943b2d	-0.018094623
42	0x3dd5c75c	0.104384154
43	0xbdcea896	-0.10090749
44	0x3e02bafa	0.12766638
45	0xbd4ab52e	-0.049489193
46	0xbd0c6396	-0.03427466
47	0xbdab172b	-0.08354028
48	0xbd126749	-0.03574303
49	0xbd947729	-0.072492905
50	0x3d1ae710	0.037818015
51	0x3d54f232	0.051988788
52	0x3df05b20	0.11736131
53	0x3bc703ad	0.0060734362
54	0xbd040f21	-0.03224099
55	0xbc9f68ef	-0.019459216
56	0x3d0e155e	0.034688346
57	0xbd3e4fbc	-0.04646276
58	0x3c8ebb0f	0.01742318
59	0x3d2011dc	0.039079532
60	0xbc1fb4d1	-0.0097477
61	0xbdd12960	-0.1021297
62	0xbdddf97a	-0.108385995
63	0x3defcb33	0.11708679
64	0x3de85a6b	0.11345371
65	0x3d0970e4	0.033554927
66	0xbdcc0e4f	-0.09963667
67	0xbde1bf4d	-0.11022816
68	0x3d930096	0.07177846
69	0xbdefd980	-0.11711407
70	0xbdfbcdba	-0.122950986
71	0xbe0e96e2	-0.13924745
72	0x3db333df	0.08750128
73	0xbdccbd6d	-0.099970676
74	0x3df9916a	0.12185939
75	0xbcfa55bd	-0.030558461
76	0x3ca20e63	0.01978225
77	0x3cc4755c	0.023981743
78	0x3ca16b11	0.019704374
79	0x3d7bb891	0.061455313
80	0xbd9b58a4	-0.07585266
81	0xbd085df7	-0.033292737
82	0xbd8aa095	-0.0676891
83	0xbcee403c	-0.029083364
84	0xbd18ca2a	-0.037302174
85	0x3d11dafe	0.035609238
86	0x3d869a99	0.06572456
87	0xbd48896e	-0.04895919
88	0xbda5d552	-0.08097328
89	0x3d6bd6f0	0.057578027
90	0xbdabc6ed	-0.083875515
91	0xbb8eae5a	-0.0043542804
92	0xbd828ad6	-0.06374137
93	0x3c99d9e7	0.018780662
94	0xbda4023f	-0.08008241
95	0xbd43d143	-0.04780699
96	0xbd9752ef	-0.07388865
97	0xbc6134d2	-0.0137455035
98	0xbdecf9ff	-0.115711205
99	0x3c16ec8e	0.0092116725
100	0x3df18573	0.117930315
101	0x3d862bc3	0.06551316
102	0x3c53c054	0.012924273
103	0x3daf757e	0.08567332
104	0xbda1b1fa	-0.078952745
105	0xbc8cd3b0	-0.017190784
106	0xbd67e693	-0.056616377
107	0xbdc45232	-0.0958599
108	0x3e06eb60	0.13175726
109	0xbd09ff60	-0.03369081
110	0x3da28ebe	0.07937382
111	0x3ddf8291	0.109135754
112	0x3dbbd67c	0.09171769
113	0x3c4fa826	0.012674367
114	0x3ddf75db	0.10911151
115	0x3dbab372	0.09116258
116	0xbdaf412c	-0.085573524
117	0x3d5d210d	0.053986598
118	0xbd0c4910	-0.034249365
119	0xbdd71abd	-0.10503147
120	0xbce7afa3	-0.028281992
121	0xbde3520e	-0.11099635
122	0xbcf3d647	-0.029765261
123	0x3dd85d77	0.10564702
124	0x3c817527	0.015802933
125	0x3e09cd0d	0.13457127
126	0xbdc1f0c6	-0.09469752
127	0x3d959cbe	0.07305287
128	0x3d2a1a4a	0.041528977
129	0x3dd80494	0.10547748
130	0xbd2161c8	-0.039399892
131	0x3ccb2399	0.024797248
132	0x3d8f4f45	0.06997541
133	0xbd885e2c	-0.06658587
134	0xbda813af	-0.08206879
135	0x3d5961ce	0.05307179
136	0xbd125219	-0.035722826
137	0x3c460b03	0.012087586
138	0x3c72ed86	0.014827138
139	0x3da6cc73	0.08144464
140	0xbd547d0c	-0.051877066
141	0xbdbd5987	-0.092455916
142	0xbd9cefe9	-0.07662947
143	0xbd8e4806	-0.06947331
144	0xbd1fe5dc	-0.03903757
145	0x3cf2d1d1	0.029641064
146	0xbba33151	-0.004980244
147	0xbd08b0bc	-0.033371672
148	0xbd55f227	-0.052232888
149	0xbc90b385	-0.017663727
150	0x3ccac96a	0.024754245
151	0xbde7b210	-0.113132596
152	0x3c8100e5	0.015747497
153	0x3dd78ea8	0.105252564
154	0xbd6a378c	-0.05718188
155	0xbd832998	-0.06404418
156	0x3dae8719	0.085218616
157	0x3d300139	0.042969916
158	0xbd12e7fe	-0.035865776
159	0x3c82cb89	0.015966194
160	0x3df26ffb	0.11837765
161	0xbd877532	-0.0661415
162	0xbcf38aba	-0.029729236
163	0xbd071a64	-0.032984152
164	0x3dc31db4	0.0952715
165	0xbce6c0dc	-0.028168134
166	0xbda4df07	-0.080503516
167	0xbe089dbb	-0.1334142
168	0xbd5d886b	-0.054085176
169	0xbc8efe85	-0.017455349
170	0x3db6db05	0.089284934
171	0xbdce13e2	-0.10062386
172	0xbe0e99e0	-0.13925886
173	0xbd4606df	-0.048346397
174	0xbbe42a96	-0.0069630845
175	0x3c4e26cd	0.012582493
176	0xbd7b5b91	-0.06136662
177	0xbd6cb847	-0.057792928
178	0xbcab31a2	-0.02089769
179	0xbcfcdca3	-0.030866927
180	0x3dc980a4	0.098389894
181	0x3d42bdb6	0.047544204
182	0xbdbdafcd	-0.09262047
183	0x3de5ae85	0.112149276
184	0x3dfec27b	0.12439438
185	0x3b95d3ad	0.004572353
186	0x3de6ea99	0.11275215
187	0x3d9bdc98	0.07610434
188	0xbd9fd06e	-0.07803427
189	0x3d3bb2d5	0.045824844
190	0x3c99c140	0.018768907
191	0xbd9052ce	-0.07047044
192	0x3d0250db	0.03181539
193	0x3d1e6b01	0.038676266
194	0x3c913d3f	0.0177294
195	0x3ce0c830	0.027439207
196	0x3b274a7f	0.002552658
197	0xbd93bc53	-0.07213654
198	0x3a275eb2	0.0006384655
199	0x3e0db8ca	0.13840023
200	0x3dddfb2d	0.108389236
201	0xbe010354	-0.12598926
202	0xbde77ab7	-0.11302703
203	0x3dd4e119	0.103944965
204	0x3cc570ff	0.024101732
205	0xbc971b60	-0.01844567
206	0xbdebae5e	-0.11507867
207	0xbe09ddc9	-0.1346351
208	0x3d88a1a9	0.06671459
209	0xbcc4b7b0	-0.02401337
210	0xbd499260	-0.04921186
211	0x3db2278f	0.086989515
212	0x3d1f92f9	0.038958523
213	0xbc4ad6dc	-0.012380328
214	0x3d9ab879	0.075547166
215	0x3b8f737c	0.0043777805
216	0x3ce042f6	0.02737568
217	0xbdb9e005	-0.090759315
218	0x3ddbb08a	0.107270315
219	0x3dbf9ecb	0.09356459
220	0xbdc05073	-0.093903445
221	0xbcb69f95	-0.022292892
222	0xbc37def1	-0.011222587
223	0xbd115741	-0.035483602
224	0xbbb0c6a6	-0.0053947745
225	0x3db051c7	0.08609348
226	0xbd44a99f	-0.048013326
227	0xbe00a899	-0.12564315
228	0xbdba3db5	-0.09093801
229	0xbd35f4a8	-0.044422776
230	0xbce731a0	-0.028221905
231	0xbd6dfc12	-0.05810172
232	0x3c4a177a	0.012334699
233	0xbd903de7	-0.07043057
234	0x3d769903	0.060204517
235	0xbd3ebc4b	-0.04656629
236	0x3a8f53c4	0.0010934998
237	0xbd963c6a	-0.07335742
238	0x3cef9ae0	0.029248655
239	0xbe12d117	-0.14337574
240	0xbd601a92	-0.05471284
241	0xbda6651e	-0.08124755
242	0xbdcac878	-0.09901518
243	0xbda654ea	-0.08121665
244	0xbdfe723d	-0.12424133
245	0xbdb2eb0b	-0.08736237
246	0x3de40219	0.111332126
247	0x3d96a39e	0.07355426
248	0xbda09cc2	-0.07842399
249	0x3d457a3c	0.048212275
250	0xbc9255e7	-0.017863227
251	0x3e0ccbc0	0.137496
252	0xbdc7ad36	-0.09749834
253	0xbde60ce6	-0.11232929
254	0x3d5c1c60	0.053737998
255	0xbd9678c9	-0.07347257

lstm.bias_ih_l0_reverse f4 [256]
0	0xbdaa9dce	-0.0833088
1	0x3ded7403	0.11594393
2	0xbc463bf9	-0.0120992595
3	0x3dfef658	0.1244933
4	0xbd14474b	-0.036200803
5	0xbd7219b6	-0.05910655
6	0xbd7c4d03	-0.06159688
7	0xbdd987bd	-0.10621593
8	0x3dc23942	0.09483577
9	0x3cca7477	0.024713738
10	0x3cd0e09e	0.02549773
11	0x3cd56999	0.02605133
12	0xbd00a493	-0.03140695
13	0x3da3145f	0.0796287
14	0x3d576f8e	0.05259662
15	0x3c211f40	0.009834111
16	0xbd44622a	-0.04794518
17	0xbdb4f96e	-0.088366374
18	0xbdc776b8	-0.09739441
19	0xbb6bf863	-0.0036006204
20	0xbddbfbc0	-0.10741377
21	0x3d0e37a1	0.03472102
22	0xbd918652	-0.07105698
23	0x3d4f8d5b	0.050671916
24	0xbb3fdd26	-0.0029276102
25	0x3c5a7bb8	0.013335161
26	0xbd0c24b7	-0.0342147
27	0x3d0cbf7f	0.034362312
28	0x3de416a3	0.1113713
29	0xbdedd3c9	-0.116126604
30	0x3db03ef8	0.0860576
31	0x3dbc5c0c	0.09197244
32	0xbda42ae8	-0.08015996
33	0x3d7255e3	0.05916394
34	0x3db32952	0.087481156
35	0x3dc89537	0.097940855
36	0xbd91c15a	-0.07116957
37	0xbd897f0b	-0.06713685
38	0xbd01693d	-0.031594504
39	0xbdd4b56a	-0.103861645
40	0xbd4ee1b5	-0.05050822
41	0xbce2e3b3	-0.027696466
42	0x3d9c66a9	0.07636768
43	0x3d962f44	0.07333234
44	0xbd97fe1a	-0.07421513
45	0x3db18b8f	0.08669197
46	0x3db77e66	0.089596555
47	0x3cd19692	0.025584493
48	0x3d8415bf	0.0644946
49	0xbdeaa89d	-0.11457942
50	0xbdca895c	-0.098894805
51	0xbcd48a40	-0.025944829
52	0x3d8ae0af	0.06781136
53	0xbd35e162	-0.044404395
54	0xbda77144	-0.081759006
55	0x3d2b7002	0.041854866
56	0xbd101afc	-0.035181984
57	0x3d0908e7	0.033455756
58	0x3da8ff33	0.082518004
59	0x3d9b9459	0.075966544
60	0xbc996535	-0.018725017
61	0x3df73d3e	0.12072228
62	0x39fc3021	0.00048101044
63	0x3a800959	0.0009768411
64	0xbc6c4a54	-0.014422018
65	0x3c431a3a	0.011908108
66	0x3d64d890	0.055870593
67	0x3c64b0f0	0.013958201
68	0x3bffdc4e	0.007808245
69	0x3d7ed877	0.062218156
70	0x3d65fcf4	0.056149438
71	0xbc9aeb6f	-0.018911092
72	0x3c820098	0.015869424
73	0xbdbd0aeb	-0.09230598
74	0xbda59bfc	-0.08086392
75	0x3c413443	0.011792245
76	0xbd94a3b4	-0.072577864
77	0xbcaa578c	-0.020793699
78	0x3e074720	0.13210726
79	0x3c6f0e68	0.014590837
80	0x3d42d667	0.04756775
81	0xbc9d34e9	-0.019190269
82	0x3dabc827	0.083877854
83	0xbd8ec9e0	-0.06972098
84	0xbdafa046	-0.085754916
85	0xbcea8dee	-0.02863213
86	0x3cde1366	0.02710886
87	0xbcd39817	-0.025829358
88	0x3d80dd83	0.0629225
89	0x3db58164	0.0886257
90	0xbd08a411	-0.03335959
91	0xbcad1a7a	-0.02113079
92	0x3d0985d5	0.033574898
93	0x3cad991e	0.021191176
94	0xbdaad72b	-0.08341821
95	0xbd5eff97	-0.05444297
96	0x3ad8f369	0.0016552034
97	0x3d4c2121	0.04983628
98	0x3ba459f0	0.005015604
99	0x3dbb13d6	0.09134643
100	0xbd127e3f	-0.03576493
101	0xbdfa063b	-0.122082196
102	0xbdb1488f	-0.086564176
103	0xbd34cda1	-0.044141416
104	0xbdd8464a	-0.105602816
105	0x3e0fc6e8	0.1404072
106	0xbda34964	-0.079729825
107	0xbd90a2d1	-0.07062305
108	0x3d0b0c41	0.033947233
109	0x3baecc1d	0.005334391
110	0x3d52e26a	0.051485457
111	0x3e0b0486	0.13575944
112	0x3b91a764	0.0044450033
113	0x3dbac18e	0.09118949
114	0xbda05120	-0.07827973
115	0x3e0b0983	0.13577847
116	0x3d1e4313	0.038638186
117	0xbce52778	-0.027972922
118	0xbcc81eaf	-0.024428694
119	0xbcd89ae0	-0.026441038
120	0x3d211ffb	0.03933714
121	0xbcda8310	-0.026673824
122	0xbd8e1285	-0.06937126
123	0xbd01562c	-0.03157632
124	0xbd6ce846	-0.0578387
125	0xbd68c469	-0.056827936
126	0x3c3f183f	0.011663496
127	0x3db536e5	0.08848361
128	0xbcf473a3	-0.029840296
129	0x3c3bd6b5	0.011464764
130	0x3d36ed85	0.04466011
131	0x3bd82903	0.006596686
132	0xbd235b1e	-0.039881818
133	0x3c28077d	0.010255692
134	0xbd9d2831	-0.076736815
135	0xbcc7808e	-0.024353292
136	0x3ddba7d0	0.10725367
137	0xbe08a626	-0.1334463
138	0x3daa78e9	0.08323843
139	0xbdd01c10	-0.101616025
140	0xbd354944	-0.044259325
141	0x3d96f0ee	0.073701724
142	0xbe074c8f	-0.13212799
143	0x3c726316	0.014794132
144	0xbcb74571	-0.02237198
145	0xbcc005bf	-0.02344024
146	0x3dccdc5c	0.10002968
147	0xbdec6b0d	-0.11543856
148	0x3d088786	0.03333237
149	0x3dd4368d	0.10361967
150	0x3db2233f	0.08698129
151	0x3d1e4a70	0.038645208
152	0xbc9490f4	-0.018135525
153	0xbd85b105	-0.065279044
154	0x3c2f9a05	0.010717873
155	0x3e02a2c0	0.12757397
156	0xbc8b0c30	-0.016973585
157	0x3dc382ea	0.09546454
158	0xbc60bbae	-0.013716621
159	0x3d951b05	0.07280544
160	0xbdce740b	-0.10080727
161	0xbdf8d01f	-0.12149071
162	0xbc4ae5dd	-0.012383905
163	0xbd60ca52	-0.054880448
164	0xbb2597c7	-0.0025267468
165	0x3dfcd111	0.12344564
166	0xbdeb2474	-0.11481562
167	0xbdaf9e86	-0.08575158
168	0xbc3666ae	-0.011132879
169	0xbbcf603e	-0.0063286116
170	0xbd876c60	-0.06612468
171	0x3c83c7c6	0.01608647
172	0x3cf11ce0	0.029432714
173	0x3d18ac67	0.03727379
174	0xbcae7778	-0.021297202
175	0xbdec95cc	-0.11552009
176	0xbca4d8b9	-0.020122873
177	0x3db6ddff	0.08929061
178	0x3dfce801	0.12348939
179	0x3c8282ac	0.01593145
180	0xbaa74e50	-0.0012764428
181	0x3db7beba	0.08971925
182	0x3d94c86f	0.07264792
183	0xbdc086d9	-0.0940072
184	0x3ddb48ae	0.10707222
185	0xbdd591d3	-0.104282044
186	0xbd80c178	-0.06286901
187	0x3d991a54	0.07475725
188	0x3cc7a777	0.024371846
189	0x3cfe0d5f	0.031012235
190	0x3da6312d	0.08114848
191	0xbdf0083e	-0.11720322
192	0xbe0260cb	-0.12732236
193	0x3df81c33	0.121147536
194	0xbd73d645	-0.059530515
195	0xbdc05c90	-0.09392655
196	0x3de6d522	0.112711206
197	0x3d223f8d	0.039611388
198	0xbcd3bd20	-0.025847018
199	0x3d05db61	0.03267992
200	0x3da49491	0.08036149
201	0xbbb905b3	-0.0056464314
202	0xbd9fb861	-0.07798839
203	0xbd85ba09	-0.06529624
204	0x3d98435f	0.07434725
205	0xbdd34a2e	-0.10316883
206	0x3d090066	0.033447646
207	0x3d9cdf5d	0.07659791
208	0x3da0cfab	0.078521095
209	0xbd6393de	-0.05556094
210	0xbe016a2c	-0.12638158
211	0xbdaa9dd0	-0.083308816
212	0x3d3e30af	0.046433147
213	0xbd969f05	-0.07354549
214	0x3da4d86b	0.08049091
215	0xbd93e879	-0.07222075
216	0xbd80bffc	-0.06286618
217	0xbd56b47f	-0.05241823
218	0x3bf813f6	0.007570739
219	0x3da3d9cf	0.08000528
220	0xbd5c7f9c	-0.053832635
221	0xbdfa2ae9	-0.12215216
222	0x3cfe9853	0.031078493
223	0x3bd5ef43	0.0065287664
224	0xbc92dd0d	-0.01792767
225	0xbd3b8b41	-0.0457871
226	0xbd850f63	-0.064970754
227	0x3d74d5e1	0.059774283
228	0x3d96d91f	0.07365631
229	0xbd271df9	-0.04080007
230	0x3d312e35	0.043256957
231	0x3cf21111	0.029549154
232	0x3c81da71	0.015851231
233	0x3c90e322	0.01768643
234	0x3e0cff5d	0.13769288
235	0x3d703cd0	0.058651745
236	0x3c0341ad	0.008011264
237	0x3dd2abd8	0.10286683
238	0x3d092014	0.033477858
239	0x3dcd2422	0.100166574
240	0x3df365ec	0.118846744
241	0x3d1f36d6	0.038870655
242	0xbc3e38b6	-0.011610201
243	0xbdb14972	-0.08656587
244	0xbdd2efc2	-0.102996364
245	0x3dae78b5	0.08519117
246	0x3cf38050	0.02972427
247	0x3ddb77da	0.10716219
248	0xbbba7d83	-0.0056912317
249	0xbd574dce	-0.052564435
250	0xbbc18a0d	-0.0059063495
251	0xbdb7a7bd	-0.089675404
252	0xbc708ba2	-0.014681729
253	0x3dffd207	0.124912314
254	0xbd4e7165	-0.05040111
255	0x3c9f9517	0.019480271
