models/mini_lstm_best.pth (torch, 257821 bytes, 20 tensors)

lstm.weight_ih_l0 f4 [128, 111]
00000000: ffcd 61bd 67db 2b3c 59fd cfbd b3cf 3e3e
00000010: c120 4cbd c4df dbbd ba19 f5bd 2845 0d3e
00000020: 2498 04be b551 c9bd 56a5 363d 6628 ec3d
00000030: 1bc7 453e b52d 933d 9299 12be c744 0c3d
00000040: 7c8e 943d e333 283e 82c3 3abd 9f2e 2b3e
00000050: dc98 18ba 2135 3e3e e1d4 edbd 33c0 cdbd
00000060: 97a5 223e 8373 493d 331b 08be 76e7 0e3d
00000070: ff08 59bb 60e7 7dbd f98f a63b dd12 c33d
00000080: cbf6 f6bd 5778 a5bd e849 6dbd a792 39be
00000090: 16a6 20be a8ba 1abe a84d c3bd e0c9 113e
000000a0: 51e9 2fbe 1225 e5bc 79a3 88bd 1f0c a8bd
000000b0: 0f3d 40be 74f2 32be f5c7 05be 320a 91bd
000000c0: 00fe 113e dd73 1f3c 6394 363d 94f7 e5bd
000000d0: d2c3 04be e5f8 0abe 507e 9cbd 63bb 93bd
000000e0: 18b3 f93d 2fd8 2ebe eeb0 0d3e 2de1 b83d
000000f0: 5839 14be d0db aabc dcb1 9dbd b69b 193e
00000100: f6db 28bd b3bd 4b3d c3fb 18be 8b70 babd
00000110: e33a 42bb 7817 2f3d f4bf 843d 821b 303e
00000120: c529 e33c 6fb6 0bbe 0d1a b8bd f416 043d
00000130: 0087 f4bd 4750 9ebc 0d7d dc3b c63f 8cbd
00000140: 5f16 e2bc f2bb 11be 02eb b8bc 5cfa 0c3e
00000150: d7d2 0a3e e845 9abc fd2c ba3c 62ab d33c
00000160: 8d67 eebc 4b03 adbd f4dd 04be af5f 493e
00000170: b425 e0bd 5444 183e ed6c 1a3e 0623 0ebe
00000180: e0f3 c8bb b437 7dbc f79a bf3d 3e03 1abe
00000190: 2023 ecbc fa59 25bd b462 9e3c e220 213e
000001a0: 5e91 1a3e a62a b23d e0fc 333e e20b 263c
000001b0: 00df 083d 3e32 2bbd f2bb dabd b42b a0bd
000001c0: a530 95bd 5848 b4bd 85be e1bd 3136 55bd
000001d0: a4f3 b5bc 03ea 383e e817 35bd 9280 2f3e
000001e0: 14db 4c3d 5042 88bd d181 33bc 770b b03d
000001f0: f0c7 3e3d 226a 1c3d ac12 1cbe dc73 82bd
00000200: 66f5 c03d 86a0 dc3d f360 37be 08c2 733d
00000210: 858d eebd 3279 cdbd 7620 f5bd 6951 f6bb
00000220: 03fa a3bc 796b b73d 0591 df3d 284b 90bd
00000230: 481c 013e 3ca4 8c3d c0bc e13d d499 1a3a
00000240: 3ae1 283e bb0c fabd a407 b5bd 81ad e43d
00000250: 53c6 dbbd ce0b c83d 66d3 a03c a052 c03d
00000260: 55d2 25bd 9183 b13d cea3 d83d 3b4a e23d
00000270: e8d2 67bd 935c 52bc b857 b5bb b152 283e
00000280: 72ad 13bd d6eb 103e 6431 d4bd 4da4 543c
00000290: 7ade 37bc f14e 0a3e 2396 dcbd 39bf 66bb
000002a0: 356f 22bd d7a5 71bd a0f0 e2bd 0cf7 863c
000002b0: 1267 51bd 6f1d ef3d f543 bc3d 377b 0abe
000002c0: 0905 373e 603b 5f3d e1e6 7dbd c215 1abd
000002d0: 063c 08be 019e 32bc 01e7 fc3d 7807 33be
000002e0: 7d85 0d3d ef4f d5bc 98f6 16bb 56ba d73c
000002f0: c06e d23d 5b14 db3d fc9c a83d 61ae e63d
00000300: c873 a3bd 4adb d8bd 3e61 7d3d c523 023e
00000310: 0008 333e 0453 2abe 860f 1f3d aba6 113e
00000320: 77e4 4a3d aaf9 c7bd 412d 8a3d 1757 dcbd
00000330: 723a 013e 4897 aa3d 4eb6 f1bd 6d4c e5bd
00000340: 9980 0ebe f882 a23d 55f0 57bc a4bf 0cbd
00000350: d2f4 41bc b65c 5a3c 6ad5 4ebc bcb8 893c
00000360: 843c cc3d 25ff 83b9 26fa ccbd 9e3e 0d3e
00000370: baab 85bd 5b49 a03d 2f8e 813d bab4 4d3c
00000380: 2096 1bbe 363e 2c3d 48e9 c0bc 41b0 11be
00000390: 2838 a6bd 9347 3cbe e823 38be f300 213e
000003a0: 1b3f 403d 9cb9 cfbc 70b4 1cbe 5475 06bd
000003b0: 7f5c 1a3e 3421 113e 9e12 1cbe df9e 0f3e
000003c0: 9a4e ec3c 9524 a7bc 8511 af3d a686 f4bd
000003d0: e76e 963d 31f6 863d 55fa 1f3d db24 86bd
000003e0: 6b9c e73d 962c 79bd f699 d83c a08b c1bc
000003f0: 385f 3fbe db0f 1fbd 5a79 953d fd33 11be
-0.055128094 0.010489321 -0.10155744 0.18633918 -0.049835924 -0.10736039 -0.119677976 0.13795912
-0.12948662 -0.098300375 0.04459127 0.11531143 0.19314234 0.07186452 -0.14316395 0.03424528
0.07253739 0.16426043 -0.045596607 0.16717003 -0.00058211177 0.18574955 -0.11612869 -0.10046425
0.1588348 0.049182426 -0.13291626 0.034888707 -0.0033116934 -0.061988235 0.005083081 0.09525082
-0.12058791 -0.08079594 -0.05793181 -0.1812235 -0.15688357 -0.15110266 -0.09536296 0.14237165
-0.17178847 -0.027971778 -0.06671805 -0.08205437 -0.18773292 -0.17475301 -0.13064559 -0.07082023
0.1425705 0.009732214 0.044575106 -0.112288624 -0.12965325 -0.13571508 -0.0764128 -0.072134756
0.121923625 -0.17074655 0.13837025 0.09027324 -0.14475 -0.020856768 -0.076999396 0.15000805
-0.041225396 0.04974146 -0.1493979 -0.09103497 -0.002963715 0.04274699 0.06481925 0.17197993
0.027729878 -0.13643812 -0.08989344 0.032248452 -0.11939812 -0.019325389 0.0067287744 -0.06848101
-0.027598558 -0.14231852 -0.022572998 0.1376738 0.13556992 -0.018832162 0.02272653 0.025838558
-0.029102111 -0.08447894 -0.12975293 0.19665407 -0.10944691 0.14869815 0.15080614 -0.13880548
-0.006132588 -0.015455175 0.09355729 -0.150403 -0.028825343 -0.04036901 0.019334175 0.157352
0.15094516 0.08699541 0.17576933 0.010134669 0.033415794 -0.04179596 -0.10680379 -0.07820836
-0.07284669 -0.08802861 -0.11022667 -0.052053634 -0.022210903 0.18058018 -0.044212252 0.1713889
0.050013617 -0.06653273 -0.010956244 0.08595937 0.046577394 0.038187154 -0.15241498 -0.06369755
0.09421806 0.10772805 -0.17908077 0.059511214 -0.116480865 -0.10032882 -0.11969082 -0.007517029
-0.020016676 0.08956046 0.10916332 -0.07045585 0.12608445 0.06867263 0.11022329 0.0005897556
0.16492167 -0.122094594 -0.08839348 0.11165906 -0.10731187 0.097678766 0.019632053 0.093907595
-0.04048379 0.086676724 0.10578118 0.110493146 -0.05659762 -0.012839454 -0.0055341385 0.16437794
-0.036054082 0.14152464 -0.10360983 0.0129786255 -0.011222476 0.13506676 -0.10770824 -0.0035209192
-0.039656837 -0.058996048 -0.11081052 0.016475223 -0.051123686 0.11675536 0.09192649 -0.13523565
0.17873015 0.054499984 -0.06198776 -0.037618406 -0.13304147 -0.010901929 0.12348748 -0.17483318
0.034551132 -0.026039092 -0.0023035165 0.02633397 0.1027503 0.10697242 0.082330674 0.11263729
-0.07981068 -0.10588701 0.061860316 0.12708957 0.1748352 -0.1663323 0.038833164 0.14223735
0.049534287 -0.097644165 0.06746913 -0.107587986 0.12619951 0.08329636 -0.1180235 -0.11196218
-0.13916244 0.079351366 -0.013179858 -0.03436245 -0.011838155 0.013327768 -0.012624124 0.016811721
0.0997248 -0.00025176365 -0.100086495 0.13793418 -0.06526895 0.078264914 0.063259475 0.012555296
-0.15193987 0.042051516 -0.023548737 -0.14227392 -0.0811618 -0.18386678 -0.17982447 0.15723018
0.046935182 -0.02535706 -0.15303206 -0.032826737 0.15074347 0.14172822 -0.15241477 0.14025448
0.028846074 -0.020403186 0.085482635 -0.11939745 0.07345372 0.06589926 0.039057095 -0.065499984
0.11309131 -0.060833536 0.026440602 -0.023626149 -0.18688667 -0.03883348 0.072985366 -0.14179988

lstm.weight_hh_l0 f4 [128, 32]
00000000: b04f 2c3d 0a09 2cbe a5a7 aebd 41da 73bd
00000010: 7937 c2ba 9020 aa3d 3649 be3d cea2 fcbd
00000020: 69e8 a2bd 5994 9a3d cb4b 01be c1fb f13d
00000030: d311 203e 7623 19bd 2e32 1f3e 16a9 31bd
00000040: aeec 65bd 21b2 753d 5bbb 24be 5122 023e
00000050: 5334 e6bc 548c 033e d2ec e33d b13b 1e3e
00000060: d083 9739 5a38 c5bc 53b4 6ebd d6ba 8e3d
00000070: ca58 ea3d 5f62 cf3d 00f4 473e 72dd 0a3c
00000080: d544 053e 0949 b7bc e489 c6bd a320 39bd
00000090: e7f8 033e fade 8ebd 3508 3e3d 35b7 52bd
000000a0: 9460 e3bd af69 883d 6073 09be fa15 2bbe
000000b0: 1765 2d3e 4c8c 2cbc 10c3 953d a673 943d
000000c0: e738 08be 29eb d1bd 9663 373e 0709 043e
000000d0: 0cff f7bd f2c2 dbbd 0e3d 8f3d 5d0e 08be
000000e0: 2c61 893c 596a 143d 18d1 133e b491 73bd
000000f0: 513c 7dbd 98b4 593c bf50 edbc 185a acbd
00000100: b7af 3a3e 00b7 023e c3fe de3d 2a7e c73c
00000110: 9d30 9aba 472c f6bd 3f13 35bc dbc5 2dbe
00000120: d39a 8e3d d3db a33d ea22 033e 4a91 ccbb
00000130: 347f e73d a4fa 683d fcd2 af3d e323 e93d
00000140: ec05 eebd 8034 b0bd 4eb1 02bd 1245 32be
00000150: 56a4 663d e118 1e3c 509f 12be 31d9 333e
00000160: 07e1 12be e843 2cbe 34fc ebbd 9fef 413e
00000170: 0686 12be b89b f6bc 3c91 173e 5705 1e3d
00000180: 68e6 16be bba5 9cbd 7009 b03d 4f5f fabd
00000190: b962 773d 9c4e 073e a49a d73d f318 dbbd
000001a0: e682 1dbe 0aae a2bd 9fae 973d ba32 14be
000001b0: c54d 663d 3186 82bd 53a6 1ebe b446 343d
000001c0: 9313 3e3e 30d6 233c 60da f23d 6729 47bd
000001d0: 1efc c73d df88 f4bd cefb 983d 9d44 c6bd
000001e0: ce4e 56bd ed04 3e3d 37ac c4b9 6f11 e33d
000001f0: 7115 ab3c b649 ab3d e8ac 693d c880 583b
00000200: 2e4a c43d 51b0 53bd 5f68 be3d e044 343d
00000210: 9021 d33d 640d 4b3c 1080 13be dd21 a8bd
00000220: bd1e 0cbe 06a6 d43d e1a5 66bd 8b34 76bd
00000230: dc70 e33c c2e2 053e 1186 0d3e 1c33 e93d
00000240: 37c6 05be b824 783d fcdb 1e3e 3e54 1a3e
00000250: e01d 22be 5724 ca3d c60c 603d 7db0 2cbe
00000260: 0057 083e 6e13 07be 2619 e5bd 25c2 e6bd
00000270: e8e0 a43d e761 acbb 03cd 1d3e 049d d93d
00000280: 0225 f63d 9b18 07be 6914 2a3e 53c9 f2bc
00000290: b491 a3bc 7f71 6cbd 5d1e 1fbe d980 3bbc
000002a0: 2ac6 ccbc 34c8 08be c7e5 3a3e 5d79 d33d
000002b0: bdb7 aa3d 941a 2a3d 4813 023d 6f7a fdb9
000002c0: 705b adbd fe18 b13d dcd3 f0bc 22df ea3d
000002d0: 223e 22be 5a5b 9dbd aed5 33be bbf7 193e
000002e0: 95fd 103e deaa 14be 5da2 2abe 51bf 54bc
000002f0: f745 f93d 4628 b8bd 1ad8 39bd 4389 05bd
00000300: bfee 7e3d 2e14 f43d 996e aabd ee88 1cbd
00000310: eda5 bbbd 4ad7 4b3e 1917 583d 9609 4b3d
00000320: 8720 9e3c cb0a c03d b4ec 683d b5c6 68bd
00000330: a2d3 403e 6984 cebd d9c6 7cbc 20be b43d
00000340: 34e0 24bc bee4 09bd ee35 af3d cf04 d93d
00000350: ed80 05bd a79c 2e3e be72 473e fb36 02bd
00000360: 9de9 1e3e 4536 cfbd 2648 733d 99a9 12be
00000370: b8de 8bbd e1e2 b33d 3c38 3bbe 3c14 aa3d
00000380: 87cf bbbd 740a 8ebd f15c 51bd 28d3 333e
00000390: 830e da3d fa11 3f3d bfc0 443e 554e de3d
000003a0: 4cea 273e f988 2dbe 0563 9cbc 5163 86bd
000003b0: d6eb ca3d faf6 85bd 3a4b 9f3d 6257 acbd
000003c0: 271b 5d3d 6681 cdbc 520f 403c a435 1ebb
000003d0: fc5a fa3d add6 8bbd 81cc fd3d 8426 663d
000003e0: 3d6a 073e 473a 383e b9c9 053e 8146 bd3d
000003f0: 5452 0e3d 24e0 1b3d 843f b53d db77 1fbe
0.042068183 -0.16800323 -0.085280694 -0.059534315 -0.0014817558 0.08306992 0.09291308 -0.1233574
-0.07954485 0.07547826 -0.12626569 0.11815596 0.156318 -0.037387334 0.15546486 -0.043374144
-0.05613392 0.05998433 -0.16087095 0.12708403 -0.028101122 0.128465 0.11129154 0.15452458
0.00028899172 -0.024074722 -0.05827744 0.0696923 0.114427164 0.10126185 0.19526672 0.008475648
0.13014539 -0.022373693 -0.09694269 -0.04519714 0.12887917 -0.06976123 0.046394546 -0.05144425
-0.11102405 0.066607825 -0.13422918 -0.16707602 0.16933094 -0.010531496 0.07312596 0.07248621
-0.13302957 -0.10249931 0.17909083 0.12894069 -0.12109193 -0.10730542 0.06994067 -0.13286729
0.016769968 0.036234234 0.14435232 -0.059465125 -0.0618251 0.013287686 -0.028969167 -0.084156215
0.18231092 0.12765121 0.10888436 0.024352152 -0.0011763755 -0.12020164 -0.011051952 -0.16970007
0.06963124 0.080009125 0.12806287 -0.0062429057 0.11303559 0.056879655 0.08585164 0.11383798
-0.11622223 -0.086037636 -0.031907372 -0.1740916 0.056309067 0.009649486 -0.14318585 0.1756332
-0.14343654 -0.16822779 -0.11522713 0.18939064 -0.14308938 -0.03010355 0.14801496 0.03857931
-0.1473633 -0.07648798 0.0859555 -0.1222521 0.060396884 0.13213581 0.10527542 -0.10698118
-0.15381965 -0.079433516 0.07406353 -0.14472476 0.05622651 -0.06373251 -0.15493135 0.04401274
0.18562154 0.009999797 0.11858058 -0.04862347 0.097648844 -0.119401686 0.07469903 -0.09681056
-0.052321248 0.046391416 -0.00037512343 0.110873096 0.020884247 0.083636686 0.057049662 0.0033035744
0.09584461 -0.05168182 0.09297251 0.044010997 0.10309136 0.012393329 -0.1440432 -0.08209584
-0.136836 0.10383229 -0.05631054 -0.060108703 0.027763776 0.13074782 0.13820674 0.113867015
-0.13063894 0.060581893 0.15513605 0.15071198 -0.15831709 0.098702125 0.05469968 -0.168642
0.13314438 -0.13191006 -0.11186437 -0.11267499 0.0805071 -0.0052606943 0.15410237 0.106256515
0.120187774 -0.1319298 0.16609348 -0.029637014 -0.019966938 -0.057725426 -0.15538926 -0.011444294
-0.024996836 -0.13357621 0.18251716 0.103258826 0.083358265 0.041529253 0.03175667 -0.0004834714
-0.08464706 0.08647345 -0.029397897 0.114683405 -0.15844014 -0.076834396 -0.17561981 0.15035908
0.14159234 -0.14518306 -0.16663499 -0.0129850665 0.12171548 -0.089920565 -0.045372106 -0.032601606
0.062239405 0.119179115 -0.08321876 -0.038216524 -0.09162507 0.19906345 0.052756403 0.04956969
0.01930262 0.093770586 0.056866363 -0.056830127 0.18830732 -0.10083849 -0.015428268 0.08825326
-0.01006322 -0.03366541 0.08555208 0.1059662 -0.032593656 0.17051946 0.19477364 -0.031790715
0.15518804 -0.10117773 0.059394978 -0.14322509 -0.068295896 0.08783508 -0.1828317 0.08304641
-0.09170442 -0.069355875 -0.051114026 0.17561018 0.10647299 0.046648003 0.19214152 0.108547844
0.16397971 -0.16946782 -0.019090185 -0.06561912 0.099082634 -0.06541248 0.0777802 -0.084151044
0.053980973 -0.025086116 0.011722403 -0.002414086 0.12224385 -0.068280555 0.12392522 0.056189075
0.1322412 0.17990981 0.13065232 0.09241963 0.034746483 0.038055554 0.08850005 -0.15573065

lstm.bias_ih_l0 f4 [128]
00000000: 2f35 bd3d 87b7 38bd 71fd 48bd 6b37 0f3e
00000010: 9d08 3bbe f125 1bbe 85ac a9bd e794 fe3d
00000020: 16a5 d0bd 33af 8b3d 49e1 b83d 3ce0 1c3d
00000030: 385e 5abd 9721 c53c 0107 e9bd ce46 67bd
00000040: b2fb 1c3d abda 573d 88f5 ba3c 5606 e73b
00000050: 9789 163e 212f cebc 9d01 3a3c 4d79 6b3d
00000060: 139b 85bd 0782 7e3d 0680 9bbc 48d7 533c
00000070: 9df2 f23c 4717 dbbd 868a 9f3d 2a68 9f3d
00000080: cdd7 1d3e 819a ca3c 7ba9 093e a6e2 7fbd
00000090: 63f1 adbc 1a2e 053d c1dd e2bd f477 443e
000000a0: 6a83 5a3d d360 b93d 1cf9 463d d7a9 4c3c
000000b0: 447d 22bc 21a3 493e 213f a93d d609 a23d
000000c0: 175e 9d3d 5ee0 2c3c 4812 04bc bf53 533d
000000d0: 4304 bc3d 7944 4e3e dba2 aa3b f137 623d
000000e0: bfca df3d 4c99 bd3d 557f e3bd 5378 203e
000000f0: 7f8c 82bc 3e00 f3bc c011 08bd b778 d53b
00000100: 08ce 733d 9c39 0f3e f977 36be 8579 5ebd
00000110: 7537 1d3d 01cb 1b3e ab83 aebc 1cbe 1c3d
00000120: b491 243e 2eaa 243e 9976 39be c2da 0cbe
00000130: 38f0 b93d 8bf9 cb3d a3a4 1abe 408e d9bd
00000140: 1540 a9bd 626d 9c3d 91a3 903d 71d9 4d3e
00000150: 8aad 4d3d 32fb 5ebd dc6b 2f3d b720 103e
00000160: ae37 663c d0c4 ef3d 3a7d bc3d b011 103e
00000170: ab27 2b3d f9bb 863c 2b8d 3dbe 60bc 0cbd
00000180: faf7 0fbd 9204 aabd e249 0f3d 29d4 973d
00000190: d7bb 903d a325 af3d 413b 273e ab9c 493e
000001a0: 8c65 e73c 4b25 3d3e bed2 b93d 9b12 2c3e
000001b0: 1f6e e5bd a0b2 47bd a8fb a4bd cb17 013b
000001c0: f0b0 27be a888 1ebe bced 223e 4141 843d
000001d0: 4792 f7bd b56c 4a3d 6cdd 16be c876 33be
000001e0: a184 933d 2428 15bd ada8 023e bbee 73bc
000001f0: ed93 1a3e 640c a5bd 6618 b0bd c2f2 d43b
0.092386596 -0.0450969 -0.049069826 0.13985984 -0.18265004 -0.15151192 -0.082848586 0.124307446
-0.10187738 0.06820526 0.09027345 0.038299784 -0.05331251 0.024063868 -0.11378289 -0.05646401
0.038325973 0.052698772 0.022822157 0.007050316 0.14700924 -0.025168957 0.011352924 0.05748873
-0.06523719 0.062135722 -0.018981945 0.012929745 0.029656703 -0.10697799 0.07790093 0.077835396
0.15414353 0.024731876 0.13443558 -0.06247201 -0.021233266 0.03251467 -0.110774525 0.19186383
0.053347982 0.09051671 0.048577413 0.012491665 -0.009917561 0.19691135 0.08263994 0.07912032
0.07683962 0.01055154 -0.008060999 0.05159354 0.091805 0.20143308 0.005207402 0.05522913
0.109273426 0.09257755 -0.11108271 0.156709 -0.015936134 -0.029663201 -0.033220053 0.0065146345
0.05952266 0.1398682 -0.17819203 -0.05431511 0.038382966 0.15214159 -0.021303019 0.03826724
0.16071206 0.16080543 -0.18111648 -0.13755324 0.09079021 0.09959706 -0.15101866 -0.10622835
-0.08264176 0.076380506 0.07062448 0.20102479 0.050214328 -0.054438777 0.042827472 0.1407498
0.014051361 0.11707461 0.092035726 0.14069247 0.041785877 0.016447054 -0.18510883 -0.034359336
-0.0351486 -0.08301653 0.03498257 0.07413513 0.070670776 0.085521005 0.16331197 0.1968867
0.028246664 0.18471257 0.09073399 0.16803972 -0.112026446 -0.048754334 -0.08055812 0.001969802
-0.1637609 -0.15481818 0.15911001 0.06457759 -0.12088447 0.049420077 -0.14732903 -0.1752578
0.07203031 -0.036415234 0.12759657 -0.014888461 0.15095492 -0.08059004 -0.08598404 0.0064986655

lstm.bias_hh_l0 f4 [128]
00000000: 171b a73c 3615 f6bc 3c7e 29be 11af a03d
00000010: af04 b0bd 9593 d3bd f245 cc3d a08d be3d
00000020: c090 ba3d 46d2 08bd 8009 81bd a953 8f3d
00000030: 383b ccbb 8fb3 d53d 7133 9b3d 6887 00be
00000040: d081 34be c346 ae3d e5ad 1e3e 9f53 77bb
00000050: 1af2 afbd db7f 80bd c60f 3ebb 8a78 bd3d
00000060: 7dc3 bcbd f3e2 4f3d b61b b4bd 1e22 d43d
00000070: 823c eabd 61ff 35be b770 4ebb 452b bf3d
00000080: c5d8 23bd d9b0 ac3d dfbe 883d 53a7 dabd
00000090: 818a 173e a944 fabd c150 203d dea9 533e
000000a0: 8d87 12be 332b 11be d2b5 bdbd 2607 9a3d
000000b0: 44a9 13be fe92 003e 13c1 f93c 2b43 b93c
000000c0: e26e 0e3d e43a 0f3e 8a67 85bd b8f3 bbbd
000000d0: 2e2f 8cbc 22c9 cd3b 5b31 b83c c8d6 ae3d
000000e0: 1146 14be dd69 c03d 14ee 1a3e 8e0c 103e
000000f0: ac94 723d 04f8 013e 23e1 4a3e a3c3 183e
00000100: 31a7 0bbd 92ab 003e 3a22 ba3d 6b3d c9bd
00000110: 2d6c bbbd 9743 233e a48a 883c 8cb2 843d
00000120: b5ae 7b3d 521b 6f3d bee6 a43d e257 1cbe
00000130: 68f3 9e3d 1760 fd3d e2ea 8bbd 53b3 2cbe
00000140: 65ad 3a3e 420d 6bbd bb40 833d cf46 baba
00000150: 2ea3 63bc c8bd 91bd 4166 3d3e 98c7 57bd
00000160: dc68 b13d ce99 303e 2ac4 1cbe 0ac5 fbbd
00000170: fd92 70bd 0487 b5b9 8725 ccbd 5448 1dbd
00000180: 6f5d ccbc b41a 383e 29c9 a6bd f5cf dc3d
00000190: efb8 45bd f032 7c3c 859f b4bc f573 3c3e
000001a0: 8b38 c23c 209b ad3d 41d7 afbc d687 d93d
000001b0: cf61 353d d440 d23d a966 14bc ea43 ab3d
000001c0: 90bc 013e 1e50 88ba 1595 4f3e 9a62 233e
000001d0: 9ba6 063e f647 3c3e 60fb 0b3e 6368 9d3d
000001e0: ebd5 12be 9bfd 213e c151 043e 3d2e 313e
000001f0: 1858 b53d 383d 37be 48ae 81b9 9e16 7c3d
0.02039866 -0.030039411 -0.16552061 0.07845891 -0.08594643 -0.103308834 0.099742785 0.093043566
0.0910964 -0.033403657 -0.0630064 0.06998379 -0.0062326454 0.10434639 0.07578171 -0.12551653
-0.17627645 0.085095905 0.15496023 -0.003773905 -0.08591099 -0.062743865 -0.00290011 0.092515066
-0.09216974 0.050753545 -0.08794348 0.1035807 -0.11437322 -0.177732 -0.0031500289 0.09334425
-0.04000165 0.084321685 0.06677031 -0.10676446 0.14798929 -0.12220127 0.039139513 0.20670268
-0.14309521 -0.14176635 -0.09263195 0.07520895 -0.14420038 0.12556073 0.030487573 0.022615036
0.034773715 0.13987309 -0.06513889 -0.09177345 -0.01711234 0.0062800804 0.022484472 0.0853706
-0.14479853 0.09395192 0.15129882 0.14067289 0.059223816 0.12692267 0.19812445 0.1491838
-0.034094993 0.12565449 0.090885594 -0.09826168 -0.09151492 0.15943752 0.016667672 0.064793676
0.06144591 0.058375664 0.08051823 -0.152679 0.0776127 0.12371843 -0.0683191 -0.16865282
0.18230207 -0.05738569 0.06408831 -0.0014211776 -0.013893886 -0.07116276 0.18496038 -0.05268058
0.086625785 0.17246172 -0.15309206 -0.122934416 -0.05873393 -0.00034623605 -0.09968095 -0.038399056
-0.024946896 0.17978936 -0.08143837 0.10781852 -0.04827207 0.015393004 -0.022048721 0.18403609
0.023708602 0.08476853 -0.021464946 0.10621612 0.04428273 0.10266271 -0.009057679 0.08362563
0.12669587 -0.0010399853 0.20271714 0.15955582 0.13149492 0.18386826 0.1367011 0.07685926
-0.14339416 0.15819399 0.12921812 0.17302795 0.08854693 -0.17894447 -0.00024734647 0.061545007

lstm.weight_ih_l0_reverse f4 [128, 111]
00000000: 370e bfbd e75d 363e 341d 72bd 19cd 8abc
00000010: 917a 073e 2e31 27be aa22 b13d 4ffc 5fbd
00000020: 8bd0 d5bd d3ea 38bd 7589 22bc c2a4 143e
00000030: cb6c e2bd bb86 77bb b225 243d e311 ac3d
00000040: 7723 a7bc 3a53 083e 2767 afbd 344e 563d
00000050: b4a1 033e 748d 113e 88c0 d43c 640e 4e3d
00000060: 1ef8 cb3d 6bcc 40bd ddd8 7dbd 094c 9b3d
00000070: f1cf 23be 5a3b 1f3e 44f2 0fbe c5ca 17be
00000080: f070 97bd 6180 c6bb 9d61 843d 38cc 223d
00000090: b194 12be 3b5b 163e ff7d c8bd a0ff 543d
000000a0: 3938 29bd eedc 3abd cd01 f83b 06ec b1bc
000000b0: 2f14 28bd 1761 a3bd 9a16 daba 97e6 033e
000000c0: 519d d7bd f3d4 0b3e 2459 613d 40e1 1ebc
000000d0: cb8f d2bd 3e94 82bc f482 0cbd 452e dbbd
000000e0: 3e68 1bbc 0e5e ab3c 4638 d8bd 125e 3dbe
000000f0: 7e9b 5d3d 4ff7 d739 6556 bdbd 5382 1a3e
00000100: a60d c53c 0955 173c d05c bf3d 00af ef3d
00000110: 7e44 1bbe 7cad 1ebe 4da9 e4bd 9165 e0bd
00000120: 1409 e9bd 4c2f 7fbc abff 123e 1d5e 1a3e
00000130: 4bf3 ecbd 0b6d cb3d 1eda 35bd 571f 083e
00000140: 56ca e93d 1dff 1e3e a8b7 c23d 51ad e93c
00000150: 3518 053d 61c2 093d 9a74 ab3d 142e 583b
00000160: 7a54 043e ebbf 403e 33b9 363d 1b74 13be
00000170: 70d5 e83d bda7 ed3d 02a7 e33d 7664 0f3e
00000180: 8d69 8a3d 0c53 b7bd 7c1d 84bd d379 fa3d
00000190: 06c6 bc3d 69e2 fc3d 8768 9cbc 5e70 e0bd
000001a0: af6e e93d a91b 183d 98b4 223e d96f 163c
000001b0: 8c77 8f3a 73db 9b3d 65c3 1c3e 1585 45bd
000001c0: ce72 443d e61e 2bbd 5ebc f23d 21b8 f03b
000001d0: 68dc 1ebd e108 2e3e f94f 0c3d fd78 df3d
000001e0: 9e08 383e 81e7 ed3d 1b8f 3b3d 63a2 b23d
000001f0: db04 0b3c c0b8 f5bd d49d 3bbc bb5a e8bc
00000200: 715f 18be b33e 323e 536b 9abd dccb 893d
00000210: b9bd 97bd 9010 093e bfe6 70bd 7c4d 40bd
00000220: f3a6 90bd 9a74 49be 428e 173c b5bd f23d
00000230: 0933 68bb a14e 43be 0a5a c5bd 6d38 63bd
00000240: 7336 08be 6839 e73d 2264 9abd 53e4 8bbc
00000250: 754d 03be c65d 193d b90f 0ebe 4dba e63d
00000260: 0cde eebd 14bd 493d b957 873c a04a 4e3c
00000270: f38f dbbd b1e4 d13c 4813 583b fe0c 0a3e
00000280: 6f4c 4d3b e85f 10bd 4d19 0e3e 071d 84bc
00000290: d835 08be 3bc1 a93d 772c 60bd ef92 42be
000002a0: 907b 71bd d454 f8bd 4924 30be c960 a43d
000002b0: 59e8 42be a2c2 e53d b58f d5bc cd75 adbd
000002c0: 4cbb 563d 21df 76bc 533c 913d 90cb 2cbe
000002d0: e951 d53d e569 27be 5a0b e03d ebb6 c23d
000002e0: 6f3a ac3c 94f7 10be 23ba 403e 20c8 d43d
000002f0: 90ee 193d 2d3d 1c3e 419c 203e 9d31 c13c
00000300: 2f98 f53d 8144 89bc 8eca 113e ea2d 2d3e
00000310: 527e 1b3e 9fcd 2cbd 896f 0d3e e090 edbd
00000320: df05 c4bd 7bdc c1bd 968e 4f3d b618 6b3d
00000330: f1a2 503e 4cb7 00bd cc61 5c3d 5632 b6bd
00000340: b69d c6bd 25d5 4b3d aec7 433e 55ef 2f3e
00000350: f214 873d 4996 0a3e e256 7dbd 59a4 dbbd
00000360: bcc2 023e fcbb a3bc a3fa 21bc 6ae8 f5bd
00000370: f5bf 803a 7729 173e 6b53 b4bd 3fbe 463e
00000380: 26e1 b0bc 2750 b7bd 2abd a2bd 305c 333c
00000390: 7ec3 1fbe 04d5 e03d 161f 9fbb 75f0 493e
000003a0: 27c9 b53d 7802 89bb bd22 833c 20e5 103e
000003b0: bd91 11bc 280b 1c3c 8536 26be a991 243c
000003c0: b9a0 b1bd b1be 91bd d93f a53d 818e 0b3e
000003d0: 92a6 ba3c 4449 67bd 68ea 39bc f196 dc3d
000003e0: b260 d5bd 5381 b13b 4e8d ae3d 9954 b63d
000003f0: d672 12be e2f1 e43d 308c a03c 300f 0f3e
-0.09328883 0.17809258 -0.05910988 -0.016943501 0.13230349 -0.16327354 0.0864919 -0.05468398
-0.10440167 -0.04514582 -0.009920468 0.14515975 -0.11055907 -0.0037769515 0.04007501 0.08401849
-0.020402653 0.13312998 -0.085645966 0.052320674 0.12854654 0.14214116 0.025970712 0.050306693
0.09959434 -0.04706995 -0.061974395 0.07582862 -0.15997292 0.15549985 -0.14057261 -0.14823444
-0.07394588 -0.0060577844 0.06463931 0.03974554 -0.14314534 0.14683239 -0.09789657 0.052001595
-0.041313384 -0.04562085 0.007568574 -0.02171899 -0.041034874 -0.07977503 -0.0016638816 0.12880932
-0.105280526 0.13655452 0.05501665 -0.0096972585 -0.102813326 -0.015939828 -0.034304574 -0.107021846
-0.0094853025 0.020918872 -0.10557608 -0.18492916 0.054103367 0.00041192255 -0.09244994 0.15088777
0.02405436 0.009236583 0.093438745 0.117033005 -0.15162846 -0.15495867 -0.11165104 -0.10956872
-0.11378685 -0.015575241 0.14355342 0.15074964 -0.11569842 0.09932908 -0.044397466 0.13293205
0.11415546 0.15527005 0.09507686 0.028525027 0.03249379 0.03363264 0.08371849 0.003298645
0.1292285 0.18823211 0.044610213 -0.1439976 0.11368835 0.11604259 0.111158386 0.14003167
0.067584135 -0.08951387 -0.06450936 0.122302674 0.092174575 0.12347872 -0.019092811 -0.10958932
0.11398064 0.037135754 0.15889204 0.00918194 0.0010945662 0.07610216 0.15308912 -0.04822262
0.04796105 -0.041777514 0.118523344 0.0073461686 -0.038784415 0.16995575 0.034255955 0.109117486
0.17972037 0.116164215 0.045790773 0.08722379 0.008485044 -0.11998129 -0.011451203 -0.028363576
-0.14880158 0.1740673 -0.07540002 0.06728336 -0.074092336 0.13385224 -0.058813807 -0.046948895
-0.07063093 -0.19673386 0.0092502255 0.1185259 -0.003543081 -0.19072963 -0.09636314 -0.055473734
-0.1330202 0.11290246 -0.0753863 -0.017076647 -0.12822516 0.037442945 -0.13873185 0.11266003
-0.11663446 0.049252585 0.016521322 0.012591034 -0.107208155 0.025621744 0.0032970477 0.13481519
0.0031326076 -0.035247713 0.13876839 -0.016127123 -0.1330179 0.08288809 -0.054729905 -0.19001363
-0.05895573 -0.12125555 -0.17201342 0.08026273 -0.19033946 0.11218764 -0.026069501 -0.08469734
0.052424714 -0.0150678465 0.07091584 -0.16874528 0.10416014 -0.1634899 0.10939665 0.09507545
0.021023957 -0.14156944 0.18821006 0.10389733 0.037581027 0.15257712 0.15684606 0.023583228
0.11991917 -0.016756298 0.14237425 0.16912046 0.15184906 -0.042188283 0.13812079 -0.11599898
-0.09571432 -0.094658814 0.05067309 0.057396613 0.20374657 -0.031424806 0.053804204 -0.088963196
-0.0969805 0.049763817 0.1911914 0.17181142 0.06595792 0.13533892 -0.061850436 -0.10724706
0.12769598 -0.019987099 -0.009886417 -0.1200722 0.0009822833 0.14761911 -0.08804973 0.1940851
-0.021591734 -0.08950835 -0.079462364 0.010947272 -0.15601918 0.109781295 -0.0048560007 0.19720633
0.088762574 -0.0041812025 0.016007775 0.14149904 -0.008884844 0.009524144 -0.16231735 0.010044494
-0.086732335 -0.071164496 0.080688186 0.1362858 0.022784505 -0.056466356 -0.011347391 0.10770977
-0.10418834 0.005417028 0.085230455 0.089028545 -0.14301619 0.11178948 0.019598097 0.13970637

lstm.weight_hh_l0_reverse f4 [128, 32]
00000000: 1191 a4bd 0540 0ebe fc50 413e 9139 d63d
00000010: b09c 863d 6c77 d9bd a94d 11be a46c 1e3d
00000020: e940 a13c b1d0 40bd f865 0f3e def9 29be
00000030: 0b8c cc3d 620e 333d 405d 30bd 024a c83c
00000040: 85e9 1cbe 484d 453d 2d70 0d3e b02c 393e
00000050: e32e 6abd cac5 433d 4ec7 40bc ece9 4d3d
00000060: 12fa f9bd 5bcc e6bd 0560 083e ef0f 133e
00000070: 0313 84bb 1069 ff3d fce2 71bc c127 6dbd
00000080: 6cc0 39bd 01c1 2a3e ef33 f4bc 097c 403e
00000090: c419 b2bd 59dc f43d dc10 47bd 82c2 083c
000000a0: 0373 2d3d 31cc f03c 9d46 9c3d 8465 053e
000000b0: 168b 273e 98e6 d43d ab98 06bd 340e f33c
000000c0: f4a6 31be 5864 1b3e 794e 633d 99f1 3d3e
000000d0: e830 203e eeed 0c3e 2d90 233d 972f a4bd
000000e0: 0ced a4bc a3ea 13bc 8010 07be 4d42 c73d
000000f0: 54f8 ea3d f3c8 003e 9148 233d 2993 aa3c
00000100: 3924 d9bd ac34 00be 3fdf 033e 5426 9abd
00000110: 31e5 913d 1110 f93c 87b9 733c 1ca9 bdbc
00000120: dc17 bcbd 98da 2ebe fea2 ef3d 2e76 d5bc
00000130: 0e5a 9a3d e656 47be f624 033e f8e1 aa3c
00000140: c64e c4bd a8c6 10be 088d 81bd 91f4 a3ba
00000150: 5e0b 1fbd 4ffd 61bd 78f3 97bc c830 4c3e
00000160: 5252 20bd 1e12 83bb 2e9d eebd 770e ae3d
00000170: 0d42 d0bd 54cc 01be c2b0 62bb 6d96 fa3d
00000180: cf6f 45be 6520 1a3d 556c 3b3e 0349 00be
00000190: 158f 9cbd bb69 41bd 2421 213e e8c9 463e
000001a0: d056 32bd cbe9 93bd 9a56 9238 bedc ecbd
000001b0: 1c2f 483e 8708 cf3d 4b70 99bd 8043 5b3d
000001c0: a64d b5bd 3395 0d3d ddbf de3d b580 fcbd
000001d0: b7a4 d9bd 7fc2 883c 2ae5 ff3d e09d a33d
000001e0: 7224 5d3d ab1d 563e 4beb f13d 3ddf 573d
000001f0: 5712 47bd e89a 633d 7a6e 59bd bd25 0c3e
00000200: bd71 97bd 5fe3 db3d 37fc 72bd 72ab ef3d
00000210: 2bac 06bb 7612 ee3d ac5c 0dbe dd98 003e
00000220: 6c68 1e3e 2163 11be 01c4 2a3e f743 343e
00000230: ff83 d33d 6fa7 0ebe 0642 d53d 875b e43c
00000240: f548 d3bd e5c8 803d fe97 283e 387e e8bd
00000250: c372 b13d 86c5 c43d 75fc 99bd 2fc7 e43d
00000260: d9f4 0ebd e861 c33d 6e0f 053e a64e aabd
00000270: e9ed 453d 9783 a1bd 6415 5cbd 2baa 05be
00000280: fe41 fb3d b1ae a03d b2a9 0cbe d2fa 43be
00000290: 614f 05be 00af 2a3e 8739 1e3d a1e1 d93d
000002a0: 83fc 263e d26b 1a3d af2f 94bd 9e1c 81bd
000002b0: e4a4 eabb f00f 48bc e030 223d b848 073a
000002c0: dc1e 31be f0cc 66bc 2215 1d3e 70d8 e63c
000002d0: 0ec1 3c3e 8c53 49bd 5baf 67bb 76e2 b33d
000002e0: c2ed f13d 6aee ddbd c6b7 183e 27b2 c63d
000002f0: 68ca 4cbd e26f db3a f13d 7b3d d9a7 f33d
00000300: 7809 1abe fe62 84bd 111f 2abe 6f89 4a3e
00000310: 7564 d13d 82c7 37bd d870 b2bd 3696 3cbe
00000320: cd2f 08be 8480 24be a232 36be 7df2 40bd
00000330: fa39 303e 1034 513d a899 183e 7973 c0bc
00000340: 6810 b4bd 8e94 d9bd 76ec 713c 7084 43be
00000350: 5521 ee3c f513 b43d 936a d7bd f514 063e
00000360: bf98 abbd 92f7 c23d 67a0 04be 85d5 30be
00000370: 5e6d 0e3e c079 f0bd de88 d8bd df2d a53c
00000380: 3a15 c73d 8f47 ffbd cc6e 04be ffdb 15bc
00000390: 9685 7ebd 6b9f 4abe a43d 013e ad4a 5cbd
000003a0: 5f7d 52bd 191c 80bd 585a 0f3e 4197 a9bd
000003b0: d06a 143e 8ce4 89bd 3b26 eb3d 046f b3bd
000003c0: 1bb6 d7bd 58f6 f63c b2e7 fb3c f70f 87bd
000003d0: b37b 5bbd 3e89 a13d 8c21 01be 1b44 bc3d
000003e0: bb72 983a b917 90bd d487 ca3d 9b50 e5bd
000003f0: 4aee 3a3e 1c70 8f3d bd05 b43d 03c9 3f3e
-0.08035482 -0.13891609 0.1887855 0.10460199 0.065728545 -0.10618481 -0.14189781 0.038677827
0.019684272 -0.047074024 0.14003742 -0.16599223 0.099876486 0.04371489 -0.04305768 0.024449352
-0.15323456 0.048169404 0.13812323 0.18083453 -0.05717362 0.04779605 -0.011766268 0.050271913
-0.122059 -0.112694465 0.13317879 0.14361547 -0.0040305867 0.12471211 -0.01476359 -0.05789924
-0.045349523 0.16675188 -0.02980992 0.18797316 -0.08696321 0.119560905 -0.048600063 0.0083471555
0.04234601 0.029394241 0.07630656 0.13027006 0.16361651 0.10395545 -0.03286044 0.029669859
-0.17348844 0.15174997 0.05549476 0.18549193 0.15643656 0.13762638 0.03993242 -0.080168895
-0.020132564 -0.00902811 -0.13189888 0.09729443 0.11473146 0.12576656 0.039864127 0.020822125
-0.10602612 -0.12520093 0.1287813 -0.07526842 0.07123793 0.030403169 0.014875776 -0.023151927
-0.09184238 -0.17075574 0.1170101 -0.026057329 0.07536708 -0.19466743 0.12807068 0.020859703
-0.09585337 -0.14138281 -0.06325728 -0.00125088 -0.0388292 -0.055173215 -0.018548712 0.19940484
-0.039141007 -0.0039999625 -0.116510734 0.08498853 -0.10168848 -0.12675601 -0.003459022 0.12235723
-0.19280933 0.03762855 0.18303044 -0.12527852 -0.07644478 -0.047219973 0.15735298 0.19412959
-0.043539822 -0.07222327 6.977953e-05 -0.11565541 0.19549221 0.10109048 -0.07492121 0.05353117
-0.08852701 0.034566116 0.10876439 -0.123292364 -0.1062712 0.016694305 0.124948815 0.07989097
0.053989835 0.20909755 0.11812457 0.05270313 -0.048601475 0.055567652 -0.053083874 0.13686271
-0.07394741 0.10736727 -0.059322562 0.117026225 -0.0020549397 0.11624615 -0.13804883 0.12558313
0.15469521 -0.14197971 0.16676332 0.17604052 0.10327911 -0.13931058 0.104129836 0.027875675
-0.1031665 0.062883176 0.1646423 -0.11352199 0.08664467 0.09607987 -0.075188555 0.11170804
-0.034901474 0.095401585 0.12994167 -0.08315782 0.048322592 -0.07886427 -0.053731337 -0.13053195
0.122684464 0.0784582 -0.13736609 -0.19138649 -0.13018562 0.1666832 0.03862908 0.106387384
0.16307263 0.03770048 -0.072356574 -0.063042864 -0.00716077 -0.012210831 0.039597392 0.0005160677
-0.17296928 -0.014086947 0.15340093 0.028179377 0.1843302 -0.049151942 -0.0035352323 0.08783428
0.11812927 -0.108364895 0.14913854 0.097019486 -0.049997717 0.0016741718 0.06133837 0.11897249
-0.15042675 -0.06464194 -0.16613413 0.1977899 0.10224239 -0.044868 -0.087129295 -0.18416676
-0.13299485 -0.1606465 -0.17792752 -0.047106255 0.17209616 0.05107504 0.14902365 -0.023492562
-0.08792192 -0.10624038 0.014765849 -0.1909349 0.029068628 0.08792869 -0.10518374 0.13093932
-0.083787434 0.095198765 -0.12951814 -0.17268951 0.13908908 -0.11741972 -0.1057298 0.020163475
0.097208455 -0.124648206 -0.1293289 -0.009146689 -0.062139116 -0.19787376 0.1262117 -0.053782154
-0.051389094 -0.06255359 0.13999307 -0.082808025 0.1449387 -0.06733045 0.11481901 -0.08761409
-0.10532781 0.030146763 0.03075013 -0.06594842 -0.053584766 0.07887505 -0.12610453 0.091926776
0.0011630872 -0.07035775 0.098891884 -0.11197015 0.18254963 0.07003805 0.08790157 0.18729024

lstm.bias_ih_l0_reverse f4 [128]
00000000: 33df a13d 22b5 30be 59d2 bebd 684c cebc
00000010: 474d e03d 0c82 efbd 5347 36be 1277 db3d
00000020: 5192 de3d 2781 36be 2788 d3bd bd10 e9bd
00000030: 9de0 a73c 8d02 0dbe 88ad 07be 8ece bdbd
00000040: 27c1 623d 3e79 c43d 41f5 193e 43f5 083e
00000050: 53a1 5b3d c584 c13d a7e2 af3d c039 0fbc
00000060: 35e8 413e 3b1a a5bd b566 9abd 1903 07be
00000070: 1d05 513c 1b0a 00be a8b0 f13c c4f9 ca3d
00000080: 79f0 25be c9de 943d d3da bc3d cc16 36be
00000090: ae35 adbd ceeb 78bc d81e 343e ee52 b03d
000000a0: 1b96 4bbd 227b 633d 4ab3 cebd be59 6cbc
000000b0: 00c6 4abc 46c5 333e 5ae2 11be 8128 853d
000000c0: a1c2 923d 4e40 373e 8bba 0bbd a253 efbd
000000d0: 89e7 353e d5b4 b1bd db11 eebd 50af d6bd
000000e0: 8c7a f13d 7cef f83d c6b4 643d 1253 843d
000000f0: d816 9ebd a1ac 1e3e 2fa8 953c c4d4 1b3e
00000100: c45a 143c d54f 6a3b e1e5 523c 7b22 a43d
00000110: 95e2 1abe 5ffa 2dbe 0c22 23bd 5753 b2bd
00000120: 62c0 82bd ecee bb3d c502 943d c8d3 383e
00000130: 32fd 26be 8ae6 89bd a4c4 94bc 7d08 a1bd
00000140: 3dd6 0a3e 55c9 7bbd 16ab c8bc 1311 74bc
00000150: f607 f43d e05a 8d3d 152b 58bd 324e 36be
00000160: 976b 453d aaac d7bd 223a debc b2f0 b33d
00000170: a86d b9bd 7143 e73d 29e0 c83d 5f3c f13c
00000180: 9114 2cbd f535 bdbd 7ce3 233d 4b1d f13d
00000190: 1467 103e bca5 a5bd afd8 b83b f8ac 76bd
000001a0: c8b0 33bd b6e3 e0bd 1fdf 0abe 20c7 1b3e
000001b0: 1da5 273e d68f 1f3e c38e 283e 76ce 333e
000001c0: e4d5 193e 75fd e3bb 0051 ab3d b16a 68ba
000001d0: 2ee6 2f3e d2a7 a4bc d544 c6bd fd49 15be
000001e0: 6020 c9bd 2296 3e3d acbf 9f3b d15f 9c3d
000001f0: d237 d73d 046e 0b3e 5e6f e9bb 507e e23d
0.079039 -0.17256597 -0.093174644 -0.025182918 0.109522395 -0.11694726 -0.17800646 0.1071607
0.108677514 -0.17822705 -0.103287034 -0.11380146 0.020492846 -0.13770504 -0.1324979 -0.09267913
0.055359986 0.095934376 0.15034963 0.1337481 0.053620648 0.09449152 0.085881524 -0.008741796
0.18936236 -0.08061644 -0.07539121 -0.13184775 0.012757567 -0.12503855 0.029503182 0.0991092
-0.16205014 0.072690554 0.09221425 -0.17782134 -0.08457504 -0.015192939 0.17589891 0.086095676
-0.0497037 0.05553735 -0.100927904 -0.014425693 -0.012376308 0.17555723 -0.14246503 0.06501866
0.07166029 0.17895624 -0.034113448 -0.116858736 0.17764105 -0.08677069 -0.116244994 -0.10482657
0.11790952 0.12155053 0.05583646 0.06461157 -0.07719201 0.1549554 0.018268673 0.15217882
0.009054843 0.003575315 0.01287219 0.08014389 -0.15125497 -0.1699004 -0.03982739 -0.08707302
-0.0638435 0.0917643 0.07227091 0.18049538 -0.16307524 -0.06733425 -0.018160172 -0.07862947
0.13558288 -0.061471302 -0.024495643 -0.014896649 0.11915581 0.06902099 -0.05277546 -0.17803267
0.04819831 -0.1053098 -0.02712733 0.08786143 -0.090541184 0.1129216 0.0980838 0.029447732
-0.0420118 -0.09238807 0.040011868 0.11773165 0.14101821 -0.08088252 0.005641065 -0.06022355
-0.043869764 -0.109809324 -0.13561676 0.15212679 0.1637158 0.15582213 0.1646071 0.17559227
0.15022999 -0.0069577047 0.08365059 -0.0008865996 0.1717765 -0.020099554 -0.096810974 -0.14579006
-0.09820628 0.046529897 0.004875144 0.07635463 0.10508694 0.13616186 -0.0071238717 0.110592484

lstm.bias_hh_l0_reverse f4 [128]
00000000: 9309 20be 16c1 c1bd e9d1 023d 51dd d43c
00000010: 4dae 9a3d cae7 f63d 4efa 97bd 5682 2e3e
00000020: 9067 7b3d 2b76 9dbb 5e4c 91bd 834b 8e3b
00000030: 6be6 973c fae3 393c 024b 10be 43ed 14bd
00000040: cecc 9cbc c82b 463e bbab 8ebb efb1 f6bc
00000050: 977b d9bd 6ea9 aa3c c4f0 ae3d 34a7 9b3d
00000060: a988 0fbe fc6a 9d3d f183 563c 3d82 193e
00000070: 4f24 f93d 58d1 f53c d975 0d3e fd67 f5bb
00000080: d794 b1bd 4ce2 763c cd08 86bd 802c 523d
00000090: 3477 f93d c1a7 933d 2493 f2bd 2d5c 953d
000000a0: 42fc e2bd 1fc4 a6bd 43db 8ebb c27f 9fbc
000000b0: 5026 2bbe 8fbd 9e3d beb2 15bd 98e0 5a3d
000000c0: 2057 073c 7198 25bd 2f8a 7c3d e510 0ebe
000000d0: 853f 93bd d953 163e 5fbe 573d d346 33be
000000e0: 83df 06be 1e2e b9bc 9612 ae3d 5775 133e
000000f0: 0ca1 f3bd 5202 1dbd efe8 b0bd 195d 333e
00000100: 52fb f93d acb2 d03c 2085 34be 902d 1d3e
00000110: 0d25 1e3e 26ae 6d3d 6d5b 16be f2d7 c7bd
00000120: fb8e 59bd 140a 13be ff64 153e e24e 1a3c
00000130: 8999 e9bd f5be 3bbe 2c54 51bd 696d a9bd
00000140: 6d89 e43d ef49 273e 2b0f a3bd ce7a 3c3d
00000150: e908 1d3e 15a1 26be a021 363c 6021 cf3c
00000160: d77a 9b3d a1c6 423e 1d87 343e 49ac 1a3e
00000170: 5540 9bbd 2a13 f6bd a5e4 583c f0b1 cfbd
00000180: df53 e7bb 4d8b f9bd 5fa2 1abd 2553 8fbd
00000190: c43e 69bd e24e c2bc 6bf5 77bc 82a9 38bc
000001a0: 6dc1 c73d c4be a5bd f554 b43d d95e 9bbd
000001b0: 29cd 2abd 5f1e a13d 8f10 10be 5d45 a3bd
000001c0: 6be6 80bd 2b16 56bd b01f 8abd b8eb b3bc
000001d0: bbb1 023e 92f5 97bd 4cd9 e3bc 29f9 c83d
000001e0: 3968 02be 5af1 15be 2887 553e 91d8 503c
000001f0: f2fe c93d 305c 8a3c 18f9 0c3e 029c 00bd
-0.15628652 -0.09460656 0.031938467 0.025984438 0.075527765 0.12055929 -0.07420789 0.17041907
0.06137806 -0.0048053465 -0.07094644 0.004342498 0.018542489 0.011345858 -0.14091113 -0.036359083
-0.019140627 0.19352639 -0.004353968 -0.030114142 -0.10619276 0.020832743 0.08542016 0.07600251
-0.14016975 0.07686421 0.013092981 0.14991088 0.121651284 0.03000705 0.13814487 -0.007489203
-0.08670967 0.015068602 -0.06544647 0.05131197 0.12180939 0.07209731 -0.11844471 0.07292972
-0.110832706 -0.08142876 -0.004359634 -0.0194701 -0.16713834 0.07750999 -0.036547415 0.053436846
0.008260518 -0.040428583 0.06165522 -0.13873632 -0.0718985 0.14680423 0.052671786 -0.17507486
-0.131712 -0.022604998 0.08499639 0.1440023 -0.11895952 -0.03833229 -0.086381786 0.17515983
0.12206139 0.025475822 -0.17628908 0.15349412 0.15443821 0.05802741 -0.14683314 -0.09757985
-0.053114872 -0.14359313 0.14589308 0.009418221 -0.11406238 -0.18334563 -0.051105663 -0.082728215
0.111590244 0.16336797 -0.079618774 0.046015553 0.1533543 -0.16272385 0.011116415 0.02528447
0.07591789 0.19021083 0.17629667 0.15104784 -0.0758063 -0.12015374 0.013238107 -0.10141361
-0.0070595588 -0.12184773 -0.037752505 -0.069982804 -0.056944624 -0.023719255 -0.015134196 -0.011270883
0.0975369 -0.08093026 0.08805267 -0.0758645 -0.041699562 0.07867121 -0.14068817 -0.07972214
-0.06293949 -0.052267235 -0.06744325 -0.021962985 0.12763111 -0.07419886 -0.027813576 0.098131485
-0.1273507 -0.1464285 0.2085234 0.012746946 0.0986308 0.016889662 0.13766897 -0.03139878

lstm.weight_ih_l1 f4 [128, 64]
00000000: 728b 2bbe a439 aabd 73d0 c9bd c9a7 ee3d
00000010: 33ad f3bd c497 6abd 11a6 0d3c 5d0d 4b3d
00000020: 1e87 9a3c 6fa7 34bd d71a a4bd aab1 a1bd
00000030: eb74 41bd a096 1f3d 2870 433d d630 c53d
00000040: bc6a 193e 14fb 83bd 40e3 ad3d 7664 1bbe
00000050: 696c 333d 3077 023c a7fe 56bc ae2b e23d
00000060: 1bc3 a33d 994a 1dbe e579 3d3d 6e5d c93b
00000070: f81d 523c 8fd3 f03c d5ad 80bb 0280 0bbe
00000080: 2c83 143c a256 b3bd 6bb8 1abe e2f5 52be
00000090: c5ce 6abd 8fe0 973d 6910 09be 9356 2cbd
000000a0: 9971 83bd ed3b 70bc 41db 423d bf8d fbbd
000000b0: aac6 c0bd 1898 81bc 0982 2c3e 2caa 143e
000000c0: 2612 af3d 8d99 0fbe b25c 11be 4db5 97bd
000000d0: 8beb 1fbe a02e f0bc a50c cc3d 3e7f 53bd
000000e0: 7661 183d 4bb1 a6bd d352 cf3d 4064 913d
000000f0: a20e f0bc 8b7f 5d3d 48de ffbd c879 3dbe
00000100: 17e0 06be 9e67 2c3d f09c 16be 54eb d43c
00000110: 236e 2d3e a93e 493e 03a1 e0bd f936 25be
00000120: 6d6b 2cbe 08e4 e63d 7769 bfbc a876 8dbd
00000130: 8468 c1bc 2dca c73c 8419 47bd 30bd eebd
00000140: 8eb9 263e 262a b0bd dba7 273e fa1e 193e
00000150: 0b59 b53c 48e0 943c c4d8 29bd 8cb2 12be
00000160: 65e0 fb3d 31ce d4bd bf6d 0b3e 42b5 0fbe
00000170: 409f 8d3d fdd3 a13b de79 2b3d e52a 083e
00000180: dcee 22be 5a2d e93d 0d3c 3dbd 0aaf 033e
00000190: 5beb 013d bcce 943d ba67 55bd 36ff 24bd
000001a0: b888 b83d b138 fd3c 2e3f 153d d1d0 ed3d
000001b0: 7452 0c3d f9e8 22bc 6690 30be 5d77 e13d
000001c0: 2d7d 65bc c2f6 24be 8ed9 1e3e 0077 01bd
000001d0: 6a70 503d 4c18 913c e076 383d 1119 2c3e
000001e0: bdea 923d 1cfa 133d a790 083e dbcd d63d
000001f0: 2665 acbd 5d23 11be 734f a93d d473 82bd
00000200: 444d d0bc 52f5 013e 6a7b 393e 2cc5 11be
00000210: 393b c93c da3c 03be 89ec 093e 00c8 43bd
00000220: a2a2 ef3d 47ab 13bd 30b3 bcbd b6e2 4e3d
00000230: 82d0 e33d 54e6 cc3d 4fa5 1cbe 17ed c23b
00000240: bade 093e 9b0e b6bd d684 903c 8ad0 f73d
00000250: 89ba 8d3d 43d8 a3bc 3e6e 063e 43b8 b33d
00000260: 01fc e5bd b774 c53d be05 12bd d437 cbbd
00000270: f943 8dbd 1e70 8a3d b8fc f93d 0b5d 0ebd
00000280: 71db cfbd bcd8 cbbc 2db4 963d fc0e a33d
00000290: 0980 0a3e e2e0 17be d794 ee3d bc06 0b3e
000002a0: 3b6c 9bbc 923f e73d 308b 80bd 1511 e7bd
000002b0: bb6a 3fbe 790c 123e 4243 953c 79fa dc3c
000002c0: f0ce 6fbd 59b7 853d ea5d 383e fa48 6fbd
000002d0: b035 7cbb 6d1e 513d 7e29 8b3d 99b2 243d
000002e0: 4fd3 243e f551 a23d a12b 333c 79a0 193e
000002f0: 75a0 313e 5dbc e8bd 8145 fcbc 2115 d2bd
00000300: fdb2 4fbd f33e 40be d550 4c3d bbe8 e53d
00000310: c0df 17bd 0414 393d f7c8 643c 149b 943d
00000320: 6d68 533e 940d 7abd 64cb 43bd b48a 31bc
00000330: 6570 f53c 7cf4 833d 18c2 bd3d 88cc 08be
00000340: 73f4 0d3e 09d9 113e 166a 12bd f63f d1bd
00000350: 3abf 5b3d b466 b03c 61f2 59bd 70a2 d83c
00000360: bc0c a73d 6265 a0bc 7c93 0dbe c2c8 f03d
00000370: adb1 c1bd ad76 8abd 5011 e5bd 6a89 9bbd
00000380: 5141 163e 8eca 283d a372 3cbd 9574 3d3e
00000390: 076b 003e 599e 83bc 8579 4ebe ffb1 083e
000003a0: 3db9 313e d3f9 bcbd 384a e7bd 20f4 153e
000003b0: e69a 8cbc 3908 333e a61f 99bd 752c 43bc
000003c0: b9f3 22be c847 4c3d 30e0 a13c 747a 2e3e
000003d0: c872 a5bd de62 52bb 778d 1fbe c9ca 71bb
000003e0: 54ea 223e 276f a63c 36a1 1a3e abfa 89bd
000003f0: ea82 023e 297a 6cbd fd6e 93bd d044 4abc
-0.16752413 -0.08311775 -0.09854212 0.11653096 -0.118982695 -0.05727364 0.00864555 0.04957329
0.018863257 -0.04410499 -0.08012932 -0.07895215 -0.047230642 0.038962007 0.047714382 0.09628455
0.14982122 -0.06444374 0.0849061 -0.15175042 0.04380456 0.007962987 -0.013122237 0.110434875
0.07996198 -0.15360488 0.046258826 0.006145171 0.012824528 0.029397754 -0.0039269724 -0.1362305
0.009064477 -0.08756758 -0.15109412 -0.2060161 -0.057326097 0.07415878 -0.13385166 -0.04207475
-0.064181514 -0.014662725 0.047572378 -0.12282895 -0.09412892 -0.015819594 0.1684648 0.1451804
0.085483834 -0.14023419 -0.14195517 -0.07407627 -0.15617196 -0.029319108 0.09963349 -0.05163502
0.03720232 -0.08139285 0.10123219 0.07099199 -0.029303852 0.054076713 -0.12493569 -0.18503487
-0.13171421 0.042091005 -0.14708304 0.02599112 0.16936545 0.19652809 -0.109682105 -0.16134252
-0.16837855 0.11273962 -0.02336572 -0.069073975 -0.023609407 0.024388397 -0.048608318 -0.116571784
0.16281721 -0.08601789 0.16372626 0.14953223 0.022137186 0.018173352 -0.04146649 -0.14325923
0.12298659 -0.103908904 0.13616084 -0.14033988 0.0691514 0.004938601 0.04186427 0.13297613
-0.1591143 0.11385603 -0.046199847 0.12859741 0.031718593 0.07265994 -0.052100874 -0.04028245
0.09010452 0.030910822 0.036437206 0.11612094 0.03425832 -0.00994324 -0.17242584 0.11009095
-0.014006895 -0.16109756 0.15512678 -0.031607628 0.050888456 0.017711781 0.045035243 0.16806437
0.07173679 0.036127195 0.1333643 0.104884826 -0.0841773 -0.14173646 0.08267107 -0.06369749
-0.025427468 0.12691239 0.18113485 -0.14235371 0.024564372 -0.12816182 0.13469137 -0.047798157
0.117009416 -0.036052015 -0.09213865 0.050509177 0.11123754 0.10004869 -0.15297435 0.0059486735
0.1346387 -0.088895045 0.017641466 0.121003225 0.069203444 -0.020000583 0.13127992 0.087753795
-0.112297066 0.09641402 -0.035650007 -0.09922758 -0.068977304 0.06759666 0.122064054 -0.0347567
-0.10149277 -0.02488362 0.073585846 0.079618424 0.13525404 -0.1483188 0.11649483 0.13576788
-0.018972507 0.11291422 -0.06276548 -0.11282555 -0.18693058 0.1426257 0.018220548 0.026974903
-0.05854696 0.065291114 0.18004575 -0.058419205 -0.0038484149 0.051054407 0.067950234 0.040209386
0.16096233 0.07925788 0.010935695 0.15002622 0.17346366 -0.113640524 -0.03079486 -0.10257936
-0.050707806 -0.18774013 0.049881775 0.112260304 -0.03707862 0.045185104 0.013963929 0.07256141
0.20645304 -0.061048105 -0.04780139 -0.010836292 0.02996082 0.06443116 0.09265536 -0.13359272
0.13862781 0.14242949 -0.035745703 -0.10217278 0.053649165 0.021533348 -0.053209666 0.026444644
0.08156726 -0.019579593 -0.13825792 0.117570415 -0.09457717 -0.06760917 -0.11184943 -0.07594569
0.14673354 0.041208796 -0.046007764 0.18501504 0.12540828 -0.016066717 -0.20163544 0.1334915
0.17355819 -0.09227338 -0.11293453 0.14643908 -0.017163705 0.17483605 -0.074767396 -0.011912455
-0.15913285 0.049873143 0.019760221 0.170389 -0.080785334 -0.0032102386 -0.15581308 -0.003689455
0.15909702 0.020316673 0.1510056 -0.06737264 0.12745252 -0.05773369 -0.07198904 -0.012345508

lstm.weight_hh_l1 f4 [128, 32]
00000000: 4b29 2d3e 6141 b63d d911 dc3d 24a4 65bd
00000010: aa72 d2bc 4f21 7dbc d256 40be 056e 3c3c
00000020: c49e aa3d 3d13 e43c 0dcf 7f3d b2e2 e73d
00000030: a775 923d 5081 50bd bcf9 333d 2753 28be
00000040: 4f60 9ebd 652a 323e 763b 96bc b3ec 473d
00000050: d59d a1bd cd2b 05be 73e5 ddbd 8112 edbd
00000060: bac4 43be 8d60 2fbe d1bd 993d 04d5 223e
00000070: dad6 1a3c f189 08bd ea06 543e 8720 ca3c
00000080: 8045 0fbe 05bb 08be defc 0d3e 981e 7abd
00000090: 2643 19bd 42fd 38be 4098 41be c53c 13bd
000000a0: 3d0a 32bd 45ad 04bc db90 22be 3e2d 183e
000000b0: 4580 453d cdc5 d7bd 10ea 113e 8ee6 f4bd
000000c0: cee9 2fbe 062d af3b b7b7 fb3d e9c0 dc3d
000000d0: cfdc a43d b870 cdbd b948 1fbe b3a1 143e
000000e0: e15e f0bd 6e24 b63d e3fd 84bc d456 dfbd
000000f0: 1cd8 f3bc cd38 c23d 2c11 00bd 62d4 4f3e
00000100: cb32 f63d 8226 23be 85ad f2bc 922f d83d
00000110: 1f51 0e3e 529c 9dbd 526f e03d cc94 0cbe
00000120: 755e 013d e921 e13d 5e2a 27be 5ca7 023d
00000130: c353 073e 6534 8b3d 9dfe 8ebb 2729 1abb
00000140: ecc8 0e3e 10ea c03d ea82 1abd 10b7 f43d
00000150: fd32 01be 8fbf cf3c c718 1c3c ddf1 e1bc
00000160: ab8a 23be 0529 52bd 7d97 88bd 5a07 ecbd
00000170: 5a5a 0f3c 9791 4fbe 83e1 343e 7585 a6bd
00000180: 8d39 dabd a106 cbbb e7a6 ebbd 0d38 cebd
00000190: 1f5b 1d3e ead0 303e 4518 86bc fb5d 42be
000001a0: 7744 0b3d 817a f63d bf23 433d 2076 d3bb
000001b0: a85e 5fbd f992 df3d 433b 13be 0e0e 96bd
000001c0: 01c8 c83d 6e9b 433d 3dec 1c3e 7d8f a23d
000001d0: 1854 a03d dc4b 39be 8a48 3b3e bfa7 d73c
000001e0: c971 60bd bf56 2f3e 2288 babd 6b71 0a3d
000001f0: b09d e83d 6dc5 0fbe cbb5 a13c ee89 e7bb
00000200: f432 04be 9999 163e 5c04 b63c 729d 2a3d
00000210: e20f 64bd 1dcc 4d3d 567a ddbd 10d1 4bbd
00000220: a9d0 d1bd 2f29 02bd e27a 06be b224 17be
00000230: 8627 49be 2393 f83d fa38 1b3e 8f72 0f3e
00000240: 81ee 003e 9599 b7bd d4d1 f83c 22e9 20be
00000250: b276 143e f664 733d aab8 873d a4b7 2b3d
00000260: 3798 4d3e dc52 d4bd 6795 a9bd 6293 4c3e
00000270: 1f04 0d3c d3e3 673c c658 07be 5e24 cf3d
00000280: b88a d83d 980c e13d bba1 773d afac 40be
00000290: b7cc 11be f62e 2ebe e083 a3bd 708c 4bbc
000002a0: 6c55 cf3d e6bc ca3c 9721 9c3d b3a5 a53c
000002b0: c0bb fcbd 36ad 333e e77d 45bd 8fb0 c33d
000002c0: c1b1 803b 8c42 f0bd c7d8 1dbe 617b a9bd
000002d0: c58e 13be 8f32 c63d f23b f83d 3baf e8bd
000002e0: 5ce8 c33c 39b6 a83d 13ce 9ebd f4ea db3b
000002f0: 35c3 0dbe f93b b9bd fa92 66bd f2ad e03c
00000300: 3250 16be 9385 053e 8348 bf3d d2d8 17be
00000310: 7449 bb3c 37af 63be 24b4 0e3e aac8 03be
00000320: c47c 3f3e a29b b83a 39e1 45bc c838 033e
00000330: f4e5 e5bc 709c 17be c0f3 323e 80ef ddbd
00000340: a168 243d 5aeb a83d 5044 9a3d 97d9 85bd
00000350: 4458 f63d f79e 213e 7e06 a4bd afda cebd
00000360: 46ec eebc befe 283e 8b5f 0c3d 50cc 4dbe
00000370: d315 49be 87be 04be 8e7a d0bd da4f ed3d
00000380: 496b 07bd a5df abbd 3792 2d3d 88eb 003e
00000390: 109e 97bc 79ce 3e3d d23b 643d 748b 18bd
000003a0: b96b 9bbc 2a61 93bc 57da 2e3e 4e08 adbc
000003b0: aca4 cdbc bba5 25be 57e4 d8bd ad99 33bd
000003c0: a65a 2a3c 4005 ac3d 020d e23d 8355 8ebc
000003d0: 91fe 12be 2d3d cabd ccfa 403e 8942 26be
000003e0: 7696 0bbe f570 4d3e ddc6 c83b 3329 263e
000003f0: 6310 5b3d 0b96 51bd 9999 4abe af4f 2fbe
0.16910283 0.08899189 0.10745592 -0.05606474 -0.025689442 -0.015449836 -0.1878312 0.01150084
0.083310634 0.027841205 0.06245332 0.113225356 0.07151347 -0.050904572 0.043939337 -0.1643797
-0.07733213 0.17398985 -0.0183389 0.04880972 -0.07891432 -0.1300499 -0.108347796 -0.11575795
-0.19118014 -0.17126675 0.07506908 0.15901572 0.009450639 -0.033334676 0.20705763 0.024673713
-0.13991356 -0.13352592 0.13865992 -0.061064333 -0.037417553 -0.1806536 -0.18905735 -0.035946626
-0.043466795 -0.008097951 -0.1587557 0.14861009 0.04821803 -0.105357744 0.14249444 -0.11958037
-0.17179033 0.0053459434 0.122909 0.10778982 0.080499284 -0.10031265 -0.15555085 0.14514808
-0.11736847 0.08893667 -0.016234344 -0.10905233 -0.029766135 0.0948349 -0.031266376 0.20295861
0.12021407 -0.15932658 -0.029623756 0.10555948 0.13898133 -0.07695831 0.10958733 -0.13728637
0.031584222 0.10992796 -0.16324756 0.031897888 0.13215546 0.06797103 -0.0043638484 -0.0023523064
0.13943833 0.09419644 -0.037722506 0.11948979 -0.12617107 0.025359897 0.009527392 -0.02758115
-0.15970866 -0.05130865 -0.06669519 -0.1152484 0.008749569 -0.20270382 0.17664151 -0.08130924
-0.10655508 -0.0061958586 -0.115064435 -0.100692846 0.15366791 0.17267194 -0.016368994 -0.18981163
0.03400084 0.120350845 0.047641512 -0.0064532906 -0.05453363 0.10916705 -0.14378075 -0.073268995
0.09803773 0.04775565 0.15324493 0.079375245 0.078285396 -0.18095344 0.1828939 0.026325105
-0.054796014 0.17122935 -0.091079965 0.03379957 0.113582015 -0.14040156 0.019740006 -0.007066003
-0.12910062 0.1470703 0.022218876 0.041654058 -0.05567921 0.050243486 -0.10814349 -0.049759924
-0.10244877 -0.031777557 -0.13132814 -0.14760092 -0.19643983 0.12137439 0.15158454 0.14008544
0.12590982 -0.0896484 0.030373491 -0.15713933 0.14498404 0.059422456 0.06627019 0.04192318
0.20077597 -0.10367367 -0.08280449 0.19978097 0.00860694 0.014153439 -0.13217458 0.10114358
0.105733335 0.1098873 0.060456973 -0.18815874 -0.14238249 -0.17010102 -0.079841375 -0.01242362
0.10123715 0.024748277 0.07623594 0.020220613 -0.12340498 0.17546543 -0.048215773 0.0955516
0.00392744 -0.11731443 -0.15414725 -0.08275486 -0.14409931 0.09677612 0.12120809 -0.113615476
0.023914509 0.08237881 -0.07754149 0.006711358 -0.13843997 -0.09044642 -0.05629251 0.027426694
-0.1467903 0.13039236 0.093400024 -0.14828804 0.022862174 -0.22234808 0.13935906 -0.12869516
0.18699938 0.0014084468 -0.012077623 0.12814629 -0.028063752 -0.1480577 0.17475796 -0.108366966
0.040138844 0.08248015 0.07532561 -0.065356426 0.12028554 0.15783297 -0.08009051 -0.10100304
-0.029165398 0.16503426 0.034270804 -0.2009747 -0.19637232 -0.12963305 -0.101796255 0.11587496
-0.0330613 -0.08392266 0.04237577 0.12589848 -0.018507987 0.046583626 0.05572111 -0.037242368
-0.018972265 -0.017990667 0.17075478 -0.021122124 -0.025102936 -0.16176502 -0.10590427 -0.04384773
0.010397589 0.08399439 0.11037637 -0.01737476 -0.14354922 -0.098749496 0.18845671 -0.16236319
-0.13631615 0.20062621 0.006127222 0.16226654 0.053482424 -0.051168483 -0.19785155 -0.1712024
