models/mini_lstm_best.pth (torch, 770333 bytes, 20 tensors)

lstm.weight_ih_l0 f4 [256, 111]
-0.019252358 -0.033686694 0.050926965 -0.112221055 0.0419159 0.07146116 -0.092973664 -0.0038060492
0.08210519 -0.064215906 0.09776814 0.06922327 -0.0809659 0.095151626 -0.054629736 -0.01786348
0.06412957 -0.017511822 0.1328203 -0.093253724 -0.023064032 -0.09399361 -0.11458459 -0.016480986
0.0719054 0.12033735 -0.03357598 -0.079643294 -0.0025645 0.06094925 -0.076633826 0.058837026
-0.041754186 -0.029833242 -0.0022229059 -0.01080535 -0.09011547 0.05901414 -0.025493726 -0.08501491
0.0768559 -0.023101531 0.10710649 0.11245805 0.08947714 0.037966788 -0.059893355 0.054178283
0.03905484 -0.09430887 0.039006084 0.035683915 0.06270145 0.05673954 0.026781946 -0.024752736
0.110293046 -0.11890778 0.043548793 0.040160477 0.10985516 -0.08570139 -0.03695394 -0.10454877
0.112733915 -0.09998636 -0.07399966 0.07602166 -0.09673302 0.056910425 -0.013661765 0.0077170245
-0.10630648 0.1088921 -0.123723045 0.09427178 0.07446246 -0.02279944 0.04047413 0.07246187
-0.06362195 -0.11672957 -0.013973601 0.1215388 -0.012221597 0.048117653 0.012879722 0.03651376
-0.07167472 -0.0927673 0.105022505 -0.06110452 -0.06844075 0.0796085 -0.081101 -0.059190407
-0.094343156 0.037860557 0.023789465 -0.06305328 0.012913622 0.10703434 -0.11292265 -0.08232273
-0.04453318 0.010261964 0.08087243 0.033357993 0.038878337 -0.06722291 -0.05826637 0.11072632
-0.06974042 0.10067883 0.030599853 0.040139794 0.104111165 -0.06429166 0.09324215 -0.086934544
0.10901977 0.07347602 -0.048377626 -0.1140411 0.04519565 0.03516634 -0.104060434 0.10800852
0.004111357 0.07881211 0.075970806 0.081796244 -0.09516927 0.057085793 0.112514004 -0.046736516
0.067542054 0.009612006 0.09821606 -0.020452134 -0.061920524 -0.08963187 -0.042449296 0.01660914
-0.11528988 0.07663183 -0.0830971 0.08029276 -0.093396634 -0.11217527 0.1042684 -0.000937087
-0.04386933 0.041906655 0.00086708134 -0.096234545 -0.07326926 -0.005794814 -0.037159413 -0.09965119
0.0624879 0.018735372 0.104146 -0.04328507 -0.031035572 0.008497398 0.090573445 0.103652224
0.05140175 -0.017059527 -0.057567224 0.013594829 0.008282151 -0.11946452 -0.08532284 -0.05417441
0.07951559 -0.006045919 -0.0571101 0.11648066 -0.027201846 -0.12365088 0.101218745 0.093963325
-0.040744305 -0.08138606 0.10110645 -0.1077757 0.08909245 -0.030142754 0.07500321 -0.011861078
-0.06489843 -0.039260894 -0.043475464 0.047107935 -0.031061023 0.06998029 0.0971628 -0.08011563
-0.039339542 0.08220829 -0.09486422 0.014955662 0.09139122 0.11495121 -0.08303596 -0.009613078
0.04130593 -0.116430745 0.090499714 0.110180244 0.007924687 0.09621401 -0.010466885 0.0091459565
0.07061677 -0.02366519 -0.0163097 0.010749634 -0.11977714 0.030272111 0.080252685 0.012840928
-0.055609845 0.08742831 0.10098449 -0.0035476573 -0.0018053282 -0.10483362 0.11651714 -0.019323995
-0.09699468 0.03845028 -0.008337823 -0.07073244 0.032129876 0.046228606 0.001959232 -0.053110104
0.012002851 0.06668034 0.020927038 0.1273705 -0.12617347 0.016061652 -0.012273278 0.029976916
-0.030284075 0.098686084 -0.036327705 0.080295786 -0.06470269 -0.09801859 0.05925581 0.07752758
00000000: 1fb7 9dbc 0ffb 09bd cb98 503d 27d4 e5bd
00000010: 02b0 2b3d 3b5a 923d fa68 bebd e96e 79bb
00000020: c426 a83d a183 83bd aa3a c83d eec4 8d3d
00000030: 73d1 a5bd dbde c23d 6ec3 5fbd 6f56 92bc
00000040: 5d56 833d f474 8fbc 0b02 083e cffb bebd
00000050: c8f0 bcbc b97f c0bd 53ab eabd 2203 87bc
00000060: 2343 933d 6e73 f63d f886 09bd 061c a3bd
00000070: 2c11 28bb eca5 793d 32f2 9cbd 18ff 703d
00000080: 7006 2bbd d864 f4bc 2cae 11bb ec08 31bc
00000090: 768e b8bd d0b8 713d 38d8 d0bc 4c1c aebd
000000a0: a066 9d3d 6c3f bdbc a65a db3d 6850 e63d
000000b0: ca3f b73d 1083 1b3d bc52 75bd 0cea 5d3d
000000c0: f8f7 1f3d 0225 c1bd d8c4 1f3d 4c29 123d
000000d0: 9e69 803d b867 683d d065 db3c 40c6 cabc
000000e0: 52e1 e13d ec85 f3bd 3860 323d 507f 243d
000000f0: befb e03d 3684 afbd 045d 17bd aa1d d6bd
00000100: 0ae1 e63d a6c5 ccbd 228d 97bd 3eb1 9b3d
00000110: f61b c6bd e81a 693d 98d5 5fbc 18df fc3b
00000120: 36b7 d9bd d202 df3d 8262 fdbd 9011 c13d
00000130: c67f 983d e4c5 babc 34c8 253d e466 943d
00000140: 3a4c 82bd ea0f efbd 88f1 64bc 56e9 f83d
00000150: 183d 48bc 0417 453d 7805 533c 748f 153d
00000160: 32ca 92bd c8fc bdbd 0a16 d73d bc48 7abd
00000170: aa2a 8cbd c809 a33d 4818 a6bd a471 72bd
00000180: fc36 c1bd ac13 1b3d 20e2 c23c 1422 81bd
00000190: a893 533c d234 db3d fe43 e7bd d298 a8bd
000001a0: 6c68 36bd cc21 283c 72a0 a53d 64a2 083d
000001b0: e43e 1f3d 2aac 89bd b8a8 6ebd 7bc4 e23d
000001c0: 11d4 8ebd b430 ce3d 8bac fa3c a069 243d
000001d0: 3c38 d53d 59ab 83bd bef5 be3d bd0a b2bd
000001e0: c245 df3d 987a 963d 9e27 46bd 618e e9bd
000001f0: 131f 393d 950a 103d a31d d5bd 9233 dd3d
00000200: 90b8 863b 3e68 a13d 9596 9b3d ca84 a73d
00000210: 1be8 c2bd cbd2 693d be6d e63d ca6e 3fbd
00000220: 7d53 8a3d ad7b 1d3c 8025 c93d 3c8b a7bc
00000230: 60a0 7dbd ea90 b7bd 50df 2dbd e40f 883c
00000240: 1a1d ecbd 26f1 9c3d d02e aabd 8870 a43d
00000250: bc46 bfbd 26bc e5bd ac8a d53d d8a6 75ba
00000260: 54b0 33bd 50a6 2b3d d84c 633a 9e16 c5bd
00000270: 320e 96bd 6ce2 bdbb 7834 18bd ec15 ccbd
00000280: 50f3 7f3d ec7a 993c 804a d53d b04b 31bd
00000290: 503e febc ac38 0b3c 927e b93d 9e47 d43d
000002a0: a48a 523d 6cc0 8bbc 9ccb 6bbd d8bc 5e3c
000002b0: dcb1 073c d0a9 f4bd bebd aebd fce5 5dbd
000002c0: 12d9 a23d d81c c6bb 48ec 69bd 6a8d ee3d
000002d0: 68d6 debc ac3c fdbd c64b cf3d d86f c03d
000002e0: 80e3 26bd bcad a6bd e610 cf3d 82b9 dcbd
000002f0: 1a76 b63d f0ed f6bc 489b 993d f854 42bc
00000300: 78e9 84bd 08d0 20bd 5413 32bd 40f4 403d
00000310: b073 febc d451 8f3d 4afd c63d aa13 a4bd
00000320: 8022 21bd d25c a83d 2c48 c2bd 9808 753c
00000330: 522b bb3d 8a6b eb3d c20e aabd 2c80 1dbc
00000340: 6830 293d 3e73 eebd ea57 b93d 2ea6 e13d
00000350: 8cd6 013c da0b c53d 4c7d 2bbc ecd8 153c
00000360: 869f 903d 80dd c1bc ec9b 85bc 3c1f 303c
00000370: b84d f5bd 38fd f73c 855b a43d c162 523c
00000380: 26c7 63bd 9d0d b33d f5d0 ce3d d07f 68bb
00000390: c3a0 ecba 02b3 d6bd 8aa0 ee3d 5b4d 9ebc
000003a0: 26a5 c6bd 0a7e 1d3d 5d9b 08bc 2bdc 90bd
000003b0: 9e9a 033d 355a 3d3d 7566 003b fb89 59bd
000003c0: 9ba7 443c b48f 883d 2e6f ab3c 6a6d 023e
000003d0: 9e33 01be ba93 833c dc15 49bc 2692 f53c
000003e0: 4f16 f8bc ee1b ca3d 5ccc 14bd 1e72 a43d
000003f0: d882 84bd f8bd c8bd 38b6 723d c8c6 9e3d

lstm.weight_hh_l0 f4 [256, 64]
-0.061144114 0.029703878 -0.10715471 -0.035933692 -0.013351791 0.041572854 -0.1112847 -0.08169179
0.027619613 0.0378575 0.03224818 0.12125943 0.019999592 0.08959178 0.09457928 0.07304122
-0.024189247 -0.05094815 -0.007701072 -0.018966962 0.10869798 0.06179184 -0.10759978 -0.09023405
-0.034444235 0.040178664 0.019274477 -0.050652947 -0.07582542 -0.062080633 -0.049513508 0.056633383
0.11033102 0.073356576 -0.11248381 -0.020701142 -0.11566619 0.049191333 -0.065041855 0.054033205
-0.08559262 0.09985162 0.03372183 -0.11166282 0.069277495 0.020024262 0.024491793 0.006877364
0.09099977 0.08561159 0.048396036 0.12977476 -0.10862048 0.044380385 0.021115864 0.07701847
0.097128555 0.06651891 -0.010142137 0.10555838 -0.05702796 -0.056520086 -0.030106688 -0.1322224
-0.08308565 -0.054203223 0.0667671 0.055681027 -0.024513867 -0.101942934 -0.015865676 -0.025273783
0.020822817 -0.11664712 -0.066868626 0.101178326 -0.019439708 0.10115054 -0.077802844 -0.13061231
-0.12725247 0.08865728 0.0049394635 0.108173765 -0.057820555 -0.032512844 0.01822578 0.07424399
0.06298177 -0.06845295 -0.07369821 -0.07134391 0.0749292 0.09897781 0.11153832 0.05684717
-0.02287156 -0.064489335 0.057607625 -0.043904003 -0.10179641 0.007212379 -0.103811376 0.09720332
0.11602115 0.0095178485 0.13038324 0.07762392 0.09706266 -0.063746475 0.046260096 -0.009165341
0.06678485 0.023222666 -0.059639685 0.10539416 0.059159044 0.035279606 0.016064046 -0.05801676
-0.06517585 -0.087192625 0.07981246 0.02724089 -0.064054124 0.073136635 0.038730543 -0.03240205
0.09741614 0.031024063 0.0064088837 0.08376712 -0.1159707 -0.003505311 0.045342684 0.08580203
0.013825796 -0.038542207 -0.05203181 0.09712649 0.122648895 0.117853016 -0.04291915 0.013655664
0.04940306 -0.054757312 -0.045033988 0.0409164 -0.12656952 0.003916801 -0.02328701 -0.0077369516
-0.09694724 -0.004298486 -0.06981445 0.08244772 -0.028094362 0.122338325 -0.028703436 0.06707011
-0.13201575 -0.10627323 0.03309028 -0.04154404 -0.11196045 0.116045326 0.100801386 -0.027009068
-0.09338916 0.018873097 0.044364486 0.005755044 0.050415788 -0.013365583 -0.03234053 0.09404945
0.10855305 -0.040219974 -0.106432535 0.097836815 -0.112170294 0.03464276 0.038261447 0.08514742
-0.12841094 -0.0042589437 -0.099736236 0.020114386 -0.05003203 -0.09918897 0.020145012 -0.0095850015
-0.10221037 0.12689626 -0.111205325 0.051824555 0.12124624 0.114700615 -0.025267057 -0.12393367
0.06554211 -0.008692215 0.12911777 -0.011018963 -0.015809001 -0.061059803 0.06461869 0.13212343
0.110512756 0.045194723 -0.042353567 -0.023933295 -0.09366626 -0.011768399 0.08635482 -0.09764975
-0.11346944 0.103558436 -0.123262174 0.111831814 0.05030608 0.063018866 -0.12200129 -0.014358319
-0.10415025 0.12062577 -0.07122781 0.08484322 -0.1212337 -0.087586366 0.032987468 0.049602773
0.09016452 0.110287115 0.01797168 0.050098322 0.11548732 0.05597775 0.093842246 0.08423553
0.026129253 0.036341663 0.035622116 -0.105785646 0.051697854 0.027462605 -0.013217882 -0.013217632
0.07596728 -0.0842357 -0.08877512 0.0024746174 -0.12577467 0.059996363 -0.088036135 0.07944829
00000000: 4072 7abd 8c55 f33c ee73 dbbd 352f 13bd
00000010: 78c1 5abc 4c48 2a3d 3ce9 e3bd 064e a7bd
00000020: 8742 e23c 7710 1b3d ab16 043d dd56 f83d
00000030: 2fd6 a33c e57b b73d c8b2 c13d a396 953d
00000040: 8728 c6bc 02af 50bd 4659 fcbb 9a60 9bbc
00000050: 0c9d de3d 7119 7d3d 465d dcbd a1cc b8bd
00000060: 6615 0dbd 6292 243d 82e5 9d3c 7779 4fbd
00000070: 5c4a 9bbd 4348 7ebd adce 4abd 68f8 673d
00000080: 3bf5 e13d f93b 963d e95d e6bd 7195 a9bc
00000090: 65e2 ecbd da7c 493d aa34 85bd ec51 5d3d
000000a0: 2f4b afbd 027f cc3d e71f 0a3d 7aaf e4bd
000000b0: 5ce1 8d3d ec09 a43c 03a3 c83c 835b e13b
000000c0: 165e ba3d 2155 af3d ec3a 463d ade3 043e
000000d0: 6a74 debd 35c8 353d 2dfb ac3c dcbb 9d3d
000000e0: 56eb c63d 113b 883d 352b 26bc fe2e d83d
000000f0: 2696 69bd 9b81 67bd 4da2 f6bc 4f65 07be
00000100: cf28 aabd 3304 5ebd 30bd 883d ca11 643d
00000110: 4ed1 c8bc 75c7 d0bd bcf8 81bc f70a cfbc
00000120: 9d94 aa3c afe4 eebd 6bf2 88bd 9536 cf3d
00000130: 0640 9fbc 0428 cf3d 1957 9fbd 3cbf 05be
00000140: 794e 02be f391 b53d 39db a13b 358a dd3d
00000150: 3fd5 6cbd 302c 05bd 3b4e 953c 3c0d 983d
00000160: 96fc 803d 0f31 8cbd 16ef 96bd c21c 92bd
00000170: 7b74 993d e1b4 ca3d 346e e43d 94d8 683d
00000180: 235d bbbc fc12 84bd f9f5 6b3d afd4 33bd
00000190: a37a d0bd d255 ec3b 0f9b d4bd 8912 c73d
000001a0: 7f9c ed3d c0f0 1b3c 2f83 053e 4af9 9e3d
000001b0: cac8 c63d 838d 82bd 3a7b 3d3d 3a2a 16bc
000001c0: 7fc6 883d 763d be3c be48 74bd e5d8 d73d
000001d0: c150 723d 5981 103d bf98 833c fba2 6dbd
000001e0: eb7a 85bd 0c92 b2bd b774 a33d 4928 df3c
000001f0: cf2e 83bd a9c8 953d eba3 1e3d 03b8 04bd
00000200: 1d82 c73d 2d26 fe3c 9d01 d23b 198e ab3d
00000210: 0c82 edbd 5cb9 65bb 40b9 393d fab8 af3d
00000220: 9785 623c 6fde 1dbd 4f1f 55bd 41ea c63d
00000230: 582f fb3d ec5c f13d fecb 2fbd 02bc 5f3c
00000240: dd5a 4a3d 3449 60bd 8f75 38bd f497 273d
00000250: 719b 01be 8258 803b 66c4 bebc 4186 fdbb
00000260: 468c c6bd 50da 8cbb e1fa 8ebd 5ada a83d
00000270: 2626 e6bc 848c fa3d 7823 ebbc 0e5c 893d
00000280: 232f 07be c7a5 d9bd ac89 073d 152a 2abd
00000290: 854b e5bd 2ca9 ed3d f570 ce3d 1f42 ddbc
000002a0: d142 bfbd c19b 9a3c 89b7 353d cf94 bc3b
000002b0: c980 4e3d 51fb 5abc 8177 04bd ff9c c03d
000002c0: 1051 de3d b3bd 24bd 4df9 d9bd ab5e c83d
000002d0: 8ab9 e5bd 91e5 0d3d 09b8 1c3d c561 ae3d
000002e0: 287e 03be 9c8e 8bbb 8342 ccbd edc6 a43c
000002f0: 63ee 4cbd 9623 cbbd 2707 a53c 690a 1dbc
00000300: ac53 d1bd 18f1 013e 9ebf e3bd fc45 543d
00000310: f34f f83d 28e8 ea3d dcfc cebc f0d0 fdbd
00000320: f13a 863d cb69 0ebc 7337 043e e188 34bc
00000330: e181 81bc d819 7abd ce56 843d 5d4b 073e
00000340: 8354 e23d 1a1e 393d ef7a 2dbd c20f c4bc
00000350: 19d4 bfbd 3ed0 40bc ccda b03d 98fc c7bd
00000360: aa62 e8bd 7216 d43d e170 fcbd 1408 e53d
00000370: c00d 4e3d 0910 813d d0db f9bd 283f 6bbc
00000380: ba4c d5bd a50a f73d e3df 91bd 48c2 ad3d
00000390: 6049 f8bd 7b60 b3bd de1d 073d 472c 4b3d
000003a0: 2da8 b83d 36de e13d 5839 933c e633 4d3d
000003b0: 9e84 ec3d ed48 653d 5d30 c03d ad83 ac3d
000003c0: 040d d63c ffda 143d 7fe8 113d 25a6 d8bd
000003d0: 21c1 533d 42f9 e03c d18f 58bc c48e 58bc
000003e0: bc94 9b3d c483 acbd bbcf b5bd 312d 223b
000003f0: 13cb 00be bfbe 753d 4a4c b4bd c9b5 a23d

lstm.bias_ih_l0 f4 [256]
-0.0067744646 -0.101344526 0.02748621 0.12532766 0.0298868 -0.090045236 -0.0044251555 0.010982669
0.029099539 -0.04827534 0.09675646 0.08608753 0.07042989 0.09505509 0.045084767 -0.024423363
-0.032358915 0.03563812 -0.03560625 -0.052534796 0.038554184 0.10889975 -0.02134553 -0.12222227
-0.021965673 -0.10089682 0.064769946 -0.05355668 0.09431148 0.03333651 0.016028028 0.020441452
0.017517671 -0.12709665 -0.06305948 0.081452616 0.011001067 -0.11211468 0.12680958 0.025799774
-0.064582966 0.07777395 -0.10606061 0.022699757 -0.051570624 0.05359156 -0.077752106 0.048462495
0.035384756 0.11703704 -0.0024004166 -0.05521534 0.014754591 0.041043177 -0.049360916 0.10463964
-0.0051515484 0.09693436 0.046362482 -0.033475414 -0.08275489 -0.058564596 -0.11082369 -0.11200089
0.008631366 -0.020451097 0.046212282 0.017953433 -0.048397712 -0.08188775 0.096270084 -0.028137717
-0.01751212 -2.7287288e-05 -0.084664434 0.11947579 -0.09077491 0.042816434 -0.023039633 -0.005907779
-0.081846476 0.09003795 0.022664571 0.10994671 -0.036771167 -0.05460827 -0.003772356 0.00026750902
-0.024012227 0.019660173 -0.094278894 -0.10037499 0.007710624 -0.022468964 0.087196834 0.06699804
-0.07224689 -0.06234641 -0.053498223 -0.06389019 0.09388659 0.06971758 -0.09251255 -0.107656874
0.033379328 -0.10943311 -0.06495762 -0.049169615 -0.038749844 0.1080457 0.08245663 0.04750981
-0.018059082 -0.11016125 -0.09804756 -0.098089874 -0.07493578 0.038090013 -0.12839392 0.041730814
0.07211236 0.02624696 -0.095527045 -0.03975559 -0.0056271804 0.022816902 0.041433632 0.07054451
0.103809744 0.0016763015 -0.06480164 0.03739311 0.0023474752 0.018645836 -0.10329438 -0.08667161
-0.030382097 -0.057067614 0.008401258 0.01537597 -0.02464676 0.014891175 -0.075281814 -0.004287753
-0.055202685 -0.01616491 -0.087204486 0.03132036 0.07992306 -0.037340846 -0.100687236 0.10106906
0.014544498 -0.10482411 -0.029428624 0.1030505 0.08358911 -0.08099831 -0.05340753 -0.0353649
-0.021145605 0.07163302 -0.062123373 -0.036696002 0.046727527 -0.08174555 0.020113545 0.038485073
-0.08330262 -0.015958574 -0.117593326 -0.019425977 0.04841874 -0.032665163 0.073642045 0.025342532
0.08263724 0.016239231 0.048165355 0.075323135 0.059941508 -0.066612065 0.0654791 0.09970637
-0.12868758 0.117427 0.045686252 -0.033482566 -0.066309504 0.040954653 0.030199068 0.0743934
-0.10389923 -0.04357413 0.0033037278 -0.04381238 0.050461143 0.13302478 0.041826095 0.07315728
0.004855415 -0.057448376 0.081434965 0.08965935 -0.061565015 -0.10912214 0.078440316 0.024594923
-0.00019991412 0.119547874 -0.013506627 0.0055314456 -0.12247585 -0.073158465 -0.030047655 -0.027727123
-0.0016958643 -0.0748539 -0.02155607 0.096178904 -0.03574425 -0.075268276 -0.06836317 0.061632928
-0.037545174 -0.07106607 -0.07384039 -0.10616418 -0.11755413 -0.096101955 0.11212813 0.05125459
0.032849044 0.083807744 -0.045726825 0.13219385 -0.12544976 -0.08789304 0.05108484 0.061863016
0.06340176 0.037123285 0.023975955 -0.09111342 0.0694576 -0.08381256 0.081990324 0.014857005
0.00019477433 0.06515395 0.117939524 0.028445454 0.052090883 -0.018945927 -0.0693553 0.06485713
00000000: 54fc ddbb b88d cfbd c32a e13c e555 003e
00000010: 2ad5 f43c a369 b8bd e500 91bb a7f0 333c
00000020: 2862 ee3c 5dbc 45bd 4028 c63d a94e b03d
00000030: 8c3d 903d 3eac c23d ceaa 383d 8113 c8bc
00000040: c88a 04bd 47f9 113d dcd7 11bd ba2e 57bd
00000050: feea 1d3d d506 df3d d2dc aebc ab4f fabd
00000060: 5bf1 b3bc fea2 cebd 1ba6 843d 405e 5bbd
00000070: 6126 c13d dd8b 083d 364d 833c d574 a73c
00000080: 3881 8f3c a025 02be 5425 81bd a1d0 a63d
00000090: d23d 343c 629c e5bd 5fda 013e 0c5a d33c
000000a0: 1344 84bd f347 9f3d 4e36 d9bd d7f4 b93c
000000b0: b83b 53bd d382 5b3d 7f3c 9fbd 9c80 463d
000000c0: 9bef 103d 1eb1 ef3d 4f50 1dbb 7b29 62bd
000000d0: 3dbd 713c e41c 283d ac2e 4abd 4f4d d63d
000000e0: 52ce a8bb 8685 c63d 96e6 3d3d 841d 09bd
000000f0: 657b a9bd 6ee1 6fbd 88f7 e2bd b960 e5bd
00000100: 936a 0d3c 0f89 a7bc 1749 3d3d 1413 933c
00000110: ae3c 46bd c4b4 a7bd 4029 c53d 1281 e6bc
00000120: 9475 8fbc 01e7 e4b7 8c64 adbd b9af f43d
00000130: 32e8 b9bd 4960 2f3d 9dbd bcbc 0b96 c1bb
00000140: 209f a7bd d165 b83d 0dab b93c be2b e13d
00000150: 5d9d 16bd ecac 5fbd a239 77bb 7440 8c39
00000160: 4ab5 c4bc 5f0e a13c 4b15 c1bd 6791 cdbd
00000170: 67a9 fc3b d510 b8bc 4194 b23d 4536 893d
00000180: 2df6 93bd f35e 7fbd f420 5bbd dcd8 82bd
00000190: 9d47 c03d 17c8 8e3d 3877 bdbd 357b dcbd
000001a0: c3b8 083d 771e e0bd 8008 85bd 1466 49bd
000001b0: 28b8 1ebd 1047 dd3d 06df a83d a699 423d
000001c0: a4f0 93bc 399c e1bd 29cd c8bd 58e3 c8bd
000001d0: ee77 99bd 4604 1c3d b279 03be eeed 2a3d
000001e0: a5af 933d dd03 d73c afa3 c3bd c2d6 22bd
000001f0: 3664 b8bb 83ea ba3c 50b6 293d a479 903d
00000200: 349a d43d 58b7 db3a b9b6 84bd 8529 193d
00000210: 19d8 193b 27bf 983c 018c d3bd e380 b1bd
00000220: e0e3 f8bc bbbf 69bd 6ea5 093c 7eeb 7b3c
00000230: 01e8 c9bc 1dfa 733c 5a2d 9abd 4780 8cbb
00000240: 361c 62bd 466c 84bc 4498 b2bd c749 003d
00000250: b4ae a33d b7f2 18bd 1c35 cebd 4cfd ce3d
00000260: 0c4c 6e3c 06ae d6bd 4c14 f1bc 240c d33d
00000270: c430 ab3d 71e2 a5bd dbc1 5abd c9da 10bd
00000280: 8c39 adbc 55b4 923d 1475 7ebd 8c4e 16bd
00000290: 5d65 3f3d 366a a7bd 29c5 a43c 86a2 1d3d
000002a0: 909a aabd 8ebb 82bc c5d4 f0bd 3a23 9fbc
000002b0: bb52 463d e8cb 05bd a4d1 963d 249b cf3c
000002c0: b73d a93d 2308 853c 0949 453d 0443 9a3d
000002d0: 3a85 753d e86b 88bd e819 863d da32 cc3d
000002e0: adc6 03be 917d f03d 8221 3b3d 0425 09bd
000002f0: 47cd 87bd 11c0 273d 0964 f73c 915b 983d
00000300: 1fc9 d4bd c97a 32bd 5b83 583b 9c74 33bd
00000310: 58b0 4e3d a637 083e d751 2b3d 7cd3 953d
00000320: 2c1a 9f3b fd4e 6bbd 60c7 a63d 529f b73d
00000330: 992b 7cbd 6e7b dfbd 51a5 a03d 4b7b c93c
00000340: 0aa0 51b9 84d5 f43d e64a 5dbc 2141 b53b
00000350: 9ed4 fabd 1bd4 95bd 8026 f6bc fe23 e3bc
00000360: c347 deba 004d 99bd 5b96 b0bc 72f9 c43d
00000370: 9068 12bd 4126 9abd fd01 8cbd cf72 7c3d
00000380: f8c8 19bd 168b 91bd a139 97bd 9b6c d9bd
00000390: 38c0 f0bd 1ad1 c4bd 6fa3 e53d 55f0 513d
000003a0: b88c 063d 65a3 ab3d 0d4c 3bbd d35d 073e
000003b0: e775 00be 4401 b4bd 563e 513d 1364 7d3d
000003c0: c8d8 813d 960e 183d 3969 c43c ac99 babd
000003d0: c93f 8e3d eba5 abbd 8bea a73d cc6a 733c
000003e0: 563c 4c39 6f6f 853d 478a f13d 7106 e93c
000003f0: 405d 553d 7d34 9bbc 270a 8ebd d1d3 843d

lstm.bias_hh_l0 f4 [256]
-0.03293022 -0.12016867 0.099715166 0.12717496 -0.008201829 0.057152707 -0.06963654 0.08613992
0.06441612 0.04283205 0.010012104 -0.09639894 -0.03676247 -0.07874064 -0.040833764 0.08072011
0.09389633 0.034661885 0.044789776 0.0043821265 -0.04265354 -0.10119159 0.05015607 0.081333645
-0.10415892 -0.081061766 -0.12924433 0.11472892 0.102021515 -0.072933376 0.021171968 0.03102606
-0.111538075 0.07460157 -0.10371088 0.12666015 0.040094167 0.07420987 0.085456856 0.06978323
0.00036793 -0.00661968 0.09878093 -0.0505173 -0.036551677 -0.081425995 0.06618331 -0.105670325
-0.10494513 0.061192367 -0.08606601 0.010374326 -0.039375734 -0.049909517 0.049626265 0.08667493
0.048876476 0.027874628 0.009259642 -0.07452084 0.08218639 0.024899418 -0.046958752 0.10559707
0.040006056 0.09755898 -0.029487887 0.0070183463 -0.10250194 0.033402175 0.09701167 0.093944125
-0.038741764 -0.097479984 -0.10532713 0.029991373 -0.045856982 -0.05154648 0.01220455 0.023162995
-0.065543845 0.10840335 0.07304667 0.040614218 0.093806714 0.06720667 0.116761155 0.028376365
0.05525116 -0.06644235 0.014176316 0.1309032 -0.054293796 -0.035882726 0.12945457 0.09846955
-0.118051745 -0.049276885 -0.022721209 0.0353799 0.034970213 -0.049987484 -0.11856782 0.006394288
-0.0626145 0.07826353 0.056407157 0.05418306 0.03949722 0.1056305 -0.028496904 -0.110289365
0.107984565 -0.12687223 -0.012311211 -0.08982443 -0.07727742 -0.03390736 0.09885454 0.11364341
0.023458492 0.05111327 0.0037660024 0.047021702 -0.079526216 -0.055102143 -0.025212685 0.07122362
0.026238037 0.09456618 0.111366116 0.01433043 0.03772968 0.0027290625 0.09235866 -0.07050832
0.11737807 -0.041572955 -0.068035506 -0.094396025 -0.076723315 -0.12597482 0.068201885 0.0019009529
-0.0874464 -0.07864248 -0.0618995 0.07230529 -0.114422694 0.054181997 -0.010153289 0.014802372
0.07566258 0.054777384 -0.045890845 -0.0017980015 -0.018722368 -0.11617198 -0.11427036 0.029546523
-0.11173925 0.05175247 0.0448324 0.033049602 0.059830833 -0.10265717 0.049482506 0.10942087
0.10376558 0.09578648 -0.08419753 -0.002071258 -0.087472945 -0.12260491 0.02136312 -0.059710853
-0.027281525 0.097858906 0.099762075 0.03374756 -0.1156435 -0.036885206 -0.10733674 0.09471914
0.050032936 0.06182689 0.0850078 0.082351364 0.02747209 0.1157799 0.0015507411 0.069912
0.08879461 -0.015783235 0.075063586 -0.032285616 -0.044050843 0.019065566 0.10324669 0.09766191
0.1293621 -0.030259812 0.025457194 -0.04319938 0.09854777 -0.10436654 -0.0062836455 -0.07188175
0.115914226 0.018465744 -0.10879714 0.0552081 0.026231077 -0.049514685 -0.1027993 -0.011535453
0.114890784 -0.041551217 -0.00316834 -0.030595332 -0.0687397 -0.02736017 0.051067643 0.06948643
0.065234095 -0.12365088 0.046646494 0.03221181 -0.084130004 0.008421552 0.09852084 -0.09461288
-0.07641528 0.022253953 -0.0067639602 0.124697 0.08598538 -0.11803905 -0.07545314 0.054357447
-0.046326358 -0.002412329 0.0053421333 -0.004369703 0.03702885 0.009990863 0.0129766185 0.03790196
0.034877803 -0.036663633 -0.105354585 0.11401875 -0.04921742 0.13069336 0.046487324 -0.0024759236
00000000: d7e1 06bd fe1a f6bd 7737 cc3d 273a 023e
00000010: f760 06bc f518 6a3d 9a9d 8ebd 206a b03d
00000020: 99ec 833d a970 2f3d cf09 243c cf6c c5bd
00000030: 3e94 16bd c642 a1bd 4e41 27bd 9650 a53d
00000040: b84c c03d 9ff9 0d3d 7c75 373d f197 8f3b
00000050: 7ab5 2ebd 893d cfbd 7470 4d3d 4192 a63d
00000060: 4651 d5bd b603 a6bd a058 04be fff6 ea3d
00000070: a8f0 d03d 185e 95bd d670 ad3c 5d2a fe3c
00000080: 136e e4bd b5c8 983d 5f66 d4bd 33b3 013e
00000090: c839 243d 58fb 973d 0104 af3d 83ea 8e3d
000000a0: bbe6 c039 e7e9 d8bb a84d ca3d 3aeb 4ebd
000000b0: 36b7 15bd acc2 a6bd 1d8b 873d af69 d8bd
000000c0: 79ed d6bd d9a4 7a3d 6043 b0bd 14f9 293c
000000d0: 7348 21bd ec6d 4cbd e944 4b3d a082 b13d
000000e0: b332 483d 5559 e43c c1b5 173c 629e 98bd
000000f0: 5751 a83d ddf9 cb3c d257 40bd 4743 d83d
00000100: 64dd 233d 01cd c73d 9590 f1bc 28fa e53b
00000110: 8aec d1bd b8d0 083d 0eae c63d c765 c03d
00000120: afaf 1ebd 96a3 c7bd c0b5 d7bd 78b0 f53c
00000130: 88d4 3bbd 6722 53bd 98f5 473c 52c0 bd3c
00000140: da3b 86bd 9302 de3d 7e99 953d 185b 263d
00000150: bc1d c03d a7a3 893d 7920 ef3d 8d75 e83c
00000160: 0a4f 623d ed12 88bd c743 683c 7d0b 063e
00000170: 2c63 5ebd c4f9 12bd bd8f 043e 67aa c93d
00000180: 1dc5 f1bd 8fd6 49bd d421 babc 84ea 103d
00000190: ed3c 0f3d adbf 4cbd afd3 f2bd 2d87 d13b
000001a0: 083c 80bd a148 a03d 310b 673d 0eef 5d3d
000001b0: d6c7 213d ce54 d83d 5772 e9bc 64df e1bd
000001c0: 0327 dd3d cbea 01be f6b4 49bc dff5 b7bd
000001d0: a043 9ebd 72e2 0abd 4074 ca3d e0bd e83d
000001e0: 062c c03c 265c 513d 09cf 763b d499 403d
000001f0: a4de a2bd c9b2 61bd d58a cebc b0dd 913d
00000200: 27f1 d63c eaab c13d eb13 e43d 2eca 6a3c
00000210: 708a 1a3d 12da 323b 8a26 bd3d ab66 90bd
00000220: ea63 f03d 6748 2abd 3356 8bbd b452 c1bd
00000230: 1d21 9dbd 8bff 00be 6ead 8b3d 6529 f93a
00000240: 1917 b3bd 4f0f a1bd 558a 7dbd cc14 943d
00000250: 7256 eabd f1ed 5d3d fb59 26bc a685 723c
00000260: fcf4 9a3d 405e 603d 0af8 3bbd ebaa ebba
00000270: a75f 99bc 93eb edbd 9406 eabd 8d0b f23c
00000280: 8cd7 e4bd 66fa 533d 2ea2 373d 055f 073d
00000290: 2d11 753d ec3d d2bd 2bae 4a3d 0d18 e03d
000002a0: 0c83 d43d b42b c43d c16f acbd f1bd 07bb
000002b0: 0425 b3bd 4818 fbbd b601 af3c 5e93 74bd
000002c0: 817d dfbc 406a c83d 0f50 cc3d e23a 0a3d
000002d0: 80d6 ecbd f114 17bd 5dd3 dbbd 1cfc c13d
000002e0: 56ef 4c3d 313e 7d3d 9218 ae3d d5a7 a83d
000002f0: 260d e13c 031e ed3d 3d42 cb3a 062e 8f3d
00000300: f3d9 b53d d84b 81bc f0ba 993d ec3d 04bd
00000310: a86e 34bd 642f 9c3c 0073 d33d f802 c83d
00000320: 8077 043e 6de3 f7bc 9b8b d03c d5f1 30bd
00000330: 6ad3 c93d 20be d5bd 0ae7 cdbb bd36 93bd
00000340: 7064 ed3d 7945 973c 09d1 debd e321 623d
00000350: 8ee2 d63c e9cf 4abd 7088 d2bd 32ff 3cbc
00000360: dc4b eb3d 9c31 2abd eda3 4fbb 10a3 fabc
00000370: 66c7 8cbd 6f22 e0bc 4e2c 513d e74e 8e3d
00000380: 7499 853d ac3c fdbd 6510 3f3d 88f0 033d
00000390: 5a4c acbd 8dfa 093c 4bc5 c93d 66c4 c1bd
000003a0: 9d7f 9cbd ec4d b63c 36a4 ddbb 2461 ff3d
000003b0: 1a19 b03d 75be f1bd 2d87 9abd eaa5 5e3d
000003c0: b5c0 3dbd 2a18 1ebb 100d af3b ba2f 8fbb
000003d0: 90ab 173d b7b0 233c e29b 543c 163f 1b3d
000003e0: 07dc 0e3d 9b2c 16bd 25c4 d7bd aa82 e93d
000003f0: 3598 49bd 7bd4 053e 7e69 3e3d 1b43 22bb

lstm.weight_ih_l0_reverse f4 [256, 111]
0.12143091 -0.04035359 0.046634004 0.018490316 -0.013718195 0.08957599 0.08601151 -0.0346909
-0.08329058 0.0014276509 -0.036086127 0.05105534 -0.021064669 0.07972717 0.102258235 -0.08346261
0.108500786 -0.054126848 -0.07623443 -0.08418392 0.0041906214 -0.034444794 -0.13270737 0.087656036
-0.08298078 -0.09879637 0.09251404 0.02539599 0.112710714 0.07297829 -0.029052466 -0.035217077
-0.008190583 0.10645722 -0.037761584 -0.08157331 -0.12010619 -0.047318622 -0.1107495 0.109678075
-0.03759435 -0.03473471 0.07199612 -0.05540049 0.12308565 -0.122667745 0.04736428 0.1246914
-0.080653176 -0.022156633 -0.05454503 0.11346407 0.09439382 0.02970013 0.0875268 0.10046123
-0.028850615 -0.032274887 0.117188245 -0.0016103638 -0.11376648 0.10688397 0.012019299 0.09551202
-0.017195545 -0.015927978 -0.11942223 -0.04764031 0.066648215 -0.09961961 -0.04467252 0.034556523
-0.06888285 -0.096212804 0.009530421 0.0233526 -0.029982 0.10474929 -0.044617295 -0.02612251
-0.021788113 0.04864438 -0.09694755 -0.0945071 0.06539574 -0.009767901 0.016533665 0.06275797
0.05875379 -0.025744617 0.06985569 -0.098408714 0.009858575 0.09212938 0.07119025 0.03809598
-0.06809607 0.010527562 0.07733421 -0.09668498 0.09384841 0.031755134 0.090255216 -0.007724967
0.0060334615 0.09791747 0.01755885 0.11997163 -0.0245976 -0.08943698 0.057757646 -0.110863514
0.119453155 -0.11930499 0.08069538 0.07343838 -0.058003966 0.0485452 0.102151416 0.037629355
-0.06348618 0.038796544 -0.019054608 0.037404377 -0.01995539 -0.04780601 -0.033403397 0.004405859
0.06837341 -0.11095273 -0.083752416 -0.018032335 -0.0150318295 -0.062200345 -0.12179692 0.13000835
0.12368195 -0.048220556 -0.06616789 -0.03706792 0.024026409 -0.023998365 -0.03067407 -0.10322842
0.12249081 -0.058801442 0.060899526 0.077480644 -0.051268607 0.122303665 -0.020669393 -0.009668913
-0.02767533 0.06113924 0.019556545 0.0004319686 -0.036158234 -0.005345499 0.11125186 -0.08475974
0.041053355 0.08518569 -0.09203145 -0.038455695 -0.040377423 0.032439604 0.072937384 0.015650563
0.008306857 -0.0036010053 -0.08032635 -0.070838824 0.07300247 0.1066339 0.06397335 -0.053773418
0.12277201 -0.07993856 0.09778181 -0.05049835 0.1197591 0.07111332 -0.021136187 0.019908316
0.003545424 -0.016330741 0.11375588 -0.013915651 -0.060463473 -0.109384775 0.020723544 0.020624869
-0.04676269 0.081375495 -0.06677626 0.019906051 -0.024233356 -0.033060998 0.08273497 -0.038304463
0.0037728157 0.044352025 0.09520227 0.087981984 -0.1225297 -0.0010809875 -0.09887746 -0.09722079
0.03117679 0.0060694776 -0.082917005 -0.05653681 -0.09842935 -0.12469219 0.022253163 0.03806667
-0.05453746 -0.026655272 -0.04717639 -0.017187424 0.068960875 -0.09160972 0.011454373 0.045078553
-0.026149727 0.060091794 -0.048236206 -0.10351567 0.038413305 0.031160388 0.06305848 -0.031465825
0.066158496 -0.017942723 0.09771585 0.07394827 0.02242299 -0.041758128 -0.018325247 -0.10266245
0.13074327 0.106156036 -0.07575475 -0.1253076 -0.027728155 -0.05967126 0.059341848 0.02807055
0.02719206 -0.063612506 -0.060223818 -0.05209151 0.0688681 0.12172051 0.024169505 -0.10876289
00000000: c5b0 f83d ce49 25bd 4c03 3f3d 0179 973c
00000010: 48c2 60bc 9e73 b73d cd26 b03d 0c18 0ebd
00000020: 4094 aabd 0420 bb3a 0ccf 13bd 671f 513d
00000030: d08f acbc 0048 a33d c46c d13d 72ee aabd
00000040: a935 de3d 1db4 5dbd cc20 9cbd 9e68 acbd
00000050: 7b51 893b fc15 0dbd 71e4 07be 0285 b33d
00000060: d4f1 a9bd c055 cabd 0078 bd3d 400b d03c
00000070: e0d4 e63d a475 953d 70ff edbc c83f 10bd
00000080: cc31 06bc 3e06 da3d e4ab 1abd e80f a7bd
00000090: 3cfa f5bd 2cd1 41bd a2d0 e2bd e69e e03d
000000a0: 88fc 19bd fc45 0ebd b472 933d a0eb 62bd
000000b0: 5414 fc3d 3a39 fbbd 0c01 423d 345e ff3d
000000c0: 7e2d a5bd d481 b5bc 9c6a 5fbd da5f e83d
000000d0: 8c51 c13d b04d f33c 4041 b33d 9ebe cd3d
000000e0: 2058 ecbc ac32 04bd 6400 f03d d812 d3ba
000000f0: 66fe e8bd fce5 da3d 98ec 443c ce9b c33d
00000100: acdd 8cbc 647b 82bc a493 f4bd 7c22 43bd
00000110: dc7e 883d 5e05 ccbd 88fa 36bd 248b 0d3d
00000120: 7412 8dbd 380b c5bd 7c25 1c3c f44d bf3c
00000130: d09c f5bc cc86 d63d a0c0 36bd e0fe d5bc
00000140: fc7c b2bc 543f 473d 708c c6bd f08c c1bd
00000150: 34ee 853d 8c09 20bc 9c71 873c 4087 803d
00000160: d0a7 703d 60e6 d2bc 8010 8f3d 828a c9bd
00000170: dc85 213c 54ae bc3d 32cc 913d 880a 1c3d
00000180: f475 8bbd cc7b 2c3c 6661 9e3d c602 c6bd
00000190: 9833 c03d ac11 023d bad7 b83d b821 fdbb
000001a0: 58b4 c53b f488 c83d 94d7 8f3c b0b3 f53d
000001b0: e880 c9bc bc2a b7bd 4893 6c3d 690c e3bd
000001c0: dba3 f43d 2d56 f4bd 9f43 a53d dd66 963d
000001d0: 9195 6dbd 55d7 463d c334 d13d 3d21 1a3d
000001e0: 0b05 82bd 20e9 1e3d 6918 9cbc 5535 193d
000001f0: 7c79 a3bc 3cd0 43bd 00d2 08bd 065f 903b
00000200: 5c07 8c3d 2f3b e3bd 6386 abbd 8cb8 93bc
00000210: 1048 76bc cac5 7ebd aa70 f9bd e920 053e
00000220: f64c fd3d eb82 45bd 0883 87bd 88d4 17bd
00000230: 08d3 c43c 3898 c4bc 3048 fbbc 6c69 d3bd
00000240: 76dc fa3d c8d9 70bd c871 793d 2cae 9e3d
00000250: 08ff 51bd 587a fa3d dc52 a9bc 5c6a 1ebc
00000260: 60b7 e2bc 246d 7a3d 0c35 a03c d879 e239
00000270: a81a 14bd 4c29 afbb 04d8 e33d 8496 adbd
00000280: 9027 283d d675 ae3d fc7a bcbd b883 1dbd
00000290: cc62 25bd 64df 043d 3260 953d 9c35 803c
000002a0: 7c19 083c d8fe 6bbb 2482 a4bd f213 91bd
000002b0: 5282 953d e062 da3d 7604 833d 8441 5cbd
000002c0: e46f fb3d d4b6 a3bd d441 c83d 5cd7 4ebd
000002d0: 4244 f53d dca3 913d cc25 adbc c416 a33c
000002e0: 585a 683b 0cc8 85bc d8f8 e83d 78fe 63bc
000002f0: 8ca8 77bd 2005 e0bd 6cc4 a93c 7cf5 a83c
00000300: 3c8a 3fbd 32a8 a63d fec1 88bd 0412 a33c
00000310: 0885 c6bc f86a 07bd f470 a93d 24e5 1cbd
00000320: 5841 773b 78aa 353d 68f9 c23d e62f b43d
00000330: daf0 fabd ecaf 8dba 4480 cabd b21b c7bd
00000340: 7866 ff3c 78e2 c63b 64d0 a9bd 2493 67bd
00000350: 5495 c9bd 9e5e ffbd 444c b63c cceb 1b3d
00000360: ac62 5fbd 285c dabc 083c 41bd a4cc 8cbc
00000370: 5c3b 8d3d e09d bbbd 1fab 3b3c 4aa4 383d
00000380: f437 d6bc d022 763d 5493 45bd 0600 d4bd
00000390: 4557 1d3d 1244 ff3c ce24 813d 4fe2 00bd
000003a0: 1b7e 873d 9efc 92bc 3f1f c83d 3172 973d
000003b0: 6bb0 b73c 920a 2bbd d41e 96bc b140 d2bd
000003c0: 90e1 053e 5668 d93d 4e25 9bbd a350 00be
000003d0: 2826 e3bc da69 74bd 7010 733d 36f4 e53c
000003e0: e2c1 de3c 4647 82bd 40ad 76bd e85d 55bd
000003f0: b80a 8d3d 9a48 f93d 20ff c53c 14bf debd

lstm.weight_hh_l0_reverse f4 [256, 64]
-0.109938264 0.11342613 0.014159222 0.025577664 -0.098940134 0.012513116 0.01771107 0.10008122
-0.115736134 -0.03766187 0.09739385 0.08752358 -0.08080696 0.046042684 -0.026825085 -0.055774048
-0.022121923 0.009825543 0.06370168 0.03965636 -0.03340769 -0.011095156 0.06372415 0.09626882
-0.051692743 0.0387256 -0.07256792 -0.009854095 0.06889132 0.1303807 0.08671233 -0.020197833
-0.1212623 -0.11565273 0.08315765 0.09400315 -0.015088978 0.0701657 -0.099565186 -0.07605105
0.054371648 -0.03411114 0.09892613 0.036204275 -0.020804971 0.07005362 0.1320961 0.07870911
-0.057300996 0.03755559 0.049970564 -0.008632951 -0.064982116 -0.088230036 0.05443323 -0.058331534
-0.028813515 -0.066765815 -0.12362855 0.01670152 0.09164397 0.008400471 -0.03070186 0.029815918
0.10276269 0.029252002 -0.063844755 -0.025551219 0.06555755 -0.00025103526 -0.035607994 -0.10675556
-0.015775634 0.040943846 0.08343858 0.041095655 -0.119022004 -0.036863137 0.037511177 -0.07935342
-0.008779807 -0.06271366 -0.024246514 -0.080048 -0.09556295 0.023192871 0.0027192698 -0.08877667
-0.10044809 0.018545773 0.09057837 -0.10127702 0.026420671 -0.089260355 0.06041353 -0.071410894
0.036077946 -0.13238573 0.090728894 0.006514712 0.07478791 0.008413423 0.1321585 -0.013994364
-0.013285848 -0.04435023 -0.08464617 -0.030009652 -0.07137094 -0.019891398 0.12656663 -0.05209419
-0.046164293 0.078453444 0.11155737 0.047175642 0.035013113 0.10045093 0.13157803 0.07485279
-0.066325545 -0.12276375 -0.0024454836 -0.07430589 -0.059359293 0.09269836 0.0456452 0.032504294
-0.114725225 -0.063193455 0.09125616 -0.046751652 -0.021301374 0.06801582 -0.015303028 -0.030568566
0.030368118 0.09920291 0.0581878 0.033831667 -0.1116693 0.007392026 0.10209444 0.0152692925
-0.04586562 -0.079712324 0.0049523585 -0.09676875 0.11060569 -0.040696796 0.10270457 -0.1258955
-0.05083555 -0.014998978 -0.014863354 -0.0818777 0.099387124 -0.11482057 -0.10162485 -0.10863165
0.10701888 -0.12334939 -0.0137174 -0.027559033 -0.060811915 0.082382396 0.12593493 -0.025024584
0.10406998 0.015480986 0.09469 0.1331574 -0.10939809 0.010924604 -0.09781843 0.09139096
-0.07466279 -0.08435313 -0.0014073395 -0.030109422 0.08947069 -0.04804951 -0.0378205 -0.049028486
-0.11302575 0.03720974 -0.11929406 0.06142438 0.084370814 0.022469813 -0.106133245 -0.07394581
0.102983065 -0.03446148 -0.117729716 0.0008660477 0.034953672 -0.05723876 -0.10828163 -0.12222485
0.064839974 -0.083490066 -0.065626994 0.052138317 0.08872738 -0.09094408 0.07056871 0.021079678
-0.06573701 -0.009888511 -0.07974121 0.0005612001 0.08828422 -0.1298475 -0.08079246 0.115305625
0.038531575 -0.018718608 0.04759945 -0.113130316 0.09188501 -0.06400195 -0.08263814 0.10670411
0.077041 -0.0131075345 0.10160901 -0.045037918 -0.005522178 -0.02196693 -0.05266507 0.033317458
-0.026612582 0.08559661 0.048840333 0.000409759 -0.082871206 -0.035008315 0.053635087 0.06571449
0.0350744 -0.076074235 -0.017779507 0.03180512 0.0581655 0.11498775 0.08447423 -0.10634055
0.06344863 -0.08347288 0.09288194 -0.11952313 -0.10590286 -0.11443478 -0.031194808 0.027100524
00000000: 5027 e1bd f54b e83d 15fc 673c 4088 d13c
00000010: 20a1 cabd d003 4d3c ce16 913c 62f7 cc3d
00000020: 1107 edbd 5543 1abd 6d76 c73d 903f b33d
00000030: 1f7e a5bd 4197 3c3d 48c0 dbbc 5473 64bd
00000040: 0939 b5bc 50fb 203c 0776 823d b56e 223d
00000050: 80d6 08bd 75c8 35bc cf81 823d 9628 c53d
00000060: c5bb 53bd bc9e 1e3d 7d9e 94bd 1273 21bc
00000070: e416 8d3d 8582 053e 3c96 b13d ed75 a5bc
00000080: 5e58 f8bd 57db ecbd 8f4e aa3d b984 c03d
00000090: c337 77bc 09b3 8f3d d5e8 cbbd a7c0 9bbd
000000a0: ceb4 5e3d 1fb8 0bbd c899 ca3d ef4a 143d
000000b0: 306f aabc 4678 8f3d 3344 073e 3e32 a13d
000000c0: 73b4 6abd e4d3 193d efad 4c3d 3971 0dbc
000000d0: 5815 85bd f3b1 b4bd 61f5 5e3d 0ced 6ebd
000000e0: 520a ecbc 84bc 88bd f730 fdbd a0d1 883c
000000f0: d5af bb3d 21a2 093c 7882 fbbc 8340 f43c
00000100: 3f75 d23d e5a1 ef3c 0ac1 82bd ca50 d1bc
00000110: 0943 863d 629d 83b9 b0d9 11bd a9a2 dabd
00000120: e73b 81bc bcb4 273d d9e1 aa3d eb53 283d
00000130: cfc1 f3bd cdfd 16bd 52a5 193d 0c84 a2bd
00000140: 2ed9 0fbc 0570 80bd a0a0 c6bc 35f0 a3bd
00000150: 82b6 c3bd fafe bd3c c735 323b 8bd0 b5bd
00000160: bab7 cdbd 4eed 973c 2781 b93d 546a cfbd
00000170: 2a70 d83c 22ce b6bd 2d74 773d e03f 92bd
00000180: 78c6 133d 2090 07be 12d0 b93d 5d79 d53b
00000190: 672a 993d 74d8 093c 8f54 073e 9e48 65bc
000001a0: e3ac 59bc 96a8 35bd f95a adbd cdd6 f5bc
000001b0: ed2a 92bd 49f3 a2bc af9a 013e b860 55bd
000001c0: c516 3dbd 33ac a03d 3178 e43d 3f3b 413d
000001d0: e969 0f3d 38b9 cd3d 64bc 063e 6b4c 993d
000001e0: b0d5 87bd 906b fbbd 6844 20bb b02d 98bd
000001f0: bb22 73bd a3d8 bd3d 76f6 3a3d 3923 053d
00000200: 0ff5 eabd 926b 81bd 82e4 ba3d a97e 3fbd
00000210: 3880 aebc e14b 8b3d 8db9 7abc ee6a fabc
00000220: 8fc6 f83c e52a cb3d 5556 6e3d 1393 0a3d
00000230: e0b2 e4bd cf38 f23b e416 d13d 0e2c 7a3c
00000240: 97dd 3bbd 3740 a3bd 6547 a23b b22e c6bd
00000250: 3c85 e23d afb1 26bd c656 d23d c0ea 00be
00000260: f038 50bd 46be 75bc 6d85 73bc 7faf a7bd
00000270: 7a8b cb3d 0c27 ebbd b020 d0bd 457a debd
00000280: b72c db3d 9b9e fcbd f2be 60bc 7bc3 e1bc
00000290: ea15 79bd 1ab8 a83d 16f5 003e 5b00 cdbc
000002a0: a422 d53d f6a3 7d3c d5ec c13d 6a5a 083e
000002b0: 1b0c e0bd 1cfd 323c 0755 c8bd 2f2b bb3d
000002c0: cee8 98bd 55c1 acbd 7a76 b8ba 09a8 f6bc
000002d0: 693c b73d 90cf 44bd abe9 1abd 18d2 48bd
000002e0: 0b7a e7bd 3e69 183d 7250 f4bd 2198 7b3d
000002f0: 9bca ac3d 9d12 b83c 635c d9bd e770 97bd
00000300: c9e8 d23d 7b27 0dbd 471c f1bd 7a07 633a
00000310: 952b 0f3d 3173 6abd c2c2 ddbd 0651 fabd
00000320: d2ca 843d d7fc aabd 7267 86bd fd8e 553d
00000330: b3b6 b53d e440 babd 5486 903d 4aaf ac3c
00000340: 20a1 86bd 6c03 22bc 5c4f a3bd 801d 133a
00000350: 5bce b43d bef6 04be 8476 a5bd 5b25 ec3d
00000360: 49d3 1d3d c457 99bc a4f7 423d deb0 e7bd
00000370: 352e bc3d 7413 83bd 2f3e a9bd af87 da3d
00000380: acc7 9d3d fcc0 56bc 6218 d03d ae79 38bd
00000390: 63f3 b4bb fef3 b3bc 54b7 57bd e377 083d
000003a0: a102 dabc 474d af3d cd0c 483d ecd4 d639
000003b0: 61b8 a9bd e164 0fbd 77b0 5b3d 5295 863d
000003c0: 2daa 0f3d cfcc 9bbd 54a6 91bc 1646 023d
000003d0: f33e 6e3d b37e eb3d d300 ad3d 13c9 d9bd
000003e0: 5bf1 813d d4f3 aabd e338 be3d 8bc8 f4bd
000003f0: 99e3 d8bd c85c eabd 418c ffbc eb01 de3c

lstm.bias_ih_l0_reverse f4 [256]
0.063389994 -0.029472066 0.02185307 -0.032250933 0.048250884 0.08351336 -0.04483023 -0.060821235
-0.001216174 0.102189764 -0.07995027 0.098753296 0.102696076 0.008908863 -0.12051919 0.04038433
-0.052511636 -0.07157954 0.058667727 0.094753474 0.013729656 0.04205647 -0.08884691 -0.069853544
-0.067626946 -0.10136199 0.03074244 0.012615235 0.08566301 -0.086042315 -0.085063815 -0.054029524
-0.032144263 -0.0851166 0.102502234 0.12505172 -0.062396325 -0.07934556 0.029368063 0.03926297
0.065132596 0.12549652 0.058329582 -0.077326976 0.024392642 -0.06444529 -0.11072811 -0.029000208
-0.004157797 0.09871297 0.038424257 0.0086226165 0.10191077 -0.015147746 -0.12231063 -0.002536524
-0.005569583 0.11637303 -0.046840742 0.1066108 0.013894036 -0.12284079 -0.09296983 0.111158654
-0.112470075 -0.022145007 -0.12485205 -0.06360844 -0.06429036 0.01056944 0.010784998 0.008469223
0.02645641 0.082471564 0.107436284 -0.06295117 -0.0095949415 0.012697782 0.092427306 -0.04505367
0.01691349 -0.048781566 0.03169265 0.10226528 0.111247785 0.09530012 -0.06485691 -0.04543159
-0.03454274 0.115945555 -0.003860397 -0.03255879 -0.040436372 0.0988649 0.10358819 0.017264444
-0.083781324 0.11054213 0.098051235 -0.038876176 -0.11791077 0.042547364 -0.018662171 -0.09017317
-0.07002272 0.103755176 -0.12896064 -0.09643906 0.101950996 0.09788313 0.06163954 0.09540512
0.057743732 0.087537214 0.055281024 -0.0005204786 0.045413155 0.11871316 -0.0852058 0.08935836
0.081842616 -0.012080757 0.061752684 -0.05242714 -0.11375834 0.10133702 -0.032729693 0.076547846
0.07091562 -0.10061167 0.042442538 -0.057381697 -0.013558732 -0.123250216 0.12957275 -0.10936065
-0.104005486 0.09648044 -0.08103204 0.11374252 -0.10350648 0.11485732 0.09182454 0.07081204
-0.009280103 -0.123802796 0.04313592 0.08255107 -0.0163042 -0.028077845 -0.08597498 0.023793498
-0.095639095 0.105441324 0.0059622834 0.034651484 -0.021419615 0.09262493 0.09544835 0.0050655785
0.07470529 0.07844028 0.03881756 -0.116407715 -0.13231467 -0.07507462 0.07951445 -0.10983324
0.06782485 0.070948064 0.09823585 0.025068173 -0.120428704 -0.0033671607 -0.038944103 -0.087160476
-0.03797807 -0.08610759 0.04227173 0.06484089 0.012866678 0.11614045 -0.013973789 0.1209929
0.044421814 0.10464908 0.02907477 0.10691402 -0.068574086 0.00962927 0.060688637 -0.03643384
-0.11957372 -0.058848385 0.012189887 0.011133852 -0.017220704 -0.0065348214 -0.0910482 -0.087846816
0.02851871 0.07342704 0.008766728 -0.0708471 -0.09916512 -0.046483155 -0.018544096 0.022356642
0.045551185 0.097155444 0.06323816 0.09517119 -0.0030447498 0.033514444 0.085680045 -0.097117804
-0.07523597 0.01126756 -0.043810267 0.09826601 0.05963969 0.06951606 0.084722616 0.025335034
0.046450403 0.089113474 -0.1096822 -0.115942985 0.095287874 -0.0158238 0.080169395 -0.043690905
-0.10485546 -0.041722838 -0.086705685 0.051520012 0.013624409 0.01001536 -0.08968121 -0.04782028
0.04008764 0.045928255 0.104169205 -0.09595871 0.08937825 0.07392746 -0.028537843 -0.030583685
-0.026679082 -0.076111935 0.10233153 -0.0021052193 0.0045935055 -0.115170784 0.09130665 -0.074027814
00000000: 9dd2 813d 676f f1bc 3605 b33c 8e19 04bd
00000010: b8a2 453d 0d09 ab3d e79f 37bd b01f 79bd
00000020: 0768 9fba de48 d13d f8bc a3bd 2b3f ca3d
00000030: 5252 d23d 7bf6 113c c4d2 f6bd 0a6a 253d
00000040: 7116 57bd 4b98 92bd 924d 703d 1c0e c23d
00000050: 5af2 603c 6843 2c3d 5ef5 b5bd 600f 8fbd
00000060: ff7f 8abd e096 cfbd 92d7 fb3c 21b0 4e3c
00000070: 1770 af3d f436 b0bd f035 aebd 104e 5dbd
00000080: b4a9 03bd 9d51 aebd b1ec d13d 8f0d 003e
00000090: 4a93 7fbd ed7f a2bd 4b95 f03c 35d2 203d
000000a0: 3d64 853d 2982 003e 00eb 6e3d 9b5d 9ebd
000000b0: 14d3 c73c e4fb 83bd 6bc5 e2bd d891 edbc
000000c0: 213e 88bb 072a ca3d c162 1d3d e045 0d3c
000000d0: 98b6 d03d 402e 78bc ff7d fabd d03b 26bb
000000e0: 0c81 b6bb fc54 ee3d 14dc 3fbd c356 da3d
000000f0: d0a3 633c f493 fbbd f766 bebd 26a7 e33d
00000100: b656 e6bd 7269 b5bc 6eb2 ffbd 2445 82bd
00000110: aaaa 83bd 722b 2d3c 8fb3 303c 7fc2 0a3c
00000120: 1dbb d83c dae6 a83d 8e07 dc3d 8bec 80bd
00000130: 1a34 1dbc 5c0a 503c 874a bd3d 328a 38bd
00000140: 298e 8a3c 2ecf 47bd 27d0 013d 7670 d13d
00000150: e1d5 e33d b62c c33d b3d3 84bd 7a16 3abd
00000160: b07c 0dbd dd74 ed3d b7fe 7cbb 5e5c 05bd
00000170: 9ca0 25bd ae79 ca3d 0c26 d43d 2a6e 8d3c
00000180: 8b95 abbd ea63 e23d 16cf c83d a03c 1fbd
00000190: 347b f1bd 2546 2e3d 69e1 98bc b6ac b8bd
000001a0: 1268 8fbd 987d d43d 420e 04be d881 c5bd
000001b0: afcb d03d f376 c83d be79 7c3d c263 c33d
000001c0: b184 6c3d b646 b33d 5b6e 623d ba70 08ba
000001d0: 2503 3a3d e31f f33d 6180 aebd 8401 b73d
000001e0: 1a9d a73d 5eee 45bc 62f0 7c3d d7bd 56bd
000001f0: 22fa e8bd c989 cf3d 920f 06bd 1ec5 9c3d
00000200: 353c 913d 7e0d cebd 3ad8 2d3d 1209 6bbd
00000210: 7225 5ebc 9c6a fcbd b8ae 043e 7af8 dfbd
00000220: d400 d5bd 8997 c53d 20f4 a5bd d7f1 e83d
00000230: 35fb d3bd 513a eb3d 810e bc3d e705 913d
00000240: 930b 18bc 528c fdbd 4aaf 303d 8910 a93d
00000250: 6390 85bc 8203 e6bc a613 b0bd 95ea c23c
00000260: 6ede c3bd 9ff1 d73d 425f c33b b7ee 0d3d
00000270: 3078 afbc 24b2 bd3d 6d7a c33d 27fd a53b
00000280: 16ff 983d 4ca5 a03d 29ff 1e3d 2b67 eebd
00000290: 7f7d 07be b9c0 99bd 79d8 a23d 40f0 e0bd
000002a0: c1e7 8a3d 384d 913d e12f c93d c55b cd3c
000002b0: 53a3 f6bd 95ab 5cbb da83 1fbd 3181 b2bd
000002c0: e58e 1bbd 2d59 b0bd 1f25 2d3d 4dcb 843d
000002d0: c2ce 523c 0bdb ed3d 52f2 64bc 20cb f73d
000002e0: a6f3 353d 4252 d63d 362e ee3c bdf5 da3d
000002f0: 9270 8cbd 16c4 1d3c a694 783d a63b 15bd
00000300: 11e3 f4bd 010b 71bd 18b8 473c c36a 363c
00000310: 6f12 8dbc 0e22 d6bb 7b77 babd 08e9 b3bd
00000320: 12a0 e93c ea60 963d 53a2 0f3c 4918 91bd
00000330: 1517 cbbd 1f65 3ebd cae9 97bc 4725 b73c
00000340: e193 3a3d 6ff9 c63d 0283 813d 1de9 c23d
00000350: 6d8a 47bb 7146 093d 0579 af3d b3e5 c6bd
00000360: 5115 9abd 929b 383c 6572 33bd b13f c93d
00000370: bf48 743d 705e 8e3d 0d83 ad3d 6b8b cf3c
00000380: c742 3e3d 2081 b63d 10a1 e0bd 8473 edbd
00000390: 4a26 c33d eaa0 81bc da2f a43d 3cf5 32bd
000003a0: 76be d6bd 91e5 2abd c092 b1bd a606 533d
000003b0: ea38 5f3c 7717 243c c8aa b7bd 33df 43bd
000003c0: f032 243d 441f 3c3d aa56 d53d 0086 c4bd
000003d0: f20b b73d 4867 973d 32c8 e9bc a38a fabc
000003e0: 178e dabc 93e0 9bbd 3193 d13d b8f7 09bb
000003f0: 1e85 963b a9de ebbd fbfe ba3d e59b 97bd
