models/mini_lstm_best.pth (torch, 770333 bytes, 20 tensors)

lstm.weight_ih_l0 f4 [256, 111]
0.028299972 -0.062390372 0.07861685 -0.10293555 -0.11826203 0.050418306 -0.052188575 -0.04528758
0.09692607 -0.10305301 0.12626214 -0.0774131 -0.08116878 0.009044047 0.036152434 0.04485793
-0.0018151442 -0.008173171 -0.049458113 -0.10007005 -0.12967114 -0.070970386 -0.06926508 -0.016756674
-0.11735948 0.06133161 0.053320713 -0.04882697 0.10987318 -0.026267178 0.036292564 0.12530409
-0.0058249454 0.088219 -0.07504746 0.075673126 0.038715705 0.13810998 0.061627068 0.080613546
0.08295977 -0.08959973 0.11940297 -0.021686275 0.055989686 -0.043510683 0.023216082 -0.07369788
-0.0967897 -0.07393628 0.02483382 -0.097456776 0.103969805 -0.020154133 0.12171596 -0.10052725
0.0067887846 0.06010653 -0.095011584 0.075516336 0.058460824 0.053023826 0.019887934 0.07235897
0.07312307 0.000106521795 -0.08200839 0.0998547 0.11483976 -0.010951015 -0.035521057 0.1130373
-0.032873277 0.064015426 0.05893574 -0.104489096 -0.12037017 -0.12169089 0.048601415 -0.043068837
0.06762504 -0.10824633 0.016856952 -0.077627555 0.09123433 -0.058296453 0.08034199 0.06664796
-0.008407004 0.06872581 -0.109550126 0.110079385 0.09131683 0.053428113 -0.09641228 0.010866613
-0.014244207 -0.12370423 -0.080855414 0.009872944 0.0058685965 0.006508948 0.06334347 -0.030638041
-0.08271748 0.08889254 0.070960306 -0.068175 -0.035856903 -0.12669079 -0.042065892 -0.09263714
0.011222241 0.09588308 0.1233348 -0.10849652 -0.0025859955 -0.108482 -0.085138924 -0.047854684
0.032252166 0.049671415 -0.070654385 0.010174795 -0.03242569 -0.08154572 0.036518343 -0.080559805
-0.032183837 -0.0177736 0.047204286 -0.1093108 0.11495751 0.116429076 -0.0349485 -0.09201877
-0.006124322 0.087981164 0.12677498 -0.08877736 -0.024439022 -0.013904498 -0.034124456 0.043308597
0.07347687 -0.03685138 0.044326916 0.07625542 0.14053142 -0.101200685 0.04004652 0.07784852
-0.0643639 -0.13253278 -0.0037433014 0.001251251 0.018694503 0.05762812 0.068209216 0.022313973
0.082749814 -0.062592685 -0.034132775 0.0035474866 -0.0468847 -0.1276376 -0.11533725 -0.02463923
-0.094265476 -0.08090555 0.11797481 -0.11187058 -0.06521012 0.048787814 0.097878136 -0.031604137
-0.0015321306 -0.06435973 0.08742027 -0.06174106 -0.1182534 0.08619839 0.085097186 0.11969032
-0.087606296 -0.035212897 -0.02722578 0.066863075 -0.010114696 -0.13145468 -0.015894178 -0.0949161
0.08389046 -0.050041538 0.05794632 0.004094291 0.025344012 0.06554423 0.10638975 -0.054095443
-0.078024544 0.0593813 0.012949256 0.08861657 0.06307518 -0.09600496 -0.0111075025 -0.0009788482
0.038708113 -0.058922373 0.035061438 -0.015519919 0.0008877148 -0.04833332 -0.11323532 0.072414644
0.10185043 0.067927696 0.1052685 0.03051128 -0.020803507 -0.0075235353 -0.016602278 0.02114766
0.10880018 -0.08568501 -0.055934455 -0.07793125 0.09399161 0.073871404 -0.116078265 -0.11724584
0.07478187 0.01704128 -0.06379989 -0.0024925729 0.030167192 -0.04347558 -0.039794415 -0.036631573
0.057116717 -0.0022609658 0.07616326 0.037916485 -0.10448527 -0.106367655 -0.10311601 -0.032495692
0.07154927 0.13240074 -0.023992775 -0.09601286 -0.029867755 -0.043375768 -0.027372913 -0.104314424
00000000: 58d5 e73c 0c8d 7fbd df01 a13d e0cf d2bd
00000010: 5d33 f2bd 6d83 4e3d b0c3 55bd 787f 39bd
00000020: 2d81 c63d 750d d3bd dd4a 013e c28a 9ebd
00000030: d13b a6bd 7c2d 143c 9314 143d f3bc 373d
00000040: 22ea edba c4e8 05bc 9794 4abd 87f1 ccbd
00000050: 83c8 04be ec58 91bd dada 8dbd 4b45 89bc
00000060: 2b5a f0bd db36 7b3d d266 5a3d cafe 47bd
00000070: 3105 e13d 442e d7bc 83a7 143d b74f 003e
00000080: 2fdf bebb 2aac b43d 7cb2 99bd 83fa 9a3d
00000090: 5c94 1e3d b46c 0d3e aa6c 7c3d b718 a53d
000000a0: d0e6 a93d 1080 b7bd 8b89 f43d 6aa7 b1bc
000000b0: 7155 653d 4238 32bd a72f be3c eaee 96bd
000000c0: ae39 c6bd e86b 97bd 4c70 cb3c 6b97 c7bd
000000d0: 1fee d43d 481a a5bc 3846 f93d 3be1 cdbd
000000e0: 7474 de3b 4432 763d 6f95 c2bd 4fa8 9a3d
000000f0: 9e74 6f3d 832f 593d 05ec a23c f130 943d
00000100: 8cc1 953d 7464 df38 04f4 a7bd 9f80 cc3d
00000110: 1c31 eb3d e36b 33bc 877e 11bd 1a80 e73d
00000120: 21a6 06bd 851a 833d 9a66 713d 61fe d5bd
00000130: a384 f6bd 1339 f9bd 4712 473d f368 30bd
00000140: ff7e 8a3d 40b0 ddbd 9717 8a3c 32fb 9ebd
00000150: 10d9 ba3d 43c8 6ebd 578a a43d ba7e 883d
00000160: 88bd 09bc 1ec0 8c3d d15b e0bd 4d71 e13d
00000170: 5104 bb3d 70d7 5a3d cd73 c5bd e109 323c
00000180: 8960 69bc a558 fdbd 8697 a5bd 21c2 213c
00000190: 5b4d c03b 0349 d53b 39ba 813d a1fc fabc
000001a0: c867 a9bd 4b0d b63d a353 913d 569f 8bbd
000001b0: b0de 12bd 3bbb 01be 494d 2cbd 8ab8 bdbd
000001c0: 7edd 373c 595e c43d f596 fc3d 6c33 debd
000001d0: ce79 29bb d02b debd 515d aebd 4603 44bd
000001e0: d91a 043d 4174 4b3d 3fb3 90bd 2fb4 263c
000001f0: cdd0 04bd 7101 a7bd 4294 153d 8afc a4bd
00000200: 33d3 03bd f199 91bc 4859 413d 57de dfbd
00000210: d86e eb3d 5e72 ee3d 2926 0fbd 5674 bcbd
00000220: 89ae c8bb 782f b43d 4dd1 013e e8d0 b5bd
00000230: 5834 c8bc b1cf 63bc 16c6 0bbd 5b64 313d
00000240: 0b7b 963d 79f1 16bd 2490 353d cd2b 9c3d
00000250: 78e7 0f3e 4e42 cfbd d207 243d 0b6f 9f3d
00000260: 38d1 83bd acb6 07be 2d52 75bb 0401 a43a
00000270: 3725 993c 770b 6c3d 46b1 8b3d cbcb b63c
00000280: bc78 a93d 9830 80bd cfce 0bbd f37c 683b
00000290: 2c0a 40bd 6eb3 02be f035 ecbd 36d8 c9bc
000002a0: 420e c1bd cfb1 a5bd c79c f13d 671c e5bd
000002b0: e28c 85bd bbd5 473d 5574 c83d 5773 01bd
000002c0: c6d1 c8ba 09cf 83bd 6609 b33d 32e4 7cbd
000002d0: d72e f2bd c888 b03d 6f47 ae3d 3320 f53d
000002e0: ee6a b3bd 663b 10bd 9908 dfbc 82ef 883d
000002f0: 1cb8 25bc 0e9c 06be 8234 82bc 5f63 c2bd
00000300: c3ce ab3d 5bf8 4cbd 1f59 6d3d 6729 863b
00000310: 3f9e cf3c 0e3c 863d dfe2 d93d 2f93 5dbd
00000320: 55cb 9fbd ce39 733d 1e29 543c 9b7c b53d
00000330: 8f2d 813d 409e c4bd 3efc 35bc b24c 80ba
00000340: 668c 1e3d 9658 71bd 959c 0f3d 4247 7ebc
00000350: 88b5 683a 29f9 45bd ebe7 e7bd 214e 943d
00000360: f596 d03d ad1d 8b3d 0397 d73d cbf2 f93c
00000370: 1e6c aabc fd87 f6bb 8001 88bc dc3d ad3c
00000380: a1d2 de3d 9f7b afbd 871b 65bd 6b9a 9fbd
00000390: ac7e c03d e449 973d 71ba edbd 961e f0bd
000003a0: 3d27 993d 289a 8b3c 84a9 82bd 6f5a 23bb
000003b0: 3021 f73c 7313 32bd 78ff 22bd fd0a 16bd
000003c0: 38f3 693d b62c 14bb 7cfb 9b3d 514e 1b3d
000003d0: 60fc d5bd 49d7 d9bd 7d2e d3bd 341a 05bd
000003e0: 6c88 923d 0f94 073e 7f8c c4bc 64a2 c4bd
000003f0: 39ad f4bc caaa 31bd 293d e0bc cda2 d5bd

lstm.weight_hh_l0 f4 [256, 64]
-0.08515368 -0.11340233 0.10729331 -0.027083004 -0.1348575 0.04331006 0.009740428 0.06487625
-0.089486346 0.08164777 0.10460938 0.1231246 -0.038691204 0.024239741 -0.031746086 -0.00066574296
0.10764758 -0.09817212 -0.063928835 0.057286177 0.019614711 0.12362258 0.037565436 -0.13274382
-0.07808511 0.022178994 0.03217688 0.098874405 0.10818681 -0.08228364 -0.12447299 0.0075706844
0.10077528 -0.12472141 0.07449019 -0.10617273 -0.1091538 0.13746144 0.1198494 -0.07075755
-0.08842416 0.088544495 0.0139501225 -0.032347742 -0.047668543 0.14027856 -0.10867778 -0.060466982
0.10734796 -0.027272407 -0.093013376 -0.096090764 -0.06804718 -0.08833023 -0.0572734 0.1171599
-0.088224314 0.008124232 -0.048206642 -0.050191715 -0.041748717 -0.09490139 -0.07128242 0.08806681
0.112965584 0.008318384 -0.041531038 0.06600731 0.13532263 -0.09537126 0.104929276 0.061205026
-0.0698391 0.067680106 -0.09960044 0.13587295 0.02893464 0.11212445 -0.023359332 -0.0317836
0.06775972 -0.077479854 0.046310347 0.050382756 0.05672602 0.05789075 0.050848566 0.02728948
-0.054636225 -0.027046554 -0.09424798 -0.026457626 -0.0014803021 -0.073571466 0.06441183 -0.11632387
0.10437667 0.0002507388 -0.09867976 0.08710955 0.10013191 -0.0014668289 0.05265667 0.11919958
0.06321965 -0.11242217 0.040508766 0.13311148 -0.08500154 0.019245377 0.06950848 0.13234851
-0.01342358 -0.10257695 0.12859645 0.12693429 -0.0009201157 -0.1201464 0.096442014 0.063072056
-0.028500775 -0.10413873 -0.07748392 -0.011979108 0.0494986 0.1390528 0.06726196 0.096295
0.03504689 0.016105194 -0.012645858 0.0076104472 0.113236755 -0.07526501 -0.10682783 0.0897112
0.06725473 -0.07816523 -0.07214122 -0.027197657 0.034901742 0.103298485 0.01724776 -0.04286014
-0.09332884 -0.10587375 -0.005014574 -0.017209858 0.116704494 -0.02947185 -0.11038769 -0.007320592
-0.016681474 -0.07105215 0.08900281 0.045164987 -0.10643092 0.054969344 0.0939497 0.08920457
-0.039113015 -0.124832176 0.006918507 0.056565415 -0.09777231 -0.11171589 -0.091238804 0.01126071
0.04139919 -0.007928824 0.06089691 0.010701355 -0.024476495 0.091724455 -0.026826458 0.044910006
-0.051892348 -0.099495 0.1111161 0.09011585 -0.07801092 -0.09614487 0.03568601 0.06990015
-0.10571638 -0.076864034 -0.052626107 -0.026974952 0.013194087 -0.084273785 0.0025817163 -0.048830442
0.05667558 -0.043673217 0.010494478 0.03423463 0.09796674 -0.12461984 0.06922498 0.049524155
-0.049729995 0.0695366 0.09625611 0.080982946 0.0032632076 -0.12121816 -0.09275685 -0.012624733
-0.1364267 0.077670254 0.1060176 -0.066569775 -0.05633336 0.10126662 0.11160354 -0.0031592632
-0.08121239 0.063305266 0.09494519 0.030120336 0.07494937 0.049042832 0.07215606 -0.11119602
-0.011814552 -0.026335398 0.028592074 -0.017530436 0.07767635 0.080412045 0.115077876 0.0852821
-0.020198416 -0.02408118 0.03271684 0.050061278 0.07045652 -0.09649061 -0.11250709 -0.0072049648
-0.09356378 0.08266413 -0.010308291 0.10772473 -0.027813325 -0.055216562 -0.06654199 -0.069427356
-0.010331336 0.022663698 -0.13568617 -0.031523384 0.061864372 -0.031675898 0.09030599 -0.12254767
00000000: 0d65 aebd 7b3f e8bd 98bc db3d 2ddd ddbc
00000010: 1618 0abe e465 313d 5196 1f3c d7dd 843d
00000020: 9e44 b7bd f236 a73d 713d d63d c028 fc3d
00000030: ab7a 1ebd 6c92 c63c 2f08 02bd 4185 2eba
00000040: 5676 dc3d 770e c9bd 1fed 82bd e9a4 6a3d
00000050: 08af a03c d62d fd3d 37de 193d ffed 07be
00000060: 16eb 9fbd b9b0 b53c e7cb 033d aa7e ca3d
00000070: 0c91 dd3d 5384 a8bd b2eb febd 8113 f83b
00000080: 4563 ce3d f06d ffbd 508e 983d 1771 d9bd
00000090: 078c dfbd b1c2 0c3e 9a73 f53d 56e9 90bd
000000a0: ba17 b5bd d156 b53d 0e8f 643c 117f 04bd
000000b0: 1740 43bd 2fa5 0f3e 7592 debd 3aac 77bd
000000c0: 3fd9 db3d 626a dfbc cc7d bebd 3ccb c4bd
000000d0: 525c 8bbd 7be6 b4bd 8397 6abd 88f1 ef3d
000000e0: f3ae b4bd 801b 053c 5474 45bd d495 4dbd
000000f0: b400 2bbd a95b c2bd 84fc 91bd 5f5c b43d
00000100: 805a e73d d549 083c 731c 2abd d72e 873d
00000110: 0492 0a3e 0252 c3bd 29e5 d63d 1fb2 7a3d
00000120: cd07 8fbd de9b 8a3d 51fb cbbd 4722 0b3e
00000130: 5708 ed3c 81a1 e53d 125c bfbc 852f 02bd
00000140: 9cc5 8a3d c2ad 9ebd ebaf 3d3d 265e 4e3d
00000150: 8b59 683d da1e 6d3d 9646 503d 308e df3c
00000160: 3cca 5fbd bc90 ddbc 1605 c1bd aabd d8bc
00000170: b206 c2ba a3ac 96bd 59ea 833d 363b eebd
00000180: 70c3 d53d 9875 8339 9d18 cabd 7e66 b23d
00000190: f511 cd3d 9c42 c0ba 85ae 573d e91e f43d
000001a0: 4e79 813d 983d e6bd 85ec 253d 604e 083e
000001b0: 4a15 aebd 7ba8 9d3c 765a 8e3d 5e86 073e
000001c0: 93ee 5bbc dd13 d2bd caae 033e 10fb 013e
000001d0: eb33 71ba 510f f6bd 6483 c53d ec2b 813d
000001e0: 757a e9bc b046 d5bd e4af 9ebd 0544 44bc
000001f0: 0bbf 4a3d db63 0e3e a3c0 893d 5036 c53d
00000200: 548d 0f3d 0aef 833c 9330 4fbc 0f61 f93b
00000210: ace8 e73d 8b24 9abd 8dc8 dabd 81ba b73d
00000220: d9bc 893d 1815 a0bd c7be 93bd 9fcd debc
00000230: 21f5 0e3d 288e d33d 2d4b 8d3c 1d8e 2fbd
00000240: 3123 bfbd 56d4 d8bd 4c51 a4bb b0fb 8cbc
00000250: c402 ef3d f36e f1bc f112 e2bd 94e1 efbb
00000260: 96a7 88bc ca83 91bd 1b47 b63d ecfe 383d
00000270: 74f8 d9bd 8927 613d b368 c03d e3b0 b63d
00000280: f834 20bd 03a8 ffbd a5b4 e23b 23b1 673d
00000290: d93c c8bd 4dcb e4bd 69db babd d77e 383c
000002a0: 3292 293d e6e7 01bc 0a6f 793d bc54 2f3c
000002b0: ee82 c8bc 08da bb3d 29c3 dbbc 8ef3 373d
000002c0: 128d 54bd 09c4 cbbd d690 e33d a98e b83d
000002d0: 30c4 9fbd 9ae7 c4bd 7e2b 123d cf27 8f3d
000002e0: d481 d8bd e46a 9dbd 798e 57bd 93fa dcbc
000002f0: 032c 583c bc97 acbd 0332 293b 6e02 48bd
00000300: a724 683d b0e2 32bd 08f1 2b3c 9d39 0c3d
00000310: c9a2 c83d b038 ffbd d4c5 8d3d d7d9 4a3d
00000320: aeb1 4bbd 3469 8e3d ec21 c53d 63da a53d
00000330: 8adb 553b 3a41 f8bd 4ef7 bdbd f8d7 4ebc
00000340: 71b3 0bbe 9511 9f3d c11f d93d bc55 88bd
00000350: cfbd 66bd e064 cf3d 6690 e43d a40b 4fbb
00000360: ae52 a6bd 31a6 813d a072 c23d ecbe f63c
00000370: 0e7f 993d 23e1 483d 8ec6 933d bdba e3bd
00000380: d391 41bc 55bd d7bc ed39 ea3c fd9b 8fbc
00000390: c714 9f3d 12af a43d f3ad eb3d 62a8 ae3d
000003a0: 2677 a5bc e545 c5bc 1802 063d 0e0d 4d3d
000003b0: 824b 903d de9c c5bd 1e6a e6bd a017 ecbb
000003c0: 5e9e bfbd d04b a93d 1be4 28bc c99e dc3d
000003d0: c5d8 e3bc c32a 62bd 2b47 88bd ee2f 8ebd
000003e0: c444 29bc 38a9 b93c 51f1 0abe aa1e 01bd
000003f0: 7f65 7d3d 96be 01bd 59f2 b83d 46fa fabd

lstm.bias_ih_l0 f4 [256]
0.07474474 -0.019532202 0.07846992 0.12245786 0.07407219 -0.026127135 -0.1262502 -0.05023413
0.033649158 0.09731263 0.028456118 0.12922786 -0.044130825 0.12766153 -0.05035495 -0.035876375
-0.0526515 -0.12367565 0.13457368 -0.029044887 -0.06645201 0.11203189 0.072347455 -0.12960644
-0.0921192 0.086965136 0.029114377 0.12241511 -0.13415171 -0.033859696 -0.108345784 0.051677473
-0.042032752 0.11442569 0.109873965 0.039745446 -0.09835004 -0.086934544 -0.10874259 0.045872174
-0.08882083 -0.006529814 -0.097549014 0.051476255 0.09971433 0.058541052 -0.06558113 -0.07209993
0.12683584 0.14059433 0.111160725 0.08612272 0.10193448 -0.053407345 0.005596122 -0.038740877
0.077439815 -0.10798372 -0.13184658 0.09415092 0.00051488134 -0.08525668 0.07163045 0.00012909286
-0.12841542 0.03038153 -0.028939798 -0.04721616 0.00076210964 0.04555698 0.010442056 -0.061372288
-0.06919612 0.007746319 0.00025028552 -0.033161163 -0.046932228 0.10012272 -0.094390124 -0.08735651
-0.08667428 -0.117143154 -0.059643447 -0.032485984 0.10677095 0.06086512 0.07241307 -0.031518344
0.040262006 -0.066009685 -0.04137186 0.02598127 0.0032971383 0.073443815 -0.038514458 -0.011705799
-0.08013089 0.035815407 0.075899035 0.14390819 0.060104806 -0.021194074 0.022057652 -0.015863162
-0.118404664 0.027778864 0.0103956675 0.09246841 -0.0067597595 -0.09392756 0.07114224 -0.10860492
0.024976315 0.106646724 -0.013546038 0.009011168 -0.08091333 -0.09606934 -0.0980301 -0.106434226
-0.08552916 0.13683912 0.08887395 0.052664142 0.099148214 0.03831227 -0.09909816 -0.07711119
-0.005641767 -0.007978973 0.046452012 0.043124508 0.035737768 -0.07991113 -0.06428844 -0.081056
0.0825839 0.09253442 0.011260864 0.090080366 0.053457256 0.011078159 -0.020467578 -0.003153978
-0.071449384 -0.11515429 -0.0037465913 -0.029956598 -0.10592807 0.118636474 0.12216879 -0.056078035
0.005299209 0.004026223 0.029261574 -0.094256975 0.058172077 -0.025118038 -0.020184841 -0.057900503
0.13140461 0.015621843 -0.0545138 -0.031213572 -0.08757858 -0.05406391 0.022003131 -0.05892635
0.10783898 0.07675161 -0.12543592 -0.04541978 -0.021946765 -0.076045536 -0.016706087 0.12949818
0.031426795 -0.10793175 -0.0017695129 0.02078226 0.02110082 0.007328565 -0.03627109 -0.01582127
0.10927161 -0.04226187 -0.0066795843 0.016229447 -0.0015184224 -0.09503165 -0.09846037 0.11593889
0.046484485 0.08785051 -0.07048202 0.113018006 -0.02899826 -0.11803016 0.08997237 0.083394215
-0.03036635 0.069417275 -0.013014185 0.081776895 0.07222786 0.12696122 0.06727663 -0.022937411
0.043653626 0.009444137 -0.101293005 0.079719484 0.10462891 0.06726794 0.05697273 -0.060399413
-0.00025986583 0.037536554 0.03962841 0.035172272 0.034231108 -0.03868044 -0.033895448 0.063337676
-0.08091105 0.01701133 0.019503329 -0.024104584 -0.018923178 0.042200968 0.036056213 -0.0023319959
0.0023008408 0.02162494 0.0063829725 -0.06700187 0.10792506 -0.033648916 0.04977845 0.036051925
-0.027649553 -0.041480824 -0.08114638 0.017632967 0.124812126 -0.025263129 0.113092996 0.11790533
-0.054073792 0.09593799 -0.03188702 -0.041624695 0.121597566 0.12444541 -0.086185485 0.086463355
00000000: c513 993d ff01 a0bc d6b4 a03d 30cb fa3d
00000010: 29b3 973d 9308 d6bc bc47 01be 4ec2 4dbd
00000020: b3d3 093d d84b c73d ce1c e93c 4f54 043e
00000030: 86c2 34bd b4b9 023e fe40 4ebd 1bf3 12bd
00000040: 19a9 57bd a949 fdbd afcd 093e 8bef edbc
00000050: fe17 88bd fa70 e53d e72a 943d 8db7 04be
00000060: fea8 bcbd c71a b23d 4681 ee3c c6b4 fa3d
00000070: 115f 09be 77b0 0abd 65e4 ddbd c2ab 533d
00000080: 892a 2cbd 0458 ea3d 9a05 e13d 1fcc 223d
00000090: bf6b c9bd bd0a b2bd 6fb4 debd 76e4 3b3d
000000a0: b2e7 b5bd 0df8 d5bb c7c7 c7bd c4d8 523d
000000b0: 0737 cc3d bec8 6f3d 664f 86bd 21a9 93bd
000000c0: 41e1 013e f6f7 0f3e 3ca8 e33d 1c61 b03d
000000d0: 06c3 d03d a9c1 5abd ac5f b73b c1ae 1ebd
000000e0: c498 9e3d 9226 ddbd ca02 07be 33d2 c03d
000000f0: 1af9 063a 0e9b aebd fcb2 923d 1a5d 0739
00000100: 557f 03be b0e2 f83c 2813 edbc bb65 41bd
00000110: 50c8 473a f599 3a3d 2815 2b3c 8261 7bbd
00000120: b2b6 8dbd d5d4 fd3b c138 8339 00d4 07bd
00000130: 023c 40bd 240d cd3d 9c4f c1bd f8e7 b2bd
00000140: 4982 b1bd c0e8 efbd b04c 74bd 0610 05bd
00000150: baaa da3d b44d 793d 4e4d 943d 6119 01bd
00000160: c6e9 243d 1630 87bd 8a75 29bd acd6 d43c
00000170: cd14 583b b669 963d 56c1 1dbd aec9 3fbc
00000180: aa1b a4bd 2db3 123d f470 9b3d ab5c 133e
00000190: 7530 763d 329f adbc 40b2 b43c 76f3 81bc
000001a0: 257e f2bd 8090 e33c 9752 2a3c 1460 bd3d
000001b0: f980 ddbb 185d c0bd 06b3 913d 426c debd
000001c0: 219b cc3c 9969 da3d 34f0 5dbc 94a3 133c
000001d0: e3b5 a5bd 01c0 c4bd 01c4 c8bd 30fa d9bd
000001e0: ea29 afbd 8e1f 0c3e 8c03 b63d 5bb6 573d
000001f0: 380e cb3d 54ed 1c3d faf3 cabd 79ec 9dbd
00000200: 92de b8bb 3dba 02bc 7744 3e3d 53a3 303d
00000210: c461 123d 72a8 a3bd a8a9 83bd b000 a6bd
00000220: bf21 a93d b082 bd3d 7d7f 383c 0e7c b83d
00000230: fff5 5a3d 2b81 353c 9fab a7bc f8b2 4ebb
00000240: 0e54 92bd 03d6 ebbd 5f89 75bb 8a67 f5bc
00000250: d1f0 d8bd aef7 f23d a133 fa3d 15b2 65bd
00000260: fda4 ad3b 68ee 833b f8b5 ef3c cd09 c1bd
00000270: d845 6e3d 58c4 cdbc ae5a a5bc 1429 6dbd
00000280: ee8e 063e c2f2 7f3c dd49 5fbd 9bb3 ffbc
00000290: 665c b3bd 1e72 5dbd e93f b43c c25c 71bd
000002a0: afda dc3d f32f 9d3d 4672 00be 170a 3abd
000002b0: b4c9 b3bc c3bd 9bbd 34db 88bc 2c9b 043e
000002c0: 62b9 003d 520b ddbd 00ef e7ba 8f3f aa3c
000002d0: a0db ac3c 7624 f03b ff90 14bd 9c9b 81bc
000002e0: cbc9 df3d c81a 2dbd 6ae0 dabb 9ef3 843c
000002f0: cd05 c7ba f49f c2bd 97a5 c9bd 5e71 ed3d
00000300: 8466 3e3d f8ea b33d e158 90bd fc75 e73d
00000310: c28d edbc ccb9 f1bd 6f43 b83d 96ca aa3d
00000320: dac2 f8bc a52a 8e3d 7339 55bc a57a a73d
00000330: 33ec 933d 1f02 023e 54c8 893d 3de7 bbbc
00000340: 25ce 323d 95bb 1a3c b572 cfbd f843 a33d
00000350: af47 d63d c6c3 893d 3d5c 693d 6065 77bd
00000360: 9a3e 88b9 eebf 193d 6651 223d cd10 103d
00000370: eb35 0c3d 626f 1ebd f4d5 0abd 2fb7 813d
00000380: b1b4 a5bd 585b 8b3c 72c5 9f3c fa76 c5bc
00000390: c804 9bbc ecda 2c3d aeaf 133d 66d4 18bb
000003a0: b4c9 163b c926 b13c 4128 d13b 4738 89bd
000003b0: d007 dd3d 72d3 09bd 7de4 4b3d 2fab 133d
000003c0: 5181 e2bc cce7 29bd 1330 a6bd 0373 903c
000003d0: 809d ff3d 9ff4 cebc 4d9d e73d 5a78 f13d
000003e0: 7b7c 5dbd 237b c43d f79b 02bd a87e 2abd
000003f0: 2508 f93d 3cdd fe3d 0482 b0bd b313 b13d

lstm.bias_hh_l0 f4 [256]
0.088296816 0.11153804 0.022442019 -0.09612604 0.054572757 -0.06961619 -0.030439872 -0.13427567
0.08413023 -0.07586682 -0.08617993 -0.10399587 0.114110574 0.040585045 -0.12567694 0.11382014
-0.00052404916 0.019038111 -0.0614369 -0.04150987 0.08748165 0.117444485 -0.012374302 0.111021936
-0.017345775 0.111233 0.102826655 0.12857693 0.0019149283 -0.093357906 -0.08458584 -0.021272792
0.032872032 -0.102479085 -0.02882638 0.042931713 -0.018010326 0.014699551 0.055192504 0.07454871
0.09102697 0.088490985 0.03866713 0.09898128 0.0092892 -0.06335457 -0.091311954 -0.09838488
0.015396795 -0.03707762 0.07527143 0.11305961 0.014584347 0.060360324 0.030944396 -0.0610424
0.07958913 0.11301622 -0.013040793 0.10828418 -0.11341119 0.059310157 -0.08089374 0.08386251
-0.056812923 0.01910186 0.08960238 -0.029526081 0.08762284 -0.058424156 0.0390657 0.03216552
-0.10008891 0.050979838 0.056183714 0.063883595 0.004337299 -0.0066608074 -0.1009287 0.101755574
-0.08068571 -0.092888065 0.07185923 0.022237709 -0.11941765 -0.019322403 -0.041415293 -0.033720978
-0.032213695 -0.053138576 0.013167123 -0.041957676 -0.08304568 -0.023019439 0.025547449 0.048267897
0.101628914 -0.097686276 -0.07710561 0.017111158 -0.11542085 0.0968699 0.10966388 0.098589644
-0.08405488 -0.02205778 0.11155886 -0.090566315 -0.058535337 -0.08594051 -0.08168515 -0.0029401458
0.031652503 -0.08250267 -0.011908967 0.04732524 -0.046278745 -0.03512506 0.061275676 -0.09287476
0.022495955 0.06613499 -0.029727332 -0.028328622 0.11479824 -0.006206818 0.0966325 0.029117387
-0.057677463 0.07813331 -0.1251155 -0.05486864 -0.023995653 -0.048368625 0.022656016 -0.070108294
-0.10577064 -0.0006019165 -0.051955476 0.10803999 -0.0338043 -0.097182885 -0.10198439 0.0038991568
-0.09456219 0.004826359 -0.05021446 -0.03546736 -0.028433649 -0.105858296 -0.015139865 0.06721679
0.08424557 -0.11715859 0.1085896 -0.101173624 -0.050435424 -0.076929905 0.021674987 -0.06714017
0.021793421 -0.029061979 -0.056936283 0.055528667 0.033729542 0.046502315 -0.009694472 -0.026655694
0.098459005 0.103563026 0.097512655 0.10333955 -0.0035430829 -0.1114768 -0.0064148167 0.012044007
-0.047296964 0.018698089 0.049692348 0.04301369 0.08878783 -0.09237822 -0.0929847 0.03622837
0.11499778 -0.025566619 -0.10740364 0.03817034 -0.09906335 -0.074519336 -0.0010656136 0.032587595
-0.017902227 0.11798768 0.0016586906 -0.024880894 -0.087824225 -0.09104329 0.04682567 0.040607497
0.12513547 -0.06830128 0.031856883 -0.08519089 0.084519245 -0.0877878 0.058757372 -0.07744581
-0.057236034 -0.0455704 -0.009171956 0.06917617 0.059433036 -0.07922776 -0.014117391 -0.11014749
-0.11087085 -0.0816595 -0.07962337 0.038419016 -0.12333125 -0.025560942 0.04759147 -0.026365334
0.09870197 -0.09588414 0.045817327 -0.036579728 -0.12382842 -0.04102482 -0.07067214 -0.07604622
-0.11531925 -0.10295898 0.017544502 0.10985139 0.0792454 0.09801948 -0.10717635 0.019900652
0.037774608 0.07665214 -0.06998982 0.0073655294 0.06181679 0.07098147 -0.10538932 0.054057095
-0.091078065 -0.04989691 -0.11311368 0.06504036 0.074139036 -0.06947173 -0.09946214 0.082274
00000000: f6d4 b43d 0e6e e43d 53d8 b73c bbdd c4bd
00000010: af87 5f3d ef92 8ebd 0a5d f9bc 907f 09be
00000020: 784c ac3d 1060 9bbd 1a7f b0bd c9fb d4bd
00000030: ceb2 e93d 813c 263d 75b1 00be 891a e93d
00000040: 5860 09ba d0f5 9b3c 42a5 7bbd 4106 2abd
00000050: 9429 b33d bc86 f03d 96bd 4abc 785f e33d
00000060: ba18 8ebc 21ce e33d c896 d23d aca9 033e
00000070: 55fe fa3a 6e32 bfbd 573b adbd 4744 aebc
00000080: d3a4 063d 8ee0 d1bd 4d25 ecbc 2ad9 2f3d
00000090: 648a 93bc 63d6 703c 8911 623d feac 983d
000000a0: 596c ba3d c33a b53d 6d61 1e3d b3b6 ca3d
000000b0: bb31 183c 0ac0 81bd c301 bbbd 037e c9bd
000000c0: d742 7c3c b4de 17bd e827 9a3d cc8b e73d
000000d0: 2ff3 6e3c 633c 773d 1a7f fd3c 9807 7abd
000000e0: a0ff a23d 0c75 e73d 0da9 55bc 19c4 dd3d
000000f0: 2044 e8bd 35ef 723d 9eab a5bd 1cc0 ab3d
00000100: abb4 68bd 817b 9c3c 7481 b73d aee0 f1bc
00000110: 9b73 b33d 2b4e 6fbd 5b03 203d febf 033d
00000120: 6afb ccbd 3cd0 503d e520 663d 67d5 823d
00000130: e71f 8e3b e742 dabb b5b3 cebd 3a65 d03d
00000140: 8d3e a5bd 193c bebd ef2a 933d db2b b63c
00000150: 3e91 f4bd 044a 9ebc 15a3 29bd 021f 0abd
00000160: 82f2 03bd d6a7 59bd ebba 573c d0db 2bbd
00000170: da13 aabd 4393 bcbc e248 d13c 8fb4 453d
00000180: d222 d03d be0f c8bd 8ce9 9dbd b32c 8c3c
00000190: c461 ecbd ba63 c63d 7597 e03d 5ee9 c93d
000001a0: f724 acbd 84b2 b4bc f978 e43d d57a b9bd
000001b0: c0c2 6fbd 9401 b0bd 8b4a a7bd 76af 40bb
000001c0: 0ea6 013d 29f7 a8bd d41d 43bc 1cd8 413d
000001d0: c88e 3dbd 4bdf 0fbd 34fc 7a3d 1f35 bebd
000001e0: 7049 b83c c871 873d bc86 f3bc 6d11 e8bc
000001f0: 571b eb3d 9062 cbbb 43e7 c53d 9687 ee3c
00000200: 343f 6cbd 5b04 a03d 471e 00be f0bd 60bd
00000210: 8892 c4bc 2e1e 46bd 1c99 b93c f094 8fbd
00000220: 479e d8bd efc9 1dba 44cf 54bd 1244 dd3d
00000230: 6176 0abd d207 c7bd 31dd d0bd ff88 7f3b
00000240: d2a9 c1bd 6f26 9e3b adad 4dbd 3946 11bd
00000250: afed e8bc 3ccc d8bd 320d 78bc f5a8 893d
00000260: f188 ac3d d8f0 efbd 3964 de3d 1e34 cfbd
00000270: 6095 4ebd 6d8d 9dbd be8f b13c c980 89bd
00000280: 1e88 b23c 6313 eebc 0536 69bd 0772 633d
00000290: fd27 0a3d 3679 3e3d 90d5 1ebc 0b5d dabc
000002a0: e0a4 c93d da18 d43d b7b4 c73d b0a3 d33d
000002b0: 1133 68bb f34d e4bd 6233 d2bb 3a54 453c
000002c0: 76ba 41bd bc2c 993c 348a 4b3d 1f2f 303d
000002d0: 65d6 b53d cb30 bdbd c36e bebd 3364 143d
000002e0: f583 eb3d 1671 d1bc 71f6 dbbd 8158 1c3d
000002f0: bae1 cabd 989d 98bd 0fac 8bba 927a 053d
00000300: b1a7 92bc 86a3 f13d 6c68 d93a 04d3 cbbc
00000310: 30dd b3bd e874 babd 46cc 3f3d 0c54 263d
00000320: 8323 003e 8be1 8bbd 5d7c 023d 9078 aebd
00000330: 6d18 ad3d 17ca b3bd 92ab 703d e99b 9ebd
00000340: 5570 6abd 07a8 3abd f945 16bc 3cac 8d3d
00000350: 0e70 733d 2a42 a2bd a14c 67bc 0295 e1bd
00000360: 4210 e3bd 193d a7bd 9411 a3bd 425d 1d3d
00000370: 1895 fcbd 2e65 d1bc 46ef 423d 1dfc d7bc
00000380: 4224 ca3d e75e c4bd f3aa 3b3d a0d4 15bd
00000390: c199 fdbd a409 28bd 8ebc 90bd 1fbe 9bbd
000003a0: 802c ecbd 28dc d2bd 7db9 8f3c c4f9 e03d
000003b0: 6a4b a23d 70be c83d 467f dbbd b106 a33c
000003c0: 8cb9 1a3d ccfb 9c3d d356 8fbd 8a5a f13b
000003d0: 9a33 7d3d bc5e 913d 5bd6 d7bd f96a 5d3d
000003e0: 2387 babd b460 4cbd 25a8 e7bd e133 853d
000003f0: 35d6 973d 3247 8ebd ceb2 cbbd 457f a83d

lstm.weight_ih_l0_reverse f4 [256, 111]
-0.08278879 -0.02962725 0.031897265 -0.026975872 0.04432316 0.04496954 -0.04807101 0.011973709
-0.02948601 0.0017091159 0.03650943 -0.11754389 -0.087701224 -0.050433792 -0.006664653 -0.11203224
-0.0184644 0.09614844 -0.12656501 0.0863354 0.080960736 0.030963952 -0.115549445 -0.023018487
-0.07735602 0.025605686 -8.335414e-05 -0.04015101 -0.030758874 -0.0646374 0.086335175 0.09593782
0.04847812 -0.12782393 -0.079460934 0.071490884 -0.035907444 0.09018514 0.08006357 -0.10445949
-0.09983872 0.11077878 0.0835558 0.010163151 -0.094488695 0.020662103 -0.10608503 0.032161046
0.082060345 0.06850399 -0.03647933 0.098798886 -0.04713402 0.09653926 -0.09569555 -0.10951734
-0.013436501 -0.03122075 0.1168999 0.045340586 -0.108105384 0.100200295 -0.09627905 -0.08308324
-0.011213006 0.02638721 -0.016165582 0.06658954 -0.10492119 -0.038930215 -0.0110026365 0.14058948
0.08591565 -0.1038109 0.016475797 -0.029604083 0.07785954 -0.020103082 -0.035903778 -0.05208294
0.03791406 0.0020998758 0.085594326 0.091750264 0.04896027 0.06954096 -0.10898193 -0.010606415
0.11146787 -0.07608126 0.092377484 0.047868725 -0.05882318 -0.03506354 -0.13971326 -0.03128039
-0.110309005 -0.07406203 -0.12826523 0.095874585 0.06301165 0.10314704 -0.011827256 0.06612328
-0.13231741 0.12911671 0.01663208 -0.09095623 -0.007935203 -0.03364647 -0.002441239 0.11996255
-0.12319953 0.058691043 0.011927334 -0.09033987 -0.07693497 0.093934305 0.035782825 -0.09505812
-0.057529252 0.031726927 0.012573853 0.020766295 0.06436582 0.09622573 -0.030521348 -0.04918647
-0.060079597 0.075918645 -0.09970616 0.005422048 0.07914813 -0.012252091 -0.055357877 0.0770862
-0.13261898 0.07076951 -0.011136261 -0.057905927 0.054890607 0.05648658 -0.047647446 -0.080318764
0.120644234 0.051157907 0.11326452 0.031933706 0.075367495 -0.044936713 -0.058964938 0.08296681
0.0916371 0.026307259 -0.005089369 -0.08535182 0.11429404 -0.13572258 0.10964116 0.07351433
-0.08664405 0.05083765 0.13018467 0.07709756 0.027604287 0.04578128 0.045369826 -0.061025187
0.09555567 0.021696504 -0.024014054 0.06929075 0.009998667 0.0014775693 0.06638599 -0.05537212
0.10068103 0.07251962 -0.072789095 0.06669118 -0.120701686 0.009111742 0.04353599 0.05741546
-0.03939722 -0.025515268 0.0027388665 0.047801252 0.015091012 0.09703036 -0.060691502 -0.08901288
0.0285338 0.11043284 -0.06486579 -0.076011956 0.009691944 0.03143984 0.016819023 0.09478355
-0.012205132 -0.05438357 -0.12232062 0.010967919 -0.05708582 0.0014533848 -0.05274732 -0.014189505
-0.12289606 -0.061752286 0.08248862 0.08871869 -0.06432492 -0.09471745 -0.10104165 0.06881288
0.015243255 0.053488396 -0.060054846 0.13824347 0.0694188 0.0037386655 0.0053656413 -0.049847748
-0.04817116 0.0418383 -0.034913354 -0.0062310454 -0.13325109 0.030370891 0.10811144 -0.027614508
0.05522722 0.037870057 0.09913572 -0.004828825 0.011063746 0.032722127 0.05547621 -0.08541935
-0.0013108342 0.08021504 -0.08582445 0.12943402 0.039035074 -0.054183397 0.06934465 0.059737485
0.05414935 0.11442766 0.055297162 -0.07491927 0.014841783 -0.100075044 0.059503507 -0.07336977
00000000: 2b8d a9bd d9b4 f2bc b5a6 023d 81fc dcbc
00000010: 348c 353d fb31 383d 1be6 44bd 602d 443c
00000020: a58c f1bc 6a04 e03a e98a 153d daba f0bd
00000030: b39c b3bd aa93 4ebd 2963 dabb 2971 e5bd
00000040: a742 97bc 79e9 c43d 429a 01be 9dd0 b03d
00000050: bece a53d 1da8 fd3c 30a5 ecbd 4491 bcbc
00000060: d56c 9ebd 04c3 d13c 6ace aeb8 6375 24bd
00000070: 09fa fbbc 9d60 84bd 7fd0 b03d 0c7b c43d
00000080: fe90 463d 47e4 02be 6abc a2bd d069 923d
00000090: af13 13bd fdb2 b83d 5ef8 a33d dbee d5bd
000000a0: 3e78 ccbd fcdf e23d 4e1f ab3d 5883 263c
000000b0: 4a83 c1bd 9243 a93c 1c43 d9bd 4dbb 033d
000000c0: 410f a83d d24b 8c3d 5a6b 15bd 1257 ca3d
000000d0: 9a0f 41bd 60b6 c53d 07fc c3bd a14a e0bd
000000e0: c524 5cbc a9c2 ffbc 3769 ef3d 0db7 393d
000000f0: 5b66 ddbd d035 cd3d f32d c5bd 8c27 aabd
00000100: c2b6 37bc fd29 d83c af6d 84bc 1960 883d
00000110: ece0 d6bd 4a75 1fbd 6744 34bc b0f6 0f3e
00000120: 8bf4 af3d cf9a d4bd 40f8 863c 4384 f2bc
00000130: d374 9f3d 38af a4bc d70f 13bd ec54 55bd
00000140: c64b 1b3d 129e 093b 144c af3d 90e7 bb3d
00000150: 908a 483d 7e6b 8e3d eb31 dfbd 87c6 2dbc
00000160: 4449 e43d 7ed0 9bbd 6830 bd3d ff11 443d
00000170: 93f0 70bd c99e 0fbd fe10 0fbe de1f 00bd
00000180: b0e9 e1bd d5ad 97bd f657 03be e559 c43d
00000190: 410c 813d c13e d33d 1bc7 41bc a46b 873d
000001a0: 377e 07be 2c37 043e 0040 883c 4347 babd
000001b0: a702 02bc e2d0 09bd 32fd 1fbb edae f53d
000001c0: 0950 fcbd 0566 703d dd6a 433c 1c04 b9bd
000001d0: 1590 9dbd a160 c03d 0391 123d d5ad c2bd
000001e0: cba3 6bbd 18f4 013d 9002 4e3c 141e aa3c
000001f0: 3ad2 833d ff11 c53d e807 fabc c177 49bd
00000200: 0616 76bd 3c7b 9b3d be32 ccbd 6fab b13b
00000210: 6a18 a23d ffbc 48bc f1be 62bd 5fdf 9d3d
00000220: 45cd 07be 9bef 903d dd74 36bc c42e 6dbd
00000230: f9d4 603d 795e 673d f829 43bd 2a7e a4bd
00000240: 5314 f73d f48a 513d 3bf7 e73d ebcc 023d
00000250: 465a 9a3d 8f0f 38bd 3885 71bd 81ea a93d
00000260: 3bac bb3d 5282 d73c b9c4 a6bb efcc aebd
00000270: fe12 ea3d dcfa 0abe 8b8b e03d ae8e 963d
00000280: 7072 b1bd 243b 503d 214f 053e 53e5 9d3d
00000290: 6322 e23c 2785 3b3d b6d5 393d 8cf5 79bd
000002a0: b1b2 c33d debc b13c 1fb9 c4bc 4fe8 8d3d
000002b0: 73d1 233c 00ab c13a 61f5 873d e0cd 62bd
000002c0: db31 ce3d 2b85 943d 7312 95bd 6395 883d
000002d0: 7232 f7bd 6a49 153c cb52 323d 792c 6b3d
000002e0: fb5e 21bd 6505 d1bc 8e7e 333b 3fcb 433d
000002f0: 4b40 773c dab7 c63d a797 78bd 634c b6bd
00000300: b7bf e93c 9d2a e23d 5bd8 84bd 28ac 9bbd
00000310: f6ca 1e3c 10c7 003d 0cc8 893c e11d c23d
00000320: 09f8 47bc 4ec1 5ebd 3c83 fabd c9b2 333c
00000330: d2d2 69bd 807f be3a 930d 58bd 197b 68bc
00000340: eeb0 fbbd f7ef 7cbd cbef a83d 25b2 b53d
00000350: c9bc 83bd 39fb c1bd edee cebd c4ed 8c3d
00000360: d8be 793c a616 5b3d 12fc 75bd b28f 0d3e
00000370: 722b 8e3d 6604 753b 43d2 af3b 272d 4cbd
00000380: 1f4f 45bd a35e 2b3d 4e01 0fbd cc2d ccbb
00000390: f972 08be 60cc f83c 8869 dd3d d237 e2bc
000003a0: f035 623d a21d 1b3d ab07 cb3d 1f3b 9ebb
000003b0: b744 353c a307 063d 063b 633d 57f0 aebd
000003c0: 4cd0 abba c847 a43d bbc4 afbd 5a8a 043e
000003d0: 3ee3 1f3d 69ef 5dbd 9104 8e3d 4baf 743d
000003e0: b5cb 5d3d 0d59 ea3d 477f 623d 466f 99bd
000003f0: f32a 733c 25f4 ccbd f3b9 733d e442 96bd

lstm.weight_hh_l0_reverse f4 [256, 64]
-0.028117072 -0.09803064 -0.049383216 0.0681551 0.05775555 -0.027199812 0.009679306 0.005575296
0.029326987 -0.050688323 -0.0612094 0.08880688 -0.04400416 0.05482795 0.05307069 0.074993774
-0.080372214 -0.114405416 -0.021533003 -0.0062174797 0.11865537 0.12647718 0.0034878666 0.03846557
0.00063401024 -0.024139555 -0.029202117 0.08085782 0.07889529 -0.02841722 0.10343422 0.06341861
-0.0046133595 -0.051244803 -0.008045904 0.084775545 -0.030790437 0.116266705 -0.06767539 0.07959224
0.07584465 -0.099670835 0.13812056 -0.01389049 0.025222637 -0.041303918 0.13105376 -0.08799527
0.02830851 0.070673056 0.023169313 -0.07032301 0.0364636 -0.020278137 -0.0925135 -0.011212276
0.027497867 -0.04185502 0.10834363 -0.1180718 0.12491744 -0.11364331 -0.0066504213 0.08285148
0.094869874 0.0420874 0.095773466 0.09743588 -0.060557436 0.056153 0.0354782 0.08075263
-0.07540585 0.050629348 -0.056618612 -0.059917685 0.024429396 0.10039726 -0.05028253 -0.00036643323
-0.077072546 -0.019350296 -0.06382076 -0.05373676 -0.10769149 0.058679283 -0.042103067 0.004432967
-0.019057274 -0.08298592 -0.002950639 0.06965446 -0.10870051 -0.06373253 -0.06866524 -0.008242038
0.051545963 -0.06718215 -0.062622994 0.02954074 0.040653896 -0.024540817 0.024483502 -0.08649288
0.014646825 -0.07327184 -0.05921583 0.040549092 0.08969237 0.06188164 0.028186547 0.013908853
-0.13495018 -0.093004785 0.02423342 -0.018870872 0.079849266 -0.001879707 -0.08391784 -0.015859187
-0.11437136 -0.09586823 -0.061294105 0.053599745 -0.032782875 0.044265267 0.06342515 -0.013443796
0.081339225 -0.0075880014 0.07791377 0.13170508 0.09557936 -0.1422092 -0.06760279 0.024047986
0.0632002 0.1076114 0.11575867 -0.027472267 0.1046187 0.041913785 -0.054188795 -0.05076212
-0.09677338 0.031168243 -0.102210976 0.07558362 0.056771733 -0.032524567 0.019231144 0.10457829
0.010733299 0.057868477 -0.029384159 -0.06689568 -0.07487484 -0.048502505 0.13492742 0.043322086
-0.029958358 0.13983703 0.0898193 -0.10855166 -0.0961222 0.10038357 -0.08567665 0.12927476
0.12440836 -0.06291066 0.021431196 -0.05918367 0.101708286 -0.023753086 -0.049253877 -0.1099353
0.029978681 -0.0022850242 -0.09919109 -0.005765123 0.07521879 -0.021209223 -0.055202372 -0.06969841
-0.03938928 -0.057844095 -0.041065246 -0.014330024 -0.12674455 0.012278137 0.033242103 0.023784362
0.042267565 0.031189036 0.04216738 0.109901495 0.048546694 -0.13128562 0.08989507 0.120690234
0.05792981 0.1038851 0.106483854 -0.102777824 -0.13525727 0.08854732 -0.06668809 0.0048781335
-0.06798871 0.11000473 -0.060431156 0.09951709 -0.094007365 0.023115888 0.024319913 0.053953327
-0.12803608 -0.070630565 -0.014575816 0.03672047 -0.05040864 -0.05280992 0.01164262 -0.044253737
-0.051371615 -0.031513266 0.12645176 -0.03207932 0.12401172 0.00059996685 -0.05928503 -0.022312628
-0.06785939 -0.08708266 0.13918996 0.101023905 -0.08619509 0.06740864 0.0962716 0.09911848
0.032048117 0.0031310115 0.006130749 -0.066029295 0.052291032 -0.06602481 -0.128037 0.07568042
-0.089347005 0.11492665 0.022878587 -0.075627506 0.11542118 0.12479924 0.01368566 -0.053019565
00000000: c655 e6bc 4ac4 c8bd 0e46 4abd e794 8b3d
00000010: 1591 6c3d 24d2 debc f495 1e3c f9b0 b63b
00000020: 263f f03c 8f9e 4fbd b5b6 7abd 62e0 b53d
00000030: b53d 34bd 4693 603d a760 593d 5696 993d
00000040: 309a a4bd 634d eabd fb65 b0bc 00bc cbbb
00000050: 9601 f33d 3c83 013e b194 643b 138e 1d3d
00000060: b533 263a 51c0 c5bc 4739 efbc c998 a53d
00000070: db93 a13d 3bcb e8bc 52d5 d33d 9ee1 813d
00000080: aa2b 97bb 12e6 51bd f8d2 03bc cd9e ad3d
00000090: 3a3c fcbc 3d1d ee3d 6599 8abd 4201 a33d
000000a0: 7154 9b3d 3920 ccbd 7a6f 0d3e f094 63bc
000000b0: b49f ce3c 4c2e 29bd f532 063e dd36 b4bd
000000c0: 40e7 e73c 09bd 903d 92cd bd3c 8305 90bd
000000d0: db5a 153d 561e a6bc b877 bdbd b2b3 37bc
000000e0: 3543 e13c 2b70 2bbd 44e3 dd3d a1cf f1bd
000000f0: b7d4 ff3d d3bd e8bd c7eb d9bb 09ae a93d
00000100: 234b c23d d663 2c3d e124 c43d 768c c73d
00000110: 130b 78bd b000 663d 9751 113d a361 a53d
00000120: 626e 9abd b860 4f3d ebe8 67bd 3f6c 75bd
00000130: 2820 c83c 149d cd3d 0ef5 4dbd d61d c0b9
00000140: 36d8 9dbd 8384 9ebc 75b4 82bd 141b 5cbd
00000150: 5b8d dcbd b059 703d 4474 2cbd 6c42 913b
00000160: 001e 9cbc 86f4 a9bd 825f 41bb ffa6 8e3d
00000170: 5f9e debd 3386 82bd 5da0 8cbd 9d09 07bc
00000180: dc21 533d cc96 89bd 7c40 80bd 6cff f13c
00000190: b384 263d d309 c9bc a091 c83c 2e23 b1bd
000001a0: 3df9 6f3c 8c0f 96bd 4c8c 72bd ce16 263d
000001b0: a2b0 b73d 9a77 7d3d 79e7 e63c f5e1 633c
000001c0: 6130 0abe 4b79 bebd 2a85 c63c 1697 9abc
000001d0: 0388 a33d 8060 f6ba 1edd abbd 20eb 81bc
000001e0: 883b eabd 9056 c4bd 870f 7bbd 688b 5b3d
000001f0: 5647 06bd 7f4f 353d 0ce5 813d 5e43 5cbc
00000200: 2e95 a63d c5a4 f8bb 4191 9f3d b2dd 063e
00000210: 1dbf c33d 4a9f 11be 5573 8abd 4800 c53c
00000220: 1b6f 813d 5e63 dc3d e212 ed3d 850d e1bc
00000230: 5442 d63d caad 2b3d 12f5 5dbd f1eb 4fbd
00000240: 1f31 c6bd 8b54 ff3c fd53 d1bd 96cb 9a3d
00000250: 7a89 683d 7b38 05bd a28a 9d3c 242d d63d
00000260: b8da 2f3c 7f07 6d3d 0cb7 f0bc 9a00 89bd
00000270: fb57 99bd 90aa 46bd 6a2a 0a3e 8072 313d
00000280: 3b6b f5bc 7031 0f3e 2ef3 b73d 5550 debd
00000290: b7db c4bd e795 cd3d 3d77 afbd 9a60 043e
000002a0: cfc9 fe3d 4ed7 80bd 7a90 af3c 936a 72bd
000002b0: 6f4c d03d d595 c2bc 6fbe 49bd c225 e1bd
000002c0: da95 f53c 58c0 15bb b324 cbbd 5be9 bcbb
000002d0: 4f0c 9a3d f7be adbc e21b 62bd 0abe 8ebd
000002e0: a756 21bd eeed 6cbd 0834 28bd 7ac8 6abc
000002f0: 53c9 01be 3d2a 493c df28 083d 6cd7 c23c
00000300: c120 2d3d 2680 ff3c b4b7 2c3d 0914 e13d
00000310: e6d8 463d bd6f 06be e81a b83d 712c f73d
00000320: cf47 6d3d b6c1 d43d 3514 da3d 2e7d d2bd
00000330: e280 0abe 4c58 b53d c493 88bd c0d8 9f3b
00000340: aa3d 8bbd 294a e13d a986 77bd 9ecf cb3d
00000350: ef86 c0bd 885d bd3c 8e3a c73c 2afe 5c3d
00000360: e41b 03be c2a6 90bd 67cf 6ebc 3468 163d
00000370: 4a79 4ebd 374f 58bd b0c0 3e3c 6843 35bd
00000380: 0b6b 52bd 0e14 01bd 927c 013e 9b65 03bd
00000390: dbf9 fd3d 1847 1d3a dcd4 72bd f9c8 b6bc
000003a0: ddf9 8abd 6558 b2bd d087 0e3e 9fe5 ce3d
000003b0: 0d87 b0bd 8b0d 8a3d 0b2a c53d a1fe ca3d
000003c0: e344 033d a831 4d3b 73e4 c83b 5e3a 87bd
000003d0: 1f2f 563d 0438 87bd 221c 03be 56fe 9a3d
000003e0: 90fb b6bd aa5e eb3d e06b bb3c 98e2 9abd
000003f0: f161 ec3d be96 ff3d d239 603c 0b2b 59bd

lstm.bias_ih_l0_reverse f4 [256]
0.041119594 -0.08018543 0.11970496 0.100439236 -0.06033109 -0.05371491 -0.018979758 0.124213256
-0.063214585 -0.0107751265 -0.004914094 -0.044231318 -0.11149587 0.010464329 0.014915342 0.012137628
-0.033286043 0.06643221 -0.03869261 -0.0019019323 0.0010527752 -0.07037059 -0.09247832 0.043336477
0.0787784 -0.0137703745 0.047002595 -0.0036806324 -0.026233573 0.10752713 -0.102640845 -0.101753786
-0.038772434 -0.06589851 0.08543298 -0.009495936 0.05193597 0.022416512 0.028019454 0.10907032
-0.07774041 0.08304292 -0.069034636 -0.036488395 -0.104986995 -0.04962603 0.046031903 0.031360395
-0.07906455 -0.010702754 -0.013810769 0.054129537 0.01533748 -0.10325683 0.11974287 -0.035534114
-0.05980785 -0.06251263 0.038637754 -0.0016392308 0.11667157 -0.051692955 -0.05843966 0.080589026
0.009931663 0.04700352 -0.050474245 -0.044182733 -0.045960248 0.059380542 -0.015162499 0.04063472
-0.020981433 -0.030280638 -0.10141973 0.12777776 0.03707188 0.0797131 0.06339231 0.006681069
0.051211406 0.111557074 -0.03168448 0.12030733 -0.09669404 0.08085001 -0.07071424 -0.078572854
0.058863617 0.12482431 -0.011346769 0.10510909 0.09805759 -0.10484166 -0.019315327 -0.038768195
-0.10807318 0.04158462 0.049552422 0.054555755 0.06805121 -0.023875726 0.028537478 -0.12639314
-0.014699591 -0.06977209 -0.10498567 -0.03181331 0.09633293 0.062629715 0.073028825 0.012999636
0.1434359 0.12891476 0.089624226 -0.02833695 -0.08578114 -0.054024547 -0.11334774 -0.116090946
-0.04775834 0.13145521 0.035261486 0.059376556 0.006788252 0.08309459 0.10750245 0.0834041
0.13247664 0.11157694 0.05928782 0.08874294 0.03997773 0.12920573 0.12282709 -0.003760385
0.004600833 -0.06396698 -0.038229544 -0.10783095 -0.10205089 -0.012440888 0.07265087 0.005173187
-0.12592885 0.0744574 0.05453623 0.014822236 0.06825376 0.032911103 -0.08455647 -0.0906696
0.025559174 0.12650558 -0.04737654 -0.08466156 0.026663838 0.07730919 -0.071003966 0.07834858
-0.018613512 -0.0038424127 -0.043469552 -0.082276955 0.06730938 0.07147168 -0.050929368 0.054874267
-0.014439907 0.01655781 0.119079225 -0.06708232 -0.026736148 0.102166966 0.10768261 0.0068864655
0.081991374 -0.10553514 -0.11229817 -0.022252835 0.038442437 -0.04046153 0.008993128 -0.05443984
-0.04299507 -0.10338719 0.040743254 -0.12972552 0.016187409 -0.08749923 0.09141542 0.016482528
-0.07142977 -0.077877454 0.021672443 0.07886275 0.04496818 -0.015653655 -0.011466434 0.012631236
0.02727829 -0.0568395 -0.012802525 -0.054759488 -0.06262802 -0.07044347 0.043000538 -0.05560354
-0.07653305 -0.106464714 -0.08112075 -0.10869925 0.08177069 0.016519638 0.10140559 0.12442631
-0.0041742143 0.050627004 -0.08644673 0.0027642518 0.1280549 -0.050547104 -0.038832746 -0.026667243
0.024186675 -0.09527328 -0.030103847 -0.060618877 -0.08700921 0.051691823 -0.08563477 -0.09387216
-0.05274218 0.12615211 -0.024256164 0.039794996 0.07930444 0.02447623 0.010861852 -0.05225231
0.1215012 -0.0834596 0.07687446 0.04009369 -0.05794423 -0.07856296 0.02006149 -0.0048055393
0.025753383 -0.080437355 0.061120324 -0.08900466 0.11775199 -0.089354664 -0.047890652 -0.1218747
00000000: 056d 283d 4238 a4bd e027 f53d 16b3 cd3d
00000010: bc1d 77bd 2a04 5cbd 707b 9bbc 8563 fe3d
00000020: a676 81bd 288a 30bc 6906 a1bb e62b 35bd
00000030: f257 e4bd 9472 2b3c 7b5f 743c e7dc 463c
00000040: f256 08bd 9c0d 883d 247c 1ebd 424a f9ba
00000050: 46fd 893a 751e 90bd 4665 bdbd 9781 313d
00000060: 9256 a13d 239d 61bc cb85 403d c436 71bb
00000070: cae7 d6bc 2f37 dc3d 5d35 d2bd 4a64 d0bd
00000080: d8cf 1ebd ccf5 86bd 7cf7 ae3d d894 1bbc
00000090: d0ba 543d d5a2 b73c 0e89 e53c 4360 df3d
000000a0: 5d36 9fbd 6812 aa3d 0862 8dbd db74 15bd
000000b0: 6c03 d7bd aa44 4bbd f38b 3c3d c273 003d
000000c0: 98ec a1bd 9b5a 2fbc 9046 62bc efb6 5d3d
000000d0: 0e4a 7b3c 5178 d3bd c03b f53d 388c 11bd
000000e0: 13f9 74bd 9f06 80bd 9f42 1e3d 75db d6ba
000000f0: 81f1 ee3d febb 53bd 6d5e 6fbd dc0b a53d
00000100: 6ab8 223c c386 403d 15be 4ebd f4f8 34bd
00000110: d040 3cbd 0339 733d 216c 78bc 9870 263d
00000120: 41e1 abbc 1a0f f8bc 26b5 cfbd 2cd8 023e
00000130: afd8 173d 9f40 a33d d4d3 813d deec da3b
00000140: 0dc3 513d 0978 e43d 96c7 01bd b063 f63d
00000150: 8607 c6bd b194 a53d a1d2 90bd ceea a0bd
00000160: fa1a 713d e3a3 ff3d cce7 39bc 6f43 d73d
00000170: 6bd2 c83d 39b7 d6bd 2d3b 9ebc 66cb 1ebd
00000180: 7955 ddbd a254 2a3d 7bf7 4a3d db75 5f3d
00000190: 6f5e 8b3d 0797 c3bc 6ec7 e93c 346d 01be
000001a0: 8ed6 70bc abe4 8ebd ba02 d7bd ac4e 02bd
000001b0: 334a c53d 0244 803d 2390 953d 6dfc 543c
000001c0: dce0 123e 3b02 043e e88c b73d e422 e8bc
000001d0: 06ae afbd d848 5dbd dc22 e8bd 17c1 edbd
000001e0: 409e 43bd 329c 063e 596e 103d d534 733d
000001f0: fc6f de3b 7f2d aa3d 3f2a dc3d c5cf aa3d
00000200: f5a7 073e 7382 e43d c9d7 723d dcbe b53d
00000210: b0bf 233d 824e 043e c58c fb3d cb70 76bb
00000220: 96c2 963b 1f01 83bd 9596 1cbd 79d6 dcbd
00000230: 0f00 d1bd ded4 4bbc fbc9 943d d683 a93b
00000240: 7ef3 00be 1f7d 983d 6261 5f3d f7d8 723c
00000250: a1c8 8b3d cbcd 063d f12b adbd fcb0 b9bd
00000260: 7961 d13c ae8a 013e e70d 42bd 0a63 adbd
00000270: 1f6e da3c 4854 9e3d 876a 91bd 3875 a03d
00000280: 5d7b 98bc fdd0 7bbb 210d 32bd d280 a8bd
00000290: 80d9 893d bf5f 923d 509b 50bd d7c3 603d
000002a0: 5c95 6cbc 3fa4 873c cfdf f33d 7562 89bd
000002b0: c405 dbbc ea3c d13d b388 dc3d dca7 e13b
000002c0: 18eb a73d cf22 d8bd 95fc e5bd 944b b6bc
000002d0: d175 1d3d fdba 25bd ea57 133c 4ffc 5ebd
000002e0: 991b 30bd aabc d3bd 66e2 263d c4d6 04be
000002f0: 759b 843c cc32 b3bd 0238 bb3d 5e06 873c
00000300: c549 92bd 377e 9fbd 688a b13c cb82 a13d
00000310: 8e30 383d 183c 80bc b6dd 3bbc 3ef3 4e3c
00000320: b876 df3c 89d0 68bd afc1 51bc 7c4b 60bd
00000330: 1f43 80bd aa44 90bd 5521 303d 8ac0 63bd
00000340: 5cbd 9cbd 2c0a dabd a322 a6bd b69d debd
00000350: 6477 a73d 3154 873c bcad cf3d 39d3 fe3d
00000360: d9c7 88bb 435e 4f3d fc0a b1bd 7328 353b
00000370: d320 033e 7b0a 4fbd 160f 1fbd 4375 dabc
00000380: 2223 c63c a31e c3bd 589c f6bc 804b 78bd
00000390: e231 b2bd ceba 533d 4861 afbd 0c40 c0bd
000003a0: 2f08 58bd 052e 013e ddb4 c6bc 1400 233d
000003b0: 5e6a a23d 6082 c83c e9f5 313c 8506 56bd
000003c0: 9fd5 f83d deec aabd 5b70 9d3d 4839 243d
000003d0: ee56 6dbd 9ee5 a0bd fe57 a43c c977 9dbb
000003e0: c2f8 d23c 57bc a4bd 4e59 7a3d 1348 b6bd
000003f0: f527 f13d 94ff b6bd fd28 44bd 7199 f9bd
