models/mini_lstm_best.pth (torch, 770333 bytes, 20 tensors)

lstm.weight_ih_l0 f4 [256, 111]
000000 08 ed 94 bd ff 60 c4 3d 30 57 e5 3d 8c 37 37 bd
       -0.072717726 0.09588813 0.1119827 -0.044730708
000010 85 88 6a bd 86 bd 36 bd ba 32 b1 3d 5e 81 06 be
       -0.0572591 -0.044614337 0.086522534 -0.13135287
000020 62 ed ec 3d ab ee 9e 3d 50 80 b0 bd 69 4c d4 3d
       0.11568715 0.07760366 -0.08618224 0.103661366
000030 67 cf 1a 3d be c3 c1 3d ad 53 42 bc 19 d1 d5 3d
       0.03779545 0.09461163 -0.01186077 0.10440273
000040 93 1a 54 3d fb 61 ed bd 06 9b b5 3d d0 a6 cf 3d
       0.051783156 -0.11590954 0.08867459 0.10139239
000050 a4 eb a5 bd 7e 38 54 bd 02 3d 0f 3d 03 d9 c4 3d
       -0.081015855 -0.051811688 0.03497029 0.09611704
000060 84 17 d2 ba d4 d4 bd 3c 74 b8 9f 3c 47 fd a3 3d
       -0.0016028737 0.023172773 0.019497134 0.08007293
000070 9a 8b 12 bc 0a 5d b9 3c fc 8f 90 bc 0f f3 ef bc
       -0.008944416 0.022627372 -0.017646782 -0.029290704
000080 46 e2 19 3d 7c f0 b5 3c 7c 23 83 bd a4 63 54 3d
       0.037569307 0.022209398 -0.064032525 0.051852837
000090 25 b2 c0 bd 21 dd 9c 3d 85 43 86 3d 78 6f 73 3c
       -0.094089784 0.076593645 0.06555847 0.014858119
0000a0 9b 82 b9 bd f6 f3 52 bd 38 af fc bd a9 5b c0 bd
       -0.09058114 -0.05150219 -0.12338108 -0.09392483
0000b0 6a 4b f9 bd 5d 00 d8 bd cf 96 6c 3d 18 79 b8 3d
       -0.12172587 -0.10546944 0.05776101 0.09007472
0000c0 af 0c 64 bc a7 7f cc 3c 2b cd 23 3d 74 8c 5f 3c
       -0.01391904 0.024963213 0.039990585 0.0136443265
0000d0 dc 91 a2 bd a8 94 7b bc d4 64 8a 3d 16 7a ea bd
       -0.07937977 -0.015355267 0.06757513 -0.11449067
0000e0 a7 f7 ce bc d8 75 92 3d 55 3e d9 bd 5f e6 c4 3d
       -0.025264574 0.07151383 -0.10607592 0.09614252
0000f0 bc 5b 0c bd 53 51 8a 3d 7c 75 9b 3d 0f 82 70 3d
       -0.034267172 0.067537926 0.07590768 0.058717784
000100 71 f9 18 bd 70 1d ed bd 20 5e f2 bd 55 3a b3 bd
       -0.03734726 -0.115778804 -0.11834359 -0.0875136
000110 25 43 91 3d 25 43 d0 3d 61 1f 8c 3d 18 d9 d9 3c
       0.07092885 0.10169057 0.068419226 0.026592776
000120 6d e2 1d 3d 71 33 47 bd 7b 29 e5 bd fa 7c 89 bc
       0.038546015 -0.048633043 -0.111895524 -0.016783226
000130 59 ad 2d bd 04 71 d5 3d 0c 91 9b 3d ea 4c f0 3d
       -0.042401645 0.10421947 0.07596025 0.1173342
000140 17 67 d9 3d e9 8c c4 bd a9 90 a6 3d 0f 6b 83 3d
       0.10615366 -0.09597189 0.081330605 0.06416904
000150 a5 41 e3 bd 7c 1c 84 3d 17 a5 12 3d 56 d6 9e bd
       -0.11096505 0.064507455 0.035801973 -0.07755725
000160 08 b1 9f bd ac 5d d0 bd a8 b5 e9 3d dd 29 89 bd
       -0.07797438 -0.101741165 0.11411601 -0.06697438
000170 17 cf aa bc b5 a6 9c 3d a4 8c e3 bd d2 c8 8d bd
       -0.020850701 0.07648984 -0.111108094 -0.06923069
000180 77 f4 6e 3c ef 93 5f bd 10 f7 ce ba 41 d5 ea ba
       0.014584652 -0.05458444 -0.0015790183 -0.0017916338
000190 5f 51 95 bd 78 90 9b 3d 39 fb b7 3c 68 fd 6b bd
       -0.07290911 0.075959146 0.02245866 -0.057614714
0001a0 96 26 46 3d 1d 3c bb 3d 8f 5b 1b 3c 75 71 fd 3c
       0.048376642 0.09142325 0.0094822785 0.03093789
0001b0 c8 da 23 3d 65 b0 43 3c f4 17 ca 3d bc a5 71 bd
       0.040003568 0.011943911 0.0986785 -0.058995947
0001c0 f5 9b bc 3d ae 00 fc 3c f5 1c 1a bd cc 13 9f 3d
       0.09209434 0.030762043 -0.03762527 0.07767448
0001d0 51 6e 45 3b f1 34 be bc 71 59 2f bc 83 0a fa bb
       0.0030125568 -0.023218604 -0.010702477 -0.0076306476
0001e0 55 7e 30 bd 0c a9 19 bd 9d 48 b3 3d ab 8f d5 3d
       -0.04308923 -0.03751473 0.08754084 0.10427793
0001f0 05 aa 00 3d 5d eb 3d 3d 0a 8c ae 3d 56 d1 d7 bd
       0.031412143 0.046367038 0.08522804 -0.105379745
000200 e1 28 fe bd a7 33 d9 3d dc e5 81 bd 1c 0b b4 3c
       -0.12410141 0.10605555 -0.0634267 0.021977954
000210 82 23 ab bc 29 52 98 bc 44 3d ee bd 47 71 b9 bd
       -0.020890955 -0.018593865 -0.11632779 -0.09054809
000220 b4 c2 95 bc 26 0b a7 3d 60 82 ff bd d6 13 e0 bd
       -0.018281318 0.08156423 -0.12476039 -0.109412834
000230 e4 34 cb 3d 24 12 d5 bd 4e cc b6 bd f2 46 29 bd
       0.099221975 -0.10403851 -0.08925687 -0.041327424
000240 80 1b d5 3d eb 1e e5 3d 2b 60 28 bd d2 0c e1 3d
       0.10405636 0.11187538 -0.041107338 0.109887734
000250 9d 71 26 3a 8f 17 dd 3d 8b fd 08 bd b2 d6 12 bd
       0.0006349327 0.10795509 -0.033444922 -0.03584928
000260 a8 5a cf 3d e6 7e 8f bc bb e8 63 3d 2f fb b0 bd
       0.10124713 -0.017516565 0.05564187 -0.086416595
000270 70 89 32 bd b8 ba 16 3d 16 6b ad bd 1a 3d d5 3b
       -0.043588102 0.036799163 -0.08467691 0.006507528
000280 a2 80 66 3d 57 46 8f 39 59 3a 89 bd 4e e4 4f 3d
       0.056275018 0.00027327493 -0.06700582 0.050754838
000290 ce ba 12 3d 80 4a 95 bd 43 4b 3a 3d a6 02 7e 3c
       0.035822682 -0.072896 0.04548193 0.015503561
0002a0 e8 67 1c bc 66 72 d6 bd 9f fd bf 3d b7 c2 42 3d
       -0.009546258 -0.104710385 0.09374546 0.047548976
0002b0 9f a0 f3 bd 77 50 88 bd 5d d9 d7 3d 42 2a 9a bd
       -0.118958704 -0.066559725 0.10539506 -0.07527591
0002c0 3f 02 09 bc 08 c3 0f bd 2e 53 dc 3d 41 95 9e bd
       -0.008362352 -0.035098106 0.10758053 -0.07743312
0002d0 25 10 7e bd 24 66 e6 bd a4 32 f1 bd fc f5 23 3d
       -0.062027115 -0.112499505 -0.11777237 0.04002951
0002e0 e8 e2 57 3d 21 5e 9f bd e5 19 5b bd d5 34 69 bd
       0.05270663 -0.077816255 -0.05349149 -0.05693515
0002f0 f7 e2 c9 ba e3 e4 93 3d c1 21 f2 bd a2 d1 8a bd
       -0.0015402724 0.07221391 -0.11822844 -0.067782655
000300 a0 64 d4 bd 58 c3 3c 3c 9b 21 d8 3d e5 a8 d7 bd
       -0.10370755 0.011521183 0.10553285 -0.10530261
000310 29 97 d7 bd 04 bd 4d 3d 42 60 7e 3d 84 7b 1c bd
       -0.105268784 0.050229087 0.062103517 -0.03820373
000320 a9 88 48 3d f5 d1 b5 3d 53 1d b1 bc 50 b3 05 be
       0.048958454 0.08877937 -0.021620428 -0.13056684
000330 0a 40 b8 3c 55 f5 a5 bd a5 af bc bd c6 4f 13 3b
       0.022491474 -0.08103434 -0.09213189 0.0022477969
000340 12 51 80 3d 84 f3 1a 3b fc 3b 7f bd d0 e7 88 bd
       0.06265463 0.0023643682 -0.062313065 -0.0668484
000350 a5 7e 48 bd 1a 64 5f 3d 02 40 9d bd e6 ce a2 bd
       -0.048948903 0.054538824 -0.07678224 -0.07949619
000360 57 80 f6 bc eb db 1a 3d dd a0 ef 3d b4 8e fe bd
       -0.030090494 0.037807386 0.11700604 -0.12429562
000370 d8 db 8f 3c 69 0c ce bd 29 67 a3 3d da 92 d4 bd
       0.017560884 -0.10060961 0.079786606 -0.10379572
000380 53 2d d6 bd 96 a1 54 bd 19 f4 7b bc ae 62 04 be
       -0.10457864 -0.051911913 -0.015378022 -0.12928268
000390 5c 1f 0b bd 21 0f 9d bc 89 da c5 bd a3 b0 e6 3c
       -0.033965454 -0.019172253 -0.09660823 0.028160399
0003a0 9a da 8b 3d 95 01 e5 3c 02 0c 9c 3c fe f4 bf bc
       0.06828804 0.027954856 0.019048695 -0.023432251
0003b0 5f d8 d0 3c 30 f9 ef bd b0 b7 ac bc 29 da 8e bd
       0.025493799 -0.117174506 -0.021083683 -0.069752045
0003c0 0f c8 9a 3d e2 13 5c bd d2 a2 dc bd 16 a7 5c 3d
       0.075576894 -0.0537299 -0.10773243 0.053870283
0003d0 ab 47 bf bc d3 7e 5f bc c2 bd 52 bd 05 9f ab 3c
       -0.023349604 -0.013641077 -0.0514505 0.02094985
0003e0 17 87 dc bd 29 4c c4 bd f1 88 e3 bd 24 ac 76 bd
       -0.10767954 -0.09584839 -0.11110104 -0.06022276
0003f0 b0 b1 2c 3d 14 45 7e bd 56 43 25 3d c5 f7 d8 bd
       0.042161644 -0.062077597 0.04034742 -0.10594133

lstm.weight_hh_l0 f4 [256, 64]
000000 1f 2d d9 3d 32 91 d1 bb e6 86 bd bd 5e 59 8f bd
       0.10604309 -0.0063954825 -0.092542455 -0.06999467
000010 7c 23 3a bd 7c c4 36 3d 8e 60 cd 39 08 94 e4 bd
       -0.045443997 0.044620976 0.00039172586 -0.11161047
000020 1e d3 09 be a5 2b d4 bc b3 2a b4 3d bb ea 34 bd
       -0.13459441 -0.025899718 0.08797207 -0.04416917
000030 56 e6 a0 3c 67 33 73 3d 73 c8 b3 3d f8 9a 1a 3b
       0.019641083 0.059375193 0.08778467 0.0023590904
000040 aa 89 8b 3c 73 5a 63 3d d4 28 01 3e 18 50 55 3d
       0.017033417 0.05550618 0.12613231 0.052078336
000050 fe 87 01 3e b6 5a 7d bd de 49 3f bd a2 1c 0f 3d
       0.12649533 -0.061854087 -0.046701305 0.034939416
000060 e9 85 14 bd 24 c3 cc 3c da fc e1 bd 9f e0 c9 3d
       -0.03626052 0.024995394 -0.11034556 0.09857296
000070 f8 45 1a 3d 36 b0 29 3d f3 6b 24 3d 00 aa 2c 3b
       0.037664384 0.041427813 0.04014201 0.0026346445
000080 fb 07 dd bd 39 5a 4e bd 83 55 dc bc 8c 3b dd bc
       -0.10792538 -0.05037901 -0.026896244 -0.027005933
000090 57 a7 21 bd 48 5c 0a bd fc aa 1e bd 73 34 87 bd
       -0.03946623 -0.033779413 -0.038737282 -0.06601801
0000a0 ba 52 b7 3d 81 a8 c1 bd d0 38 43 3d d5 8a a0 3d
       0.08951326 -0.09455968 0.047661602 0.0783898
0000b0 e2 81 46 3d 64 95 90 bd 73 1d de bc 80 eb a0 3d
       0.04846371 -0.07059744 -0.027113652 0.07857418
0000c0 b1 4b 42 bc 39 46 92 3d 67 b3 ce bd 00 89 c5 3d
       -0.011858867 0.071423 -0.10092812 0.09645271
0000d0 43 c8 a0 bd 30 cf ab 3d 40 26 31 bc f4 dd 5c bd
       -0.07850697 0.08389127 -0.010812342 -0.05392261
0000e0 86 95 b0 bc eb 3f 06 3d bd f4 d5 bc f1 53 14 3c
       -0.021555673 0.0327758 -0.026117677 0.009053216
0000f0 40 03 98 3d 26 c8 88 bd 46 11 3b bd f6 61 8e bd
       0.07422495 -0.066788 -0.04567077 -0.06952278
000100 9a 0a ee bc bc 23 31 3c 5b 8a 7d 3c 5a a5 30 bc
       -0.02905779 0.010811742 0.015474881 -0.01078161
000110 32 41 71 bd 44 39 d1 bd 12 3e 83 bd be 84 1e 3d
       -0.058900066 -0.10216001 -0.06408323 0.03870081
000120 c4 56 83 3c 9a ee 33 3d e5 fd 4a bd f6 3a 07 3e
       0.016032584 0.04392872 -0.04955854 0.13206086
000130 2d f5 9d bd 19 8b 5d 3d 7d 3d f5 3c 29 95 a9 bd
       -0.07712779 0.054087732 0.029936546 -0.08280403
000140 32 40 47 3d 94 1c dc bd 28 a8 a3 bd 92 64 d5 3c
       0.048645206 -0.10747638 -0.07991058 0.026048932
000150 2e 20 ec 3d 29 5d 52 3d ca c6 fc 3b 96 19 af 3d
       0.11529575 0.051358376 0.007714127 0.08549802
000160 4b eb 97 bd 98 d0 e5 bd 5d de 09 3c 2c fb 9d bd
       -0.074179254 -0.11221427 0.008414832 -0.07713923
000170 41 40 45 bd 7c e3 de bd 62 5b b9 3c 25 a0 06 3d
       -0.04815698 -0.10883233 0.022626583 0.03286757
000180 2e 67 f0 3d 2d 0a 5a bc 9b 08 16 3c d5 8f ed 3d
       0.1173843 -0.01330809 0.009157325 0.115996994
000190 27 b4 1b bd e8 25 21 bd 64 40 d7 3d 3a fa 18 3d
       -0.038013604 -0.03934279 0.105103284 0.03734801
0001a0 83 e6 3d bd 68 db 71 3d 76 ac 1e bd be 1c 6b bd
       -0.04636241 0.059047133 -0.03873869 -0.057400458
0001b0 df 76 c7 3d d7 eb 3e 3d b9 01 0c 3e 59 be 62 3c
       0.0973947 0.046611633 0.13672532 0.013839328
0001c0 68 7f b4 bd f7 87 a5 bc be 9e b2 bd 08 b7 e2 bd
       -0.08813363 -0.020206435 -0.08721684 -0.11070067
0001d0 ae 35 dd 3c bc a5 78 bd 57 6f ec bc aa 9a 32 bd
       0.027003136 -0.06070493 -0.028861685 -0.04360453
0001e0 77 74 a4 bd fc 97 a7 bb 97 85 ad bd 5c 86 5f 3d
       -0.080300264 -0.0051145535 -0.08472746 0.054571494
0001f0 39 f8 48 3c 6b 36 b9 3d 02 52 9c bc 94 42 63 3d
       0.012266212 0.090435825 -0.019082073 0.055483416
000200 d1 87 97 3c da 21 d2 bd 43 55 10 bd a0 4d e8 3d
       0.01849738 -0.10260363 -0.035237562 0.11342931
000210 b8 bf 02 be 8f 7c 3c bd 27 23 7d 3d fc 2a 5e 3d
       -0.12768447 -0.046017226 0.061801102 0.05424021
000220 3d 2f 8d bd 68 76 df 3c f8 ac b7 bd 30 83 e7 3d
       -0.068937756 0.02727814 -0.08968538 0.11304319
000230 be 0c 1b 3d b3 41 51 3d 1c b9 dc bd 6c 6a 96 bd
       0.03785395 0.051088046 -0.10777494 -0.07344517
000240 4a be f3 bc 38 cf f6 bc be 9e c2 3d aa 7f 6a bd
       -0.029753823 -0.030128106 0.09502934 -0.057250656
000250 ac 28 5f bd 47 02 07 be 7f 35 e4 3d 8b 9a eb bc
       -0.054482147 -0.13184462 0.11143016 -0.028760215
000260 65 7b 4d bc 95 38 a0 bd 71 f2 9e bd 7e 90 a0 3d
       -0.012541627 -0.07823292 -0.07761086 0.0784006
000270 ac 8a b1 3d 7f 7f f3 bd 16 13 ff bc 0d 8c 01 be
       0.08669028 -0.11889552 -0.03113703 -0.12651081
000280 77 d4 8d bd 5d 3e ac 3d 7f 07 22 3d 2d 6a a2 bc
       -0.0692529 0.08410332 0.03955793 -0.01982602
000290 20 73 75 bd fa a8 e2 3d 7e df 69 bb 25 21 00 3d
       -0.059924245 0.11067386 -0.003568619 0.03128161
0002a0 21 fb 0b 3e 33 0d c7 3d 14 91 9a bd 8d be e7 3d
       0.13670017 0.097193144 -0.07547203 0.113156416
0002b0 42 13 26 3d 56 9e eb bd e6 0e 56 bd 37 cc 09 3d
       0.04054571 -0.115048096 -0.052260302 0.03364202
0002c0 d7 5e e6 bd c1 57 d7 bd f4 01 16 3c ca 6d 06 3e
       -0.11248558 -0.105147846 0.009155739 0.13127819
0002d0 44 52 28 ba 35 be 10 bd 25 e9 b9 3d c4 40 ee ba
       -0.000642095 -0.035337646 0.09077672 -0.0018177261
0002e0 1d 31 88 bc d2 41 b3 bc 36 6c b9 3c 89 f5 0e 3d
       -0.016624982 -0.021881972 0.022634607 0.03490213
0002f0 6c 52 73 3d 7c 9d 31 3d 9f 5f cd bd 3d fc 85 3d
       0.059404776 0.04336308 -0.10028004 0.06542251
000300 77 69 83 3d 83 e8 a8 3d 24 9a 46 3d ca d7 c7 3c
       0.064166 0.08247473 0.048486844 0.024394888
000310 55 80 4c 3d 91 cd 87 bd be d9 7c bd ea 56 05 bc
       0.049927074 -0.066310056 -0.061731093 -0.008138398
000320 e1 ee 1e bd ad 09 5d 3d ba 60 8d 3b b3 1e 87 bd
       -0.03880203 0.053964306 0.004314509 -0.06597652
000330 fa 75 11 bd 34 87 d7 bd 4d 75 32 bd ed c6 06 bd
       -0.0355129 -0.10523835 -0.043568898 -0.032904554
000340 e6 73 06 be 52 4e 1a bd 01 91 5c 3d 88 29 51 bc
       -0.13130149 -0.03767235 0.053849224 -0.0127662495
000350 f8 72 03 3d 8b 4a d0 bd 1e 03 31 bd 60 da 7c 3d
       0.032092065 -0.10170468 -0.043215863 0.061731696
000360 1e ba 0c bc 18 02 c2 3d 1f 66 12 3e 21 47 24 3d
       -0.008589296 0.094730556 0.14296769 0.040106896
000370 26 57 79 bd 96 30 a5 bd 32 c7 1b 3d be 86 04 bd
       -0.060874127 -0.08065908 0.038031764 -0.032355063
000380 dc 4e e7 bd 39 39 b3 3d 8c 04 e5 bc dd 4c 33 3d
       -0.11294338 0.08751149 -0.02795627 0.043774474
000390 23 a1 70 3a c6 52 93 3d 2e 8b 80 3d e3 27 c5 bb
       0.00091792847 0.07193522 0.062765464 -0.0060167178
0003a0 99 b0 06 ba 62 6f 03 bd 2e 5d dd bd e3 43 b2 bd
       -0.00051380094 -0.032088645 -0.10808788 -0.087043546
0003b0 8e c6 93 3d 8a 58 10 bd 41 fb 82 3d 33 08 2b bd
       0.07215606 -0.035240687 0.06395579 -0.041755866
0003c0 d7 2f 7a bd 01 1e 1f bd da 48 86 bd 07 e8 3f 3d
       -0.06108078 -0.038846973 -0.06556864 0.046852138
0003d0 74 af 94 bd 9c ef e7 bd d5 e3 a0 3d dd 09 58 3b
       -0.072600275 -0.11324999 0.078559555 0.0032964863
0003e0 c4 f9 89 3d c0 5b 62 3d d4 d7 8f bd 22 ca 01 be
       0.06737092 0.05526328 -0.07023588 -0.12674764
0003f0 7d 45 f2 bd 0d f0 99 bd 0e d0 a9 3d 56 e6 0c 3e
       -0.1182966 -0.07516489 0.082916364 0.13759741

lstm.bias_ih_l0 f4 [256]
000000 32 d2 23 bd e2 89 d0 3c 48 87 bf bc 14 de 8f 3c
       -0.03999538 0.025456373 -0.023379937 0.01756195
000010 10 fb 0a 3e b7 fa 34 bc 56 77 c0 3d 4e 01 c7 3d
       0.13572335 -0.011046103 0.093977615 0.09717046
000020 9e e9 08 bd 5b 51 e1 bd 1f 1a 22 3c fe 68 a6 bd
       -0.03342592 -0.110018454 0.009893923 -0.081254944
000030 ae a4 74 3b fd 1a 93 3d 37 a0 2e bb 5a 20 f7 3c
       0.0037329602 0.07182882 -0.0026645788 0.030166794
000040 62 57 bc 3c 47 c6 b4 bd ed 78 10 3d 1c bf b9 3d
       0.022990886 -0.08826881 0.035271574 0.09069654
000050 72 64 0b 3d 6f f5 9a 3d c0 71 0d 3d e9 e9 86 3d
       0.03403134 0.07566344 0.03453231 0.065875836
000060 57 3a 92 3d ae b5 bd bd 9a 48 ca bd 7f ac c7 bd
       0.07140034 -0.09263168 -0.09877129 -0.09749698
000070 18 ce 91 bd 64 3e f3 bd ed 9b c4 3b 03 ea dc 3d
       -0.071193874 -0.118771344 0.006000033 0.10786822
000080 57 4e d2 bc a9 6b 09 3e 47 35 e1 3d 7b ea cd 3d
       -0.025672121 0.13419975 0.1099649 0.10054489
000090 ed b2 90 3d ec bf a2 bd 3b 69 a7 3c 08 fb cf 3d
       0.070653774 -0.079467624 0.02043592 0.10155302
0000a0 75 38 f1 3d ea a6 44 3d 44 a8 7d ba 03 94 fc bd
       0.117783464 0.048010744 -0.00096762576 -0.123329185
0000b0 68 bb 5a 3d aa 63 9e 3d 1f d9 5b 3d a6 b0 e2 bd
       0.05340138 0.07733853 0.05367386 -0.11068849
0000c0 02 26 67 3d 3b 74 c4 3c a3 31 c4 bc e5 f0 d6 3d
       0.05643273 0.023981204 -0.02394945 0.10495166
0000d0 e1 de 9d bc 49 ea 8c bd cd 4a ac 3c 10 0f eb 3d
       -0.019271316 -0.06880624 0.021031762 0.11477482
0000e0 41 90 ab 3d 0d 03 d2 bd 9f e2 b0 bd 1f 59 b7 3d
       0.083771236 -0.10254488 -0.086369745 0.089525454
0000f0 c8 d0 85 3d 0d 7a 41 3d 10 42 1e bb 1c ac 87 bc
       0.065339625 0.047235537 -0.0024148263 -0.01656156
000100 28 f4 83 bd 07 e0 58 bd 29 83 6b bc 36 c6 c1 3d
       -0.064430535 -0.052948024 -0.014374533 0.09461634
000110 f4 e6 23 bd b7 6a af bd 20 4b ad 3d 69 2a a8 bd
       -0.040015176 -0.08565276 0.084615946 -0.08211214
000120 14 df 96 bd 58 e9 de 3d d0 ac d2 3d 81 75 c5 3c
       -0.073667675 0.108843505 0.102868676 0.024103882
000130 81 74 01 3c cb 4e 8b 3c d2 c3 13 bd be c6 84 3d
       0.007901312 0.017005345 -0.03607542 0.064832196
000140 96 9a 5b bd b4 7a c1 bd c3 82 a4 bd f3 e6 a8 3c
       -0.05361422 -0.09447232 -0.08032753 0.020617938
000150 db 53 22 3d 82 64 31 3d c4 11 4e bd e8 32 a4 3d
       0.039630752 0.043308742 -0.05030991 0.08017522
000160 44 80 0b 3d 83 4f 9f bc 69 a7 86 bd fb 18 46 3d
       0.03405787 -0.019447094 -0.065749 0.048363667
000170 77 22 ca 3c f2 4f 8e bd 93 37 0c be 7a 4e 14 3d
       0.024674637 -0.06948842 -0.13693075 0.036207654
000180 06 9a 8b bd a3 a3 90 bd 73 db d0 bd 36 6a 4f bc
       -0.06816487 -0.07062461 -0.101981066 -0.0126596
000190 6c 29 e7 bd 72 bf 65 bd b8 13 a9 bd 66 43 34 bd
       -0.112871975 -0.05609078 -0.08255714 -0.04400959
0001a0 9d 43 5a bd 0c e6 8d 3d 99 15 91 3c e1 a1 47 3c
       -0.053287137 0.069286436 0.017710494 0.012184591
0001b0 92 b4 be 3d c1 46 d1 3b d7 a0 7c 3d 55 51 a5 bd
       0.09311785 0.0063866084 0.061676826 -0.080721535
0001c0 0e 7d 6f bd 93 49 b7 3d 7e 48 89 bd 3b 83 50 3c
       -0.05846887 0.0894958 -0.0670328 0.0127266
0001d0 08 64 b8 bb 98 6c ad 3d 82 8a f6 3d 06 78 94 3d
       -0.005627159 0.08467978 0.12038137 0.07249455
0001e0 e4 d3 09 3c 4d 4f 1f bd 0d a5 0b 3e 12 7b 3a bd
       0.008412335 -0.038893986 0.1363718 -0.045527525
0001f0 d8 17 9c bd 7b 39 56 bd e6 dc d4 bc 00 4d 06 bd
       -0.07621735 -0.05230091 -0.025984239 -0.032788277
000200 7b e7 96 bc ee 96 16 3d c0 7f 18 3d f3 23 11 3d
       -0.018420925 0.03676503 0.037231207 0.035434674
000210 97 8b 07 3e eb 5e 54 3d ed 21 c7 3d 49 83 d1 3c
       0.13236843 0.051848333 0.09723268 0.025575297
000220 d5 67 fb 3c b3 ce 11 bc 09 bf d2 bd dd 5d e9 bd
       0.03068916 -0.008899379 -0.10290343 -0.11394856
000230 78 53 02 3c 13 5a a7 bd eb c3 0c 3c d1 8a 87 3d
       0.007954471 -0.08171477 0.008591632 0.06618274
000240 6f f2 df 3b 37 b2 02 3b 4a d2 a6 bd 0e fa f6 3c
       0.0068343203 0.001994265 -0.08145578 0.030148532
000250 fb 25 00 bc 5e 63 1c 3d 61 2b ad 3c 41 5a 80 3d
       -0.007821555 0.0381807 0.021138849 0.062672146
000260 8d 6a bd 3d a5 b1 11 3d d9 59 61 bd 9d a3 05 3d
       0.092488386 0.035569806 -0.055017326 0.032626737
000270 c3 c9 91 3d b1 cf 99 3d 81 57 29 bd 16 17 83 bb
       0.07118561 0.07510317 -0.041343216 -0.004000555
000280 36 5e 39 bd 57 62 7e 3d b9 8c 01 3e af 0a 7c bd
       -0.045255862 0.062105503 0.12651338 -0.061533626
000290 31 d3 22 3c ce 73 0a be db a5 63 bd 48 11 6b 3d
       0.009938047 -0.13520738 -0.055578094 0.057389528
0002a0 6d 63 c8 3d bd a2 7d bd 2b 60 c0 3d d2 49 b8 bd
       0.09784589 -0.061922777 0.093933426 -0.08998455
0002b0 be 5b b2 3d 88 45 45 3d 28 da 61 bd 1b c3 c3 bd
       0.08708905 0.048162013 -0.05513969 -0.09558698
0002c0 a6 3c 38 bd a6 14 13 3d fa 0b c0 bd 65 55 c0 bd
       -0.044979714 0.035908364 -0.09377284 -0.09391288
0002d0 d5 b1 4e 3d 1e 2a 88 bd 67 f8 82 3d 43 a8 88 bd
       0.050462563 -0.06648658 0.06395035 -0.066727184
0002e0 4d 0d e1 3d 43 d9 15 3d 21 6c d7 bd 44 83 02 bc
       0.10988865 0.03658415 -0.10518671 -0.0079658665
0002f0 81 9f 9b bd 13 29 95 3d 07 86 14 bd 33 69 cc 3d
       -0.07598782 0.07283225 -0.03626063 0.09981003
000300 4e 29 99 bc 0c c9 17 3d 12 39 88 3d a1 6b 6b 3d
       -0.018696453 0.037056968 0.0665151 0.05747569
000310 a3 2c aa 3c aa 09 f1 bd de 2d 89 bd 64 e2 b0 3d
       0.020773238 -0.117694214 -0.066982016 0.086369306
000320 3f 55 12 3d 9a 80 3e 3d cb ae c8 bd af e5 80 3d
       0.03572583 0.046509363 -0.09798964 0.06293809
000330 70 e4 89 bd 5f 4a 90 bd 09 4f d7 3d 50 78 97 bd
       -0.06733024 -0.07045435 0.10513122 -0.07395995
000340 27 86 17 3d dd 79 d1 3b c8 79 b2 bc 97 89 88 bd
       0.036993172 0.006392701 -0.021786585 -0.06666868
000350 25 07 1c bd e0 84 4a 3d ec 48 da bd 3d bb 22 3d
       -0.03809275 0.049443126 -0.1065844 0.039729346
000360 00 27 8f bd f8 9d 75 3c a8 c9 8d 3d e5 8b d3 3d
       -0.069898605 0.014991276 0.069232285 0.10329417
000370 a9 34 e3 3d 3f f2 02 be 16 d8 3f bd f0 7f dd 3c
       0.110940285 -0.12787722 -0.046836935 0.027038544
000380 ad a2 f4 bd ec 87 a2 3c ee 43 e1 bc 9b d4 ad bd
       -0.119450904 0.019840203 -0.027498212 -0.08487817
000390 c6 23 da bb d0 50 c5 3c 9d eb ac 3d 28 13 4c bd
       -0.0066570966 0.024086386 0.08443377 -0.049822956
0003a0 43 12 9b bd 0d dc 88 3d c9 3a 06 3d 62 c3 62 3d
       -0.075718425 0.06682596 0.032770906 0.055362113
0003b0 7b f4 9c 3d da 7d a9 bd b3 13 f7 3d 52 4c b1 bc
       0.076638184 -0.082759574 0.12064304 -0.021642838
0003c0 4a 29 92 bd 85 e8 b1 bd 47 2e 22 bd f9 b8 90 3d
       -0.071367815 -0.08686928 -0.039594915 0.07066531
0003d0 02 ef 4f bd c4 50 00 3d 0a 93 97 3d 27 92 da 3d
       -0.050765045 0.031327024 0.07401092 0.106724076
0003e0 fc a0 ca bc 11 62 12 3d ed ea 3d bd cd 2e 1c 3c
       -0.024734966 0.035738055 -0.04636662 0.009532643
0003f0 d9 1f 31 3d c9 08 08 3e 95 93 d3 bd cd 9a 04 3e
       0.043243263 0.13284601 -0.103308834 0.12949677

lstm.bias_hh_l0 f4 [256]
000000 94 4d 81 bd e9 d9 69 bc e4 28 3a 3d c0 9a c9 bd
       -0.06313625 -0.014273145 0.045449153 -0.09843969
000010 b5 2d ba 3d 79 b6 2d bc 12 6f 39 3c ab f9 8f 3d
       0.09090749 -0.010602587 0.011317985 0.07030042
000020 1e 92 96 bd 6c dd 44 bc ef 40 14 3d fa 31 3b bd
       -0.073520884 -0.012015682 0.036194738 -0.04570196
000030 93 b5 24 bb d3 29 2e 3d c5 58 80 3d 70 7d cb 3d
       -0.002513264 0.042520355 0.062669314 0.09936035
000040 96 93 42 bc 2d 6a 8a 3d f2 ee 26 bc c1 6b ee bb
       -0.011876008 0.06758533 -0.010188805 -0.007276029
000050 26 f3 3d 3d d5 59 35 bd 71 6a 07 bc 97 65 ef 3b
       0.046374463 -0.044275124 -0.008265124 0.0073058116
000060 b3 38 50 bd 01 01 74 3d 93 a2 74 bc 32 c6 17 bc
       -0.050835323 0.05957127 -0.014931339 -0.009263562
000070 f9 1e c2 3d 17 5f 9c bd f7 6b 1a bd 03 00 f8 3d
       0.09478564 -0.076353244 -0.03770062 0.12109377
000080 3b ed dd 3c f8 6a 0a 3e 77 59 18 3d ea ed 43 bd
       0.02709066 0.13517368 0.037194695 -0.047834314
000090 bc 2e 69 bd 91 ff da bd 2b cd c4 bd 53 91 80 bd
       -0.056929335 -0.10693277 -0.09609445 -0.062777184
0000a0 14 eb 6c 3d b6 d7 08 3d 8d bf 57 3d 3d 6e a3 3d
       0.057841375 0.033408843 0.05267291 0.07980011
0000b0 6c c5 ef bd 7c 02 0e 3d 9d 3c dc bd fa 4d ba 3d
       -0.11707577 0.034670338 -0.107537486 0.09096904
0000c0 44 2b d4 bd a0 6e 01 3e 3e cf b2 bd f8 6f 7d bd
       -0.10359815 0.12639856 -0.087309346 -0.06187436
0000d0 24 a0 6d 3d 3c 8e 07 3c 75 cb d5 3d bc 39 8f bd
       0.05801405 0.008273657 0.10439197 -0.06993434
0000e0 0d 0f 80 bd 74 97 b7 bd 4e 9e 50 bd 2b dd f5 3d
       -0.06252871 -0.08964434 -0.05093222 0.12005075
0000f0 02 c2 81 3d 7b ab 0c bd dd d9 80 3d c6 04 a6 3d
       0.06335832 -0.034343224 0.06291554 0.08106379
000100 a4 7e 39 3c f7 1c e1 3d 84 b8 0d bc 6c 0d 16 bd
       0.011321697 0.10991853 -0.008649949 -0.036633894
000110 9f 59 bf 3c 7a 5e a6 bd bc a6 de 3d 33 86 ad bd
       0.023358164 -0.08123489 0.10871646 -0.08472862
000120 72 ec 71 3c af 8a 76 3d a9 7c 69 3d 4d cc 21 bc
       0.014765846 0.060190853 0.05700365 -0.009875369
000130 f0 7b 5a bd fe 44 be bd f9 d6 f6 bd 5a 54 4f 3d
       -0.053340852 -0.09290503 -0.120527215 0.050617553
000140 3f 67 ef 3d 91 0b 5d 3c 08 3b 36 3a f4 e0 9a 3d
       0.116896145 0.013491527 0.00069515454 0.07562438
000150 b5 cd df bd 45 dd 7f 3d 17 64 35 3d 36 3a ae bc
       -0.109279074 0.06246688 0.044284906 -0.021267992
000160 0d 23 42 3d 74 1f 79 bd 8d 56 e2 3d 57 22 21 3d
       0.04739671 -0.06082101 0.110516645 0.03933939
000170 39 ec c8 3d 2f df d4 bc e6 61 a3 3c a2 d6 72 bd
       0.09810681 -0.025985328 0.019944143 -0.05928672
000180 fe ad 12 3c a4 cc 94 bc f6 ca 97 39 7e e8 c2 bd
       0.008952616 -0.018163987 0.00028952182 -0.095170006
000190 92 bb 57 3d 46 a4 cb 3d 1b 60 8c 3d cd b0 8f bd
       0.052669115 0.09943442 0.06854268 -0.07016144
0001a0 93 a1 e0 3b ae d9 da bd e6 59 d9 3d 7c 58 bb bd
       0.0068551986 -0.1068605 0.1061285 -0.091477364
0001b0 22 56 3c 3d 62 4b 47 bb 33 46 06 3e ad 15 f6 bd
       0.04598058 -0.0030409922 0.13112716 -0.12015853
0001c0 a8 df 93 bd e7 0e 70 bd 08 96 a8 3d 95 19 b9 3d
       -0.072203934 -0.058607962 0.08231741 0.090380825
0001d0 ec 74 11 3d 60 4e 26 bb ba 0a e9 bd af ca 50 bd
       0.035511896 -0.0025376305 -0.11378999 -0.050974544
0001e0 51 31 5c 3d d4 5f 31 3c d3 b6 44 3d 67 4e 5a bd
       0.05375797 0.01082607 0.048025917 -0.053297427
0001f0 52 57 cf 3d 65 50 6e 3d 27 da 28 bc d1 74 80 bd
       0.10124077 0.05818214 -0.010305918 -0.06272281
000200 fd 01 bb 3b 87 fb a3 bd d8 fa 83 3d 26 1d 80 bd
       0.005707024 -0.080069594 0.06444329 -0.062555596
000210 ef 0f db 3c 64 16 16 3d bc 35 af 3d 19 ec 0a 3e
       0.026740996 0.036642447 0.08555171 0.13566627
000220 e5 a0 7e 3d d6 2f 8f 3b 67 4f ac 3d 1f 5d 77 bd
       0.06216516 0.004369716 0.08413582 -0.06039154
000230 d6 4b 6d 3d 26 1b 06 3e c1 ef bb bd f1 34 40 bc
       0.05793365 0.13096294 -0.09176589 -0.011731372
000240 af 2b dc 3b 1a 94 7c bd f0 d7 87 bd 54 db b8 bc
       0.0067190747 -0.06166468 -0.06632984 -0.022565521
000250 90 8c db 3d db f7 94 bd 54 0e ca 3d d2 84 69 3c
       0.107201695 -0.07273837 0.09866014 0.014252858
000260 8f 89 73 bd 85 0e 98 3d e4 66 02 bd 0a e7 fa bd
       -0.059457358 0.074246444 -0.031836405 -0.122510985
000270 5d f5 dc 3d c9 06 da 3d fd 97 1a bc b7 b5 71 3d
       0.10788987 0.106458254 -0.009435651 0.059011187
000280 ba 33 54 3d f2 cc bc bd 5a 40 9f 3d f7 00 c5 bd
       0.051807143 -0.09218778 0.07775946 -0.09619325
000290 ab 6c 98 bc 52 a1 be 3d 17 ce da 3d 99 d9 18 3b
       -0.018606504 0.09308113 0.1068384 0.0023323058
0002a0 cb 78 92 3d f9 24 85 3c a5 26 b1 3d d1 2e 76 bd
       0.07151946 0.016252981 0.08649949 -0.06010324
0002b0 6d 85 8b bd 06 45 ce bd 94 21 47 3d 2d f9 8c 3d
       -0.06812558 -0.10071759 0.048616007 0.06883464
0002c0 62 4c fe 3d ca bb e0 bd 58 c0 58 bd 77 d2 cd 3c
       0.124169126 -0.10973318 -0.05291781 0.025124772
0002d0 11 97 b4 bd a0 c6 a8 bb 15 01 e2 ba 2d 99 6e bd
       -0.08817876 -0.005150631 -0.0017242754 -0.05825155
0002e0 30 ce 72 3d 2a 75 89 3d 91 1e 8e 3d 8e 51 65 3b
       0.059278667 0.067118004 0.06939424 0.0034991237
0002f0 d5 40 df bd b8 c9 c6 bc b3 36 a8 bd 69 99 0a be
       -0.109010376 -0.024266109 -0.08213558 -0.13535084
000300 8a 95 89 3d 84 be c4 3d b8 97 bc bd eb f6 6b bc
       0.067179754 0.096066505 -0.092086256 -0.014402132
000310 c9 ea 7f 3d b2 e0 e9 3d e7 35 b1 bd 20 f2 c1 bc
       0.062479768 0.1141981 -0.08652859 -0.023675025
000320 75 ce 01 be 39 7c a4 3c 95 66 a9 bd 52 c2 67 3d
       -0.12676413 0.020078765 -0.08271519 0.056581803
000330 d8 84 cd 3c 85 e6 cf 3a 5d c5 e3 3d 30 08 b6 bd
       0.025087759 0.0015861547 0.111216284 -0.088882804
000340 7a 90 88 bb 32 f4 17 3d 56 6d 1e 3c cb 37 31 bc
       -0.0041676136 0.037098117 0.009669622 -0.010816525
000350 9d c9 ea bd bc 6f f3 bc ce 12 bd bd be ca fa bd
       -0.11464236 -0.029716365 -0.09232102 -0.12245701
000360 7f 58 01 3d 1a 17 fe 3d 48 b2 cf bb f0 04 09 3d
       0.031578537 0.1240675 -0.0063383915 0.033451974
000370 b3 48 3e bd 20 0d 41 3d 8a d3 9c bd f5 2a 49 bd
       -0.04645605 0.047131658 -0.076575354 -0.049113233
000380 71 3c 92 bd 7e 42 04 3e 6c 9e 86 bd 19 38 d4 bd
       -0.071404345 0.1291599 -0.06573185 -0.10362262
000390 e7 d5 0e bd 59 fd f6 3d 9b eb 2c bd 20 9b 5f bd
       -0.034871962 0.12060041 -0.04221688 -0.054591298
0003a0 6b bb 71 bc 78 a3 92 3c 34 2f c4 3d a9 f9 a3 3c
       -0.014754157 0.017900214 0.09579316 0.020016508
0003b0 a9 f6 87 3d de e8 ab bd d9 1c 8d 3d d1 3e fa 3d
       0.066388436 -0.08394025 0.06890268 0.122190125
0003c0 40 02 5b 3d 95 d2 1b bb f8 e2 e4 3d c7 45 37 3d
       0.053468943 -0.002377664 0.11176103 0.04474428
0003d0 69 0a e9 3c 2b 87 25 bb d9 15 9b 3b 13 02 2a bd
       0.028447347 -0.0025257568 0.004732829 -0.041505884
0003e0 2e 78 35 bd 8a 73 f8 ba a3 27 1f bc 97 1b 76 3d
       -0.044304065 -0.0018955332 -0.00971404 0.060084905
0003f0 dc 03 48 ba c1 47 fa bc e6 b2 c2 3d ee e2 6a 3d
       -0.00076299696 -0.030551793 0.095067784 0.057345323

lstm.weight_ih_l0_reverse f4 [256, 111]
000000 ec 27 04 3e e1 61 d6 bc 14 87 24 bd 49 f7 dd bd
       0.12905854 -0.02616972 -0.040167883 -0.108381815
000010 27 e6 bc bd 17 9f 82 bd dc de ab 3d 5f 95 1e 3d
       -0.092235856 -0.06378 0.083921164 0.03871667
000020 ad 5f 22 3d 57 7f cd 3d 0a 78 ae bd 75 40 8a 3d
       0.039642025 0.10034054 -0.085189894 0.067505755
000030 a5 a5 73 bd 09 55 c0 bc 39 6d e1 3d b2 c0 aa bd
       -0.059484143 -0.023478048 0.11007161 -0.08337535
000040 ab 7a 75 bd 24 3c d9 3c a6 14 27 bd ae b9 5b bd
       -0.05993144 0.026517935 -0.040791176 -0.053643875
000050 c7 ab 4f bd df 3f 42 bd bc 06 74 3d 39 44 6b bd
       -0.05070093 -0.047424193 0.059576735 -0.05743811
000060 d6 e9 06 be 4b 7b 90 bb 8b 14 1b bd 78 29 cb 3d
       -0.13175139 -0.004409229 -0.03786139 0.09920019
000070 33 14 e2 bd 03 78 d0 bd ac a5 0c be e9 00 5b bd
       -0.11039009 -0.101791404 -0.13735074 -0.053467665
000080 b9 c3 87 bd ea 8b bf 3d 0c 91 ea bd 16 13 bd bd
       -0.06629128 0.09352858 -0.11453447 -0.09232156
000090 c9 11 ed bd 78 ac 83 3d 1c e9 ff 3c d3 66 93 3d
       -0.11575658 0.0642938 0.031239085 0.071973465
0000a0 33 dd 91 3d 9b 15 ed 3c af 31 91 3d 43 3a 88 3b
       0.071222685 0.028940966 0.070895545 0.004157336
0000b0 58 8e b3 3d ca b7 1d bd a0 a5 34 3d 61 16 93 3c
       0.08767384 -0.038505353 0.044103265 0.017955007
0000c0 87 21 03 bd 6e 18 9b 3c c9 1a 8b 3d 12 8f 41 bd
       -0.032014396 0.018932547 0.06792218 -0.047255583
0000d0 c3 41 81 3d d3 0f 84 3d 09 80 0a be 4f 74 a4 3d
       0.06311371 0.06448331 -0.13525404 0.080299966
0000e0 98 57 bf 3c e9 db 91 bc 3a 5a ef bd 74 bd eb bc
       0.023357198 -0.017805057 -0.11687131 -0.028776862
0000f0 34 cd 5c 3d ac bf d6 3d f0 24 1e 3a 54 43 94 bd
       0.053906634 0.10485777 0.0006032726 -0.07239404
000100 d2 db fa bb 49 2e e4 bd b7 0f ba 3c 47 95 c3 bd
       -0.007655599 -0.11141641 0.022712572 -0.09549957
000110 11 4d fb bd b0 e3 99 bc 10 96 84 3d 05 a1 4b 3d
       -0.122705586 -0.018785328 0.06473935 0.049714107
000120 1c b7 e8 bd de b9 80 bd 68 cc b5 bd 7c b0 bf 3d
       -0.1136305 -0.06285451 -0.08876878 0.093598336
000130 f3 5b 44 bc ae b8 0f 3c e5 d5 f5 bd 10 87 d0 3d
       -0.011984813 0.008772058 -0.12003688 0.10182011
000140 c6 ac 6e bd f9 3b c3 3c 2a bb c5 bd ba 05 a8 bd
       -0.05827024 0.023832308 -0.09654839 -0.08204217
000150 0a 5d ee bd 07 67 41 3b ef f8 94 3d 78 62 2f bd
       -0.116388395 0.0029510872 0.07274043 -0.042818516
000160 e5 0f a5 bd 96 8b 71 3d ec 73 e3 3c ae 30 e0 bd
       -0.08059672 0.05897101 0.027765237 -0.10946785
000170 39 2c 54 bc 7e 32 d9 3d e3 2e e0 3d 09 11 44 3d
       -0.012949997 0.10605334 0.10946443 0.04786781
000180 3d 88 a8 bd df b0 2e bd d9 c6 2b bd 39 b8 05 3e
       -0.082291104 -0.042649146 -0.041937683 0.13058557
000190 f3 66 99 3d f0 61 96 3c cf 2b 03 3d 95 42 bc bc
       0.07490339 0.018357247 0.0320242 -0.022980968
0001a0 5c bd fc 3c 6c 96 d6 3d 5d 72 62 bd 12 5d 41 bd
       0.030852012 0.104779094 -0.055284847 -0.0472079
0001b0 c0 39 bd 3d c4 e1 6b bc 7e 60 21 bd 43 0a 88 bd
       0.092395306 -0.014397088 -0.039398663 -0.06642582
0001c0 40 c9 11 bd d1 4d 02 3d 01 f6 ee bd 42 fd 24 bd
       -0.035592318 0.031812493 -0.11668015 -0.040280588
0001d0 49 95 e4 3a 5c a1 c2 39 fb 2f f5 ba 49 60 87 3d
       0.001743951 0.00037122786 -0.0018706316 0.06610162
0001e0 6a c5 de 3c f0 ba c7 bd 32 96 06 3d 00 28 7b 3b
       0.027193744 -0.097524524 0.03285808 0.0038323402
0001f0 e5 15 82 bd f3 bd 89 3c 96 17 e8 3d 8c a3 be 3c
       -0.06351832 0.016814208 0.11332624 0.023271345
000200 77 80 fc bd b8 95 92 bc f4 ef 7c 3d 79 51 d6 bd
       -0.1232919 -0.017893657 0.061752275 -0.104647584
000210 77 e6 a0 bd e4 33 bb bd 02 cc aa bd f9 f2 c5 3d
       -0.07856458 -0.09140757 -0.08339693 0.09665484
000220 a6 c3 83 3d fd cc ad 3d 29 5e f7 bd a5 f2 8d 3d
       0.06433801 0.08486364 -0.120785065 0.069310464
000230 f3 62 db bd 48 16 c5 3d c4 f3 dd 3d 19 a5 72 bc
       -0.107122324 0.096233904 0.1083751 -0.01480987
000240 2e fc 9c 3d 2d 4e a8 3d e0 76 63 3d b9 87 50 bd
       0.07665287 0.08218036 0.05553329 -0.050910685
000250 48 dc 06 3d cb 67 c7 bd c3 f5 ec bd 01 e2 ea bd
       0.03292492 -0.09736594 -0.11570313 -0.11468888
000260 de 7f ab 3d 07 1e 1c 3d 1c 8f ff bb 61 ab e7 3b
       0.08373998 0.038114574 -0.0077990424 0.0070699905
000270 05 42 b2 bd 86 f8 96 bd b7 b0 25 3d 70 86 1e 3c
       -0.087039985 -0.07371621 0.04045173 0.009675607
000280 16 60 8d 3d 47 98 aa bd a3 d5 d3 bb f4 c9 30 bd
       0.069030926 -0.08329826 -0.0064646765 -0.043161348
000290 0a b3 e2 3d d3 c9 17 bc 99 8f a4 bd 17 88 61 bb
       0.11069305 -0.009264427 -0.080352016 -0.0034413391
0002a0 6e b0 ab 3d 55 87 71 3d e0 7f b2 bd 50 28 82 3d
       0.08383261 0.058966953 -0.087157965 0.06355345
0002b0 0e bd ed 3d a6 37 da 3d 44 03 68 3b e1 85 96 3c
       0.11608325 0.10655145 0.0035402337 0.018374385
0002c0 5f c8 5e bd 41 9c 53 bd 21 64 9f bd ed e7 df bd
       -0.054390308 -0.051662687 -0.0778277 -0.10932908
0002d0 a1 8a c5 bc f8 3c 78 bd 23 7a e8 ba fc c6 dd bd
       -0.024113955 -0.06060502 -0.0017736595 -0.10828969
0002e0 94 50 b5 3c f9 62 94 3d dd 67 56 bd 68 0d 1e bb
       0.02213315 0.0724544 -0.052345145 -0.0024116877
0002f0 49 97 d4 3d 6d b1 03 bc 81 48 1d bd b1 3b bc bd
       0.10380418 -0.008037907 -0.038399223 -0.09191073
000300 f2 0b 86 bd 00 25 bd 3c e5 7a 93 bd 26 d6 b5 bd
       -0.06545247 0.023088932 -0.07201175 -0.08878736
000310 e6 8d 45 3d ae 4e d2 3d 8e b6 bf bc 87 4a a2 3d
       0.048231028 0.10268913 -0.023402479 0.07924371
000320 ef 16 2e 3c 04 a7 7d bd 3b df fb bd b1 c8 ca bd
       0.010625585 -0.061926857 -0.12298437 -0.0990156
000330 30 e8 45 3c 6a 47 91 bd c7 79 e3 3d 62 25 9c bd
       0.012079284 -0.07093699 0.111072116 -0.07624318
000340 fd fa f4 bd af 60 b8 bd 76 d8 bf 3d 87 14 ee bd
       -0.11961935 -0.09002816 0.093674585 -0.11625009
000350 69 43 34 bd c9 fe 8e 3d 1e dd 39 3d 22 ad 24 bd
       -0.0440096 0.0698219 0.04537689 -0.040204175
000360 3a 16 a1 ba e9 32 a5 3d 12 59 25 3d af de 67 3c
       -0.0012289949 0.08066351 0.040368147 0.014152213
000370 1d a1 91 3d 18 ea 4b bc 0a 1d 89 3d ae 28 45 bc
       0.07110808 -0.012445949 0.06694992 -0.012033625
000380 5f 65 7d 3d 9e 84 93 3c 4d 63 10 3c a9 5a 38 bd
       0.061864253 0.018007573 0.008812738 -0.045008335
000390 d7 87 35 bc 23 d5 37 3d c7 17 54 3d 60 2b e4 3c
       -0.01107975 0.044880997 0.05178049 0.027852714
0003a0 d1 55 40 3b eb 68 88 3d 45 ba 75 3d 06 b9 b5 bd
       0.0029348026 0.066606365 0.059992094 -0.08873181
0003b0 1b 7f 32 3d e4 50 4f bd df 3a cd bc 45 7b 53 bd
       0.04357825 -0.050614253 -0.025052486 -0.05163123
0003c0 ab e6 00 be 16 42 c3 3d 0f 7b a1 bd a7 59 89 3b
       -0.12587993 0.09534089 -0.078848 0.0041915956
0003d0 07 4c 81 3d d5 91 aa 3d 27 a7 79 bd 0e 92 a0 3c
       0.06313329 0.083285965 -0.060950425 0.019600894
0003e0 ab be aa 3d ac 13 7a 3d 61 74 71 3d 8f 99 f4 bc
       0.08337148 0.061053917 0.05894888 -0.029858379
0003f0 70 c1 0f 3d f1 2f 66 3d a8 4d 17 bd cd 4f a9 3b
       0.035096586 0.056198064 -0.036939293 0.0051669837

lstm.weight_hh_l0_reverse f4 [256, 64]
000000 0e e9 de bd 78 0e 63 bc 3e 2f 02 be 01 ca 30 3d
       -0.108842954 -0.01385843 -0.12713334 0.043161396
000010 74 20 11 bd d7 43 ed bd 96 a4 3c bd cc 3a d0 bd
       -0.03543134 -0.11585205 -0.0460554 -0.101674646
000020 92 79 bd 3b 44 a3 d5 bc 34 e2 9e 3d 3a 02 a0 bd
       0.0057823146 -0.026078828 0.077579886 -0.07812925
000030 4e 72 8d bd 85 3b b0 3c ee 2e 57 bd 19 4b b3 3d
       -0.069065675 0.021512756 -0.05253499 0.08754558
000040 e1 c1 a6 b9 27 16 dd bd 33 1b e5 3c 47 dc 66 bd
       -0.00031806438 -0.10795241 0.027967071 -0.056362417
000050 2a 41 27 3d 58 0b cc bd 81 1a 84 3c 83 35 cd 3c
       0.04083363 -0.09963101 0.01612592 0.02504993
000060 39 ac 0b 3d 41 f8 be bd 40 42 43 3d af 71 e9 3d
       0.03409979 -0.093246944 0.047670603 0.113986365
000070 96 b4 fb bd fd 16 e5 3d fd 68 01 3e 49 b4 6d 3c
       -0.122903034 0.11186025 0.12637706 0.014508315
000080 19 ec 88 3d 29 a1 dd 3d e8 6d 45 3d f5 4a bc 3d
       0.06685657 0.108217545 0.048200518 0.091939844
000090 fe d3 30 3d 3a f1 ef 3d 16 74 87 3d e9 6d 8d 3d
       0.04317092 0.11715932 0.066139385 0.06905729
0000a0 2b 6b f4 bd 22 94 a6 bd cd 6a 3f 3d 2d c1 e3 3d
       -0.11934503 -0.08133723 0.046732713 0.1112083
0000b0 67 94 fb 3c 44 6d c4 bd df 3c 84 3d 85 97 9b bd
       0.030710412 -0.09591153 0.06456923 -0.075972594
0000c0 18 9f ee 3d 1d 9f eb 3d b1 08 93 3d 8a 82 b5 bd
       0.116514385 0.11504958 0.07179392 -0.08862789
0000d0 49 55 51 3d e6 5c ee bd a5 a1 bd 3c 19 fa fb bd
       0.051106725 -0.11638813 0.023148367 -0.12303562
0000e0 9c 44 e1 3d cb 85 c8 bd 11 2e 29 3c 45 bb 86 bb
       0.10999414 -0.09791144 0.0103259245 -0.0041116797
0000f0 ca 9c f2 bc e4 0b e3 bd 22 06 7d bd 9d 7e fa 3d
       -0.029615778 -0.11086252 -0.061773427 0.12231181
000100 7f 1a 96 bd 27 f2 45 bc a0 79 bd 3d d2 b4 8b 3d
       -0.073292725 -0.012081659 0.09251714 0.06821598
000110 db ba a8 3d 84 d4 cd bd 8f 0c 9e 3c c9 e9 2c 3c
       0.08238765 -0.100503 0.019293098 0.010553786
000120 92 c6 9c 3d 80 8c db 3d e5 a8 85 bd a0 71 e5 3d
       0.07655062 0.107201576 -0.06526355 0.11203313
000130 1b 4b 37 3c 8a 54 32 3d 94 59 06 3b 60 b8 dc 3d
       0.01118734 0.043537654 0.002050017 0.10777354
000140 18 16 7e bc 8d cd b1 3d 21 b7 e1 bb 27 0d ac 3c
       -0.015508197 0.08681784 -0.0068882857 0.021002365
000150 33 2b c4 bd c1 23 e9 bd 9b 10 3b 3d 27 18 ce bc
       -0.09578552 -0.11383773 0.045670133 -0.025158001
000160 c6 3c bc 3d f9 81 88 3d c1 12 2d bd 21 63 46 3d
       0.09191279 0.06665415 -0.042254213 0.04843438
000170 e4 10 b4 3c 59 ec 67 3b 01 57 7c 3c 40 f3 32 bd
       0.02198071 0.0035388677 0.015401603 -0.043689013
000180 02 ba 04 3e a9 38 a9 3d e2 76 d4 3d 4d 25 3c bd
       0.12961581 0.0826276 0.103742376 -0.04593401
000190 e8 c2 cc bd 79 26 db bd 70 03 43 3c ba 7a 50 3d
       -0.09998113 -0.107006975 0.011902675 0.05089829
0001a0 79 91 5e 3c 30 10 8d 3d 46 bb 48 3d 8f 10 4a bd
       0.013584488 0.06887853 0.049006723 -0.049332198
0001b0 49 05 55 bd 63 af 03 3e dc 3f 34 bd e1 9b ed bd
       -0.052006993 0.12859873 -0.044006214 -0.11601997
0001c0 f5 e4 13 3d 09 8f 97 bd 26 bd cf 3d d3 17 e4 bc
       0.036107022 -0.07400329 0.10143499 -0.027843392
0001d0 62 66 36 bc 5b 00 78 bd 46 6e 4b 3d 60 e1 42 3d
       -0.011132808 -0.060547214 0.04966571 0.047578216
0001e0 df de ca bc d2 7d bc 3d ce 4b c6 3d b2 59 5e 3c
       -0.024764476 0.09203686 0.09682427 0.01357119
0001f0 39 7d f0 bd c5 64 bc bd e3 72 a5 bd 8a 60 e7 bd
       -0.11742634 -0.09198908 -0.080785535 -0.1129771
000200 2d 6c ff 3d 0f 2f 88 bc 5b 4f a8 bd 1b 9a 0b bd
       0.12471805 -0.016624002 -0.08218261 -0.034082513
000210 d8 ba 21 bd 29 80 63 3d 6f 80 fc 3d 91 80 8c 3d
       -0.03948483 0.055542145 0.12329184 0.068604596
000220 c0 2f fc 3d bc a1 b8 3c 5f 17 dc 3d 0f cf 9d bc
       0.12313795 0.022538058 0.10746645 -0.019263772
000230 e5 1c c0 bc a9 e7 40 3d 39 f4 16 bc 92 7b e3 3c
       -0.023451278 0.04709593 -0.009213501 0.027768884
000240 c7 d1 e4 bc 73 fa d7 bc 25 e4 e9 3d 04 be fd bd
       -0.02793206 -0.02636454 0.11420468 -0.12389758
000250 23 45 bc 3d 74 0f 4d bd 64 7c 8a bd 0e 83 9f bd
       0.09192874 -0.050063565 -0.06762007 -0.077886686
000260 78 ef 82 3c 58 a8 fd bd a5 7d d3 3d a4 ff ae bc
       0.015983328 -0.12385625 0.10326699 -0.021362133
000270 56 69 e5 3d 8e 10 6e 3c 1f 3e 60 bd 87 8e fb 3d
       0.11201732 0.014530314 -0.054746743 0.12283044
000280 a3 5c 22 3d 3c bc 84 3c 69 34 99 3d 54 fd 8d bd
       0.039639127 0.016203038 0.074806996 -0.06933084
000290 65 54 0c 3c 4b f1 68 bd 10 7c f6 3d 9e 76 28 bd
       0.008565043 -0.05687074 0.12035382 -0.041128747
0002a0 4a d7 d6 3d 1d 8b 26 3b 3a a0 9a 3c 38 d9 8b 3d
       0.10490282 0.0025412508 0.01887523 0.068285406
0002b0 14 b0 57 bd 72 20 0a 3d a9 97 d9 3d c4 04 8b bd
       -0.052658156 0.03372235 0.1062463 -0.06788018
0002c0 f3 ec 8d bd 8c e8 ab bd 47 c3 34 bd ad 8c 9f 3d
       -0.0692996 -0.08393964 -0.044131543 0.07790504
0002d0 71 ee d1 bd 5a 52 f0 3c 15 5a 9e bc 9f 41 bc bc
       -0.10250557 0.029336143 -0.019330064 -0.02298051
0002e0 ce 58 ab bc d2 05 bd bd 3c 67 4a 3d 98 ee bc bd
       -0.020916369 -0.09229626 0.04941486 -0.09225196
0002f0 55 b3 b5 3c 18 11 90 3d 75 17 af 3d fb 83 83 3d
       0.022180239 0.070345104 0.08549396 0.06421658
000300 e9 45 ff bd 54 1f a4 3d 9f c2 19 bb fa 00 9d 3d
       -0.12464506 0.08013788 -0.002346195 0.07666202
000310 25 4f d7 bd 6f e0 d8 bd 1a cb c3 bd 12 30 12 3d
       -0.105131425 -0.10589682 -0.09560223 0.035690375
000320 47 f9 f2 3d 3f e1 b4 3d 79 29 03 3d 76 59 c9 3c
       0.11863952 0.08832025 0.032021973 0.024578791
000330 c7 9c 16 bc 79 fc 81 3d 34 d7 de 3c 36 5b 5b 3d
       -0.009192652 0.063469835 0.027202226 0.053553782
000340 5f c8 cb 3c ec 4d b5 3d b4 1b c4 bd 0a 1a 70 bd
       0.024875818 0.08852753 -0.095755965 -0.058618583
000350 ca c9 be 3d 50 da b4 bd 38 9b 4f 3d 78 e0 bb 3d
       0.09315832 -0.08830702 0.050685138 0.091736734
000360 39 14 94 3d f9 ea f1 bd 03 4b c7 bd dc 83 6c bc
       0.0723042 -0.118123956 -0.09731104 -0.014435735
000370 55 ea 86 bd db 57 83 bd 74 ba 61 bb d3 64 f7 3d
       -0.06587664 -0.064132415 -0.003444341 0.120797776
000380 37 de eb ba 7e f5 76 3d 31 79 ab bc 38 f5 86 bd
       -0.0017995302 0.060292713 -0.020931812 -0.065897405
000390 1c 96 de 3d be 88 a0 bd 9b 25 bb 3d 87 03 11 3d
       0.10868475 -0.078385815 0.09138032 0.035403755
0003a0 5f 51 23 bc a0 e9 fe bb 42 97 cd bd 26 e8 dc 3d
       -0.009968131 -0.007779315 -0.10038616 0.10786466
0003b0 4a c9 1a 3c e8 e7 73 bd 5f 23 3c bc bf 80 6d bd
       0.009447405 -0.059547335 -0.0114830425 -0.05798411
0003c0 e7 dd d9 bd 7b 60 c4 bd 20 9e 2a 3d 2f 8f af bc
       -0.10638028 -0.09588715 0.041654706 -0.02143058
0003d0 99 1e 8c 3c 7e 31 66 bd 85 60 c1 bd 8c 64 20 bb
       0.017104434 -0.056199543 -0.09442238 -0.0024473993
0003e0 a6 c6 f6 bd 4a f6 b3 3c ff 60 7e bd e3 e4 61 bc
       -0.12049608 0.021968026 -0.06210422 -0.013787481
0003f0 39 77 a9 3d 1f 25 d7 3c 46 79 e2 3d 93 9f 1c 3d
       0.08274693 0.026262818 0.11058287 0.03823812

lstm.bias_ih_l0_reverse f4 [256]
000000 10 72 82 bd 1f 1b e6 bd e3 2e 9f bd 6c 4b 7e 3c
       -0.06369412 -0.11235642 -0.07772615 0.015520912
000010 39 cf 26 bd 5b d0 a4 3d 26 40 89 3d e1 fb 0a be
       -0.040724967 0.08047553 0.067016885 -0.13572647
000020 f5 ff c7 bc 0f 0a fa 3b d9 bc 99 bd c7 ae ed bd
       -0.024414042 0.0076305936 -0.07506723 -0.11605602
000030 3d 50 0c bd 26 ce ae bd d9 77 61 bd b4 81 0b bc
       -0.03425621 -0.085354134 -0.055045936 -0.00851481
000040 6b d4 d8 bd c4 a5 92 bd 3b 9a 9a 3d 98 60 01 3d
       -0.105873905 -0.071605235 0.075489484 0.03158626
000050 ee 3b 58 3c fc 43 b9 bd 8d 42 31 3d ab 40 c4 bd
       0.013197882 -0.0904617 0.04327636 -0.09582647
000060 d7 c6 b3 3d de 59 e1 3c 6d 23 bc bd 93 56 cc bd
       0.0877816 0.027508672 -0.091864444 -0.0997745
000070 b9 db 24 3d 71 7e 65 3d 9d 97 66 bd 22 6b 04 be
       0.040248606 0.056028787 -0.056296933 -0.12931493
000080 8b 40 a1 3d 64 a4 ed 39 6b 18 11 3d b0 22 3f 3c
       0.07873639 0.00045326643 0.035423677 0.011665985
000090 6e a0 97 3d a5 f3 07 be 2d 90 a5 3d 6d c0 a7 3c
       0.074036464 -0.13276537 0.0808414 0.020477498
0000a0 10 22 0a 3e 6a 6e 06 3e 30 bd cf 3d 50 1f bf 3d
       0.13489556 0.13128057 0.101435065 0.09332144
0000b0 5f 4f 3b bd c4 11 06 3b af e2 ce bd e8 6d 7d 3d
       -0.04572999 0.0020457366 -0.1010183 0.061872393
0000c0 8e 87 80 bd bf a4 95 bd 70 74 dc bc 8c 0f dc 3d
       -0.06275855 -0.073068134 -0.02691099 0.10745153
0000d0 c2 cd c7 3a 9f 8d ee 3d 08 c8 18 3c a4 1d b1 bd
       0.0015243816 0.11648106 0.009325035 -0.086482316
0000e0 ae cb 89 bd 21 e8 a6 3d 2e 87 e6 bd b6 ef 45 bd
       -0.06728302 0.08149744 -0.11256252 -0.04832431
0000f0 f4 0d e8 3d 1a 1b 2b 3c 2a 88 5e 3d ed 44 2b 3d
       0.11330786 0.010443473 0.054329075 0.04181378
000100 bb 1b 6d 3d 94 0f 85 bd 16 cb 9c bd 53 54 45 3c
       0.057887774 -0.06497112 -0.07655923 0.01204403
000110 e5 09 cc bd 04 17 3b bd d2 60 65 3d 4f 62 62 3c
       -0.09962825 -0.045676246 0.05600054 0.013817384
000120 4b 27 e9 bd 15 0a 89 bd f3 c6 ad 3d 31 4d c4 3d
       -0.11384448 -0.06691376 0.08485212 0.095850356
000130 6e 52 ad bd c1 77 d9 3d ca 40 cc bd 66 fc 25 bd
       -0.08462988 0.10618544 -0.09973295 -0.04052391
000140 ad 04 30 bd 83 ed ec bd 7d 72 c9 3b 3f 95 55 3d
       -0.04297321 -0.11568739 0.0061476813 0.052144285
000150 2c 93 90 bb 72 d7 e2 3d 26 a2 d4 bd e4 b0 37 bc
       -0.0044120755 0.11076249 -0.1038249 -0.011211608
000160 df 57 8d bd a1 80 85 bd f4 66 bc bd 33 30 e1 bd
       -0.06901526 -0.06518675 -0.09199324 -0.109955214
000170 76 9a 65 3d 3e 8a 36 3d b6 00 c1 3d 60 30 c1 bd
       0.05605551 0.04456543 0.09423964 -0.09433055
000180 04 40 7b bc 14 b0 d1 bd e2 4c 96 bd 39 88 82 3d
       -0.015335087 -0.10238662 -0.07338883 0.06373639
000190 d5 0c f0 3c 85 37 1a 3c 3e 25 87 3c 28 c5 bf bd
       0.029302994 0.009412651 0.01649725 -0.093637764
0001a0 74 f1 ca 3d ed 85 2b 3c 9d 9e ea bc 4d 25 d2 bd
       0.09909335 0.010468942 -0.028640086 -0.10261021
0001b0 54 b0 67 3d b0 8f f5 3c 96 33 4b bd ab 78 5e 3d
       0.056564644 0.029975742 -0.049609743 0.054314297
0001c0 24 45 5c 3d b4 f2 6e bd a3 79 83 3d 5c e7 6b 3d
       0.053776875 -0.05833693 0.06419685 0.05759369
0001d0 ed d1 4b 3d af b9 7c 3d 48 81 80 bd 70 f3 9b 3d
       0.049760748 0.06170052 -0.062746584 0.076147914
0001e0 81 60 9e 3d 8d 2d d2 bd ba 76 4f bd 50 d1 bc 3d
       0.077332504 -0.10262594 -0.050650336 0.09219611
0001f0 c1 e3 dc 3d ec 71 15 3d 26 59 4e 3d 47 7e ea 3d
       0.10785628 0.036485597 0.050377987 0.11449867
000200 21 88 b7 bc 45 69 93 bd 56 9c 77 bb 1c c4 87 bd
       -0.022403779 -0.07197813 -0.0037782392 -0.06629202
000210 9f e5 d8 bd 91 74 c4 bc 92 73 9f bc 6b dd a7 bb
       -0.10590672 -0.023981364 -0.019464288 -0.0051228306
000220 ff 25 bd bd 46 ef f4 3d 90 ab a9 bc 04 c5 ac bd
       -0.09235763 0.119597 -0.02071169 -0.08436015
000230 e5 f4 50 bd e3 4a 95 bc 00 54 39 bd bd 7e a8 bd
       -0.0510148 -0.018224185 -0.045246124 -0.082272984
000240 47 d1 d0 3d e2 07 dc 3d 44 39 f0 bd 7c 03 44 bd
       0.101961665 0.10743691 -0.117296726 -0.047854885
000250 35 69 3b 3d c9 a8 3f bd 92 30 f9 3c 49 23 8e 3c
       0.04575463 -0.046791825 0.030418668 0.01735081
000260 f5 a2 05 be 1d 09 91 bb 25 99 a4 3d 37 9e 02 bd
       -0.13050444 -0.004426135 0.080370225 -0.031889167
000270 7f 98 06 be e7 3d b5 3d c3 15 78 bd 78 25 0a bd
       -0.1314411 0.088496976 -0.06056763 -0.03372714
000280 fa 2e c7 bd 3e 9d c6 3a 8f b2 64 3d 30 cc a5 bd
       -0.09725757 0.0015153063 0.05583435 -0.08095586
000290 dc d9 55 bd 89 b5 db bd 50 15 5f bd 91 09 88 bd
       -0.05220972 -0.107279845 -0.054463685 -0.0664245
0002a0 e9 c3 41 3d b0 0c 52 bc a2 80 fd 39 63 f7 6d 3d
       0.047305975 -0.012820408 0.0004835176 0.058097254
0002b0 6b f1 c3 bd fb 91 09 3e 4a 90 04 3d 9e 92 87 3c
       -0.09567531 0.13434593 0.032364167 0.016549405
0002c0 2f 95 c3 bd 6c 40 b2 3d 42 5b a9 bd ae d8 f5 bd
       -0.09549939 0.08703694 -0.08269359 -0.12004219
0002d0 85 a3 21 3c a4 4d af 3d e1 0e c8 bd f8 89 57 3d
       0.009865646 0.08559731 -0.09768463 0.05262181
0002e0 48 fb 03 3c 91 69 e2 3c 55 56 49 bc c3 71 d6 3d
       0.008055516 0.027638229 -0.01228865 0.10470917
0002f0 ee 0c e9 3d 86 06 e4 3d 76 33 c7 bc 12 e4 9a bd
       0.11379419 0.11134057 -0.02431653 -0.07563032
000300 1b 36 7e 3c 60 04 bc 3d b0 9c e7 3d 7c f2 9a 3b
       0.015515829 0.09180522 0.11309183 0.0047286134
000310 27 f4 28 bd 01 fb af 3d 8c 21 a1 b8 b7 1e ed 3b
       -0.041248467 0.08592797 -7.683327e-05 0.0072363275
000320 ee 3f f9 3c 8b 93 b0 bd 4d 7d 26 bd 12 27 a7 3d
       0.030425992 -0.086218916 -0.04064684 0.08161749
000330 94 e3 63 bd 7c 50 e3 bd a7 f1 77 bd 45 05 c8 bd
       -0.055636957 -0.110993356 -0.060533192 -0.0976663
000340 12 2f 9f 3d 79 cb fa 3d b2 e9 91 bd 40 91 ba 3c
       0.0777265 0.122458406 -0.07124652 0.022774339
000350 96 13 b5 3b 15 4c 78 bd c4 53 e8 bd 73 27 ae 3b
       0.0055260165 -0.060619432 -0.11344102 0.0053147613
000360 27 22 ff 3d ce ee b4 3d 9c 15 ef 3d a1 7e 97 3d
       0.12457686 0.08834611 0.116740435 0.073971994
000370 6e b9 57 bd 8b 7a 9f 3d 1c b3 d9 3d 2d 36 21 bd
       -0.052667074 0.07787045 0.106298655 -0.039358307
000380 62 79 b9 3d c5 7f af bd 9a 6e 10 bd 18 55 d7 3d
       0.09056355 -0.08569292 -0.035261728 0.10514277
000390 5a 50 cf 3d db 2c 28 3c 32 a4 65 3d 5b f9 c2 3d
       0.10122748 0.010264601 0.056064792 0.09520217
0003a0 cd 77 b4 bc 86 2d 56 bd 09 21 a4 3c 64 87 ce 3d
       -0.022029782 -0.05228951 0.020035284 0.100844175
0003b0 1d 12 66 bd 9e 01 07 bd ed 59 fa bc 81 8d bd bd
       -0.056169618 -0.032960527 -0.030560458 -0.09255505
0003c0 b7 e1 85 3d 62 0f bb 3d d7 3d ea 3c f9 12 c8 3d
       0.06537192 0.091337934 0.02859394 0.09769244
0003d0 8d 32 8d 3d 89 15 47 bd 8c 01 5c 3d 90 93 97 3d
       0.068944074 -0.048604522 0.053712413 0.07401192
0003e0 59 29 ed 3d 0e 9f ed 3d 0e f9 af 3d 58 db 78 3d
       0.11580152 0.11602603 0.08592425 0.060756058
0003f0 ae 97 db 3d 60 bc 8a 3d a9 2f 07 3d 77 fc 0f 3e
       0.1072229 0.06774211 0.033004437 0.14061151
