models/temp_mini_lstm_best.pth (torch, 770333 bytes, 20 tensors)

lstm.weight_ih_l0 f4 [256, 111]
0	0x3ce43a26	0.027859759
1	0x3d5dde9a	0.054167368
2	0x3cc8f0c2	0.024528865
3	0x3d9f7cd9	0.07787485
4	0xbc48a30a	-0.012245903
5	0xbd7e99fe	-0.062158577
6	0xbc2fd99d	-0.010733035
7	0xbd5ff70f	-0.054678973
8	0xbc41bcdc	-0.011824813
9	0xbd26a4e4	-0.040684596
10	0xbd3071c9	-0.043077264
11	0xbce6e35b	-0.028184583
12	0xbdb84737	-0.08997958
13	0xbc08e590	-0.008355513
14	0x3dcf9639	0.101360746
15	0x3c5621d8	0.013069592
16	0x3da290eb	0.07937797
17	0x38990574	7.296624e-05
18	0x3d4a4aa5	0.049387593
19	0x3d6b22fc	0.05740641
20	0xbd217652	-0.03941948
21	0x3c6fb44e	0.01463039
22	0xbdb21c18	-0.08696765
23	0x3db1b991	0.08677972
24	0x3ca707ab	0.020389399
25	0x3d97ba8e	0.07408629
26	0x3d862407	0.065498404
27	0xbd517a4d	-0.051142026
28	0xbda3756f	-0.07981383
29	0xbde88cae	-0.113549575
30	0xbdc56c52	-0.09639801
31	0xbd044174	-0.032288983
32	0x3ddc4653	0.10755601
33	0x3dc89cdb	0.09795543
34	0x3da68c2f	0.08132207
35	0x3c3cf330	0.01153259
36	0x3d5ce0e9	0.05392543
37	0xbdd456c0	-0.10368109
38	0x39d439a1	0.00040478728
39	0xbb5fbcf3	-0.0034139722
40	0x3d4c9181	0.04994345
41	0x3c0fffe1	0.008789034
42	0x3c4568f8	0.012048952
43	0xbd63a46f	-0.055576738
44	0x3d57b57b	0.052663308
45	0xbc6c67cf	-0.014429047
46	0xbdc3ba91	-0.09557069
47	0x3b10dc86	0.0022104098
48	0x3de895f1	0.11356724
49	0x3d8fc4a5	0.07019929
50	0x3ce44c52	0.027868424
51	0x3d22c78b	0.03974108
52	0xbd7b443c	-0.06134437
53	0xbdd1473b	-0.10218664
54	0x3df804bc	0.12110278
55	0x3dad8d8c	0.084742635
56	0xbdd214e4	-0.10257891
57	0x3dd856b5	0.10563413
58	0x3d839522	0.06424929
59	0xbdb758b4	-0.08952466
60	0x3d96971b	0.0735304
61	0x3d9d1cef	0.07671534
62	0xbd9c560c	-0.076336
63	0xbd5ec414	-0.054386213
64	0x3d9a937f	0.07547664
65	0xbd0f094f	-0.034920987
66	0xbc17852c	-0.009248059
67	0xbdb8c5b7	-0.09022086
68	0xbdd3a620	-0.1033442
69	0xbdd16243	-0.1022382
70	0x3e04fe3f	0.12987612
71	0xbd85b7fd	-0.065292336
72	0x3d1e6b47	0.038676526
73	0xbcebca3c	-0.028782956
74	0x3cb94f4d	0.022620821
75	0xbd8629fe	-0.06550978
76	0x3e07338f	0.13203262
77	0x3df495b7	0.11942618
78	0xbd559012	-0.05213935
79	0x3dd6d0e5	0.10489062
80	0x3c3f77f4	0.011686314
81	0xbd62b9f0	-0.055353105
82	0xbda9e745	-0.08296064
83	0xbd864f91	-0.06558145
84	0x3d832ad1	0.06404651
85	0x3d96fca4	0.07372406
86	0xbdcd998a	-0.10039051
87	0xbd698d2a	-0.05701939
88	0xbcde2b1f	-0.027120171
89	0x3df197bb	0.117965184
90	0xbc87aa11	-0.016560586
91	0xbd1199d3	-0.03554709
92	0x3d4a6d5c	0.0494207
93	0x3d576b8b	0.052592795
94	0xbd9e11d0	-0.07718241
95	0x3d901939	0.07036061
96	0x3e081459	0.13289012
97	0x3c485470	0.012227163
98	0x3d62b4ca	0.055348195
99	0x3cf11e3f	0.029433368
100	0x3d784066	0.06060829
101	0x3c92978d	0.01789453
102	0xbc9e69fb	-0.019337645
103	0x3dd6e1fe	0.10492323
104	0x3d70d65f	0.05879819
105	0x3de4d856	0.11174075
106	0xbdc07b39	-0.09398503
107	0x3e020c95	0.12700112
108	0xbda69b14	-0.081350476
109	0x3e082c3d	0.13298126
110	0x3d3661c2	0.044526823
111	0x3c3e2002	0.011604311
112	0x3dc542ab	0.096318565
113	0xbd42f4a6	-0.047596596
114	0x3d459cc5	0.04824521
115	0xbd8953ed	-0.06705461
116	0xbdc49bc6	-0.09600024
117	0x3d3c8d0a	0.046032943
118	0x3d19d97b	0.03756092
119	0xbdc9043e	-0.09815262
120	0x3de60ecd	0.11233292
121	0xbde6dc36	-0.11272471
122	0xbda3ab7c	-0.079916924
123	0x3dbc0e2a	0.09182389
124	0xbddf490c	-0.109026045
125	0x3dc4e031	0.096130736
126	0x38331a68	4.270152e-05
127	0x3da5b749	0.080915995
128	0x3dfb01f3	0.12256231
129	0xbcc19a95	-0.02363328
130	0x3d947ab4	0.07249966
131	0x3d747d0b	0.059689563
132	0x3d97f102	0.074190155
133	0xbd389cb9	-0.045071337
134	0xbddff969	-0.10936243
135	0x3babc8b6	0.0052424325
136	0x3dfd5e4a	0.123715
137	0x3ccf6dd0	0.025320917
138	0x3c9ace04	0.018897064
139	0x3dcf7191	0.10129083
140	0xbde64ebf	-0.112454884
141	0x3cbcd67e	0.023051497
142	0x3ddb1bc4	0.10698655
143	0xbd0c0281	-0.034182075
144	0xbd8eb32e	-0.069677696
145	0x3cbfe1ed	0.02342316
146	0xbd661490	-0.056171954
147	0xbdccfc32	-0.1000904
148	0x3df951c8	0.12173802
149	0x3c19f17a	0.009395951
150	0xbbd66cfd	-0.006543754
151	0xbdba1b2c	-0.09087214
152	0x3de25a2c	0.11052355
153	0xbc6a4b96	-0.014300248
154	0xbd4006c3	-0.04688145
155	0xbddc69d3	-0.10762372
156	0xbdd5273b	-0.10407873
157	0xbdd9c199	-0.10632629
158	0xbdb69195	-0.08914486
159	0x3d37c7c6	0.044868253
160	0xbce3b9af	-0.027798502
161	0x3bb7e849	0.0056124073
162	0x3cefb612	0.029261623
163	0x3cc2eeb5	0.023795465
164	0x3dfceb59	0.123495765
165	0x3d175987	0.036950614
166	0x3c9599ae	0.018261757
167	0x3c380a62	0.011232944
168	0xbda383e5	-0.07984141
169	0x3d5153aa	0.05110518
170	0xbcbfe7dd	-0.02342599
171	0x3d846727	0.06464987
172	0xbd8b0638	-0.067882955
173	0xbddf13bb	-0.10892435
174	0xbc4cc8cb	-0.012499045
175	0xbd4abfa2	-0.04949916
176	0xbd99afad	-0.075042106
177	0xbd232cb6	-0.03983756
178	0x3dfeaaf6	0.12434952
179	0xbdb118e6	-0.08647327
180	0xbd9de899	-0.0771038
181	0x3d5a2a34	0.053262904
182	0xbc1f912e	-0.009739203
183	0x3c2bd47e	0.010487674
184	0xbc74c196	-0.014938733
185	0xbce61c23	-0.028089589
186	0xbd5e4261	-0.054262523
187	0x3c2737cd	0.010206175
188	0x38f23789	0.000115498035
189	0x3df25112	0.11831869
190	0xbda74185	-0.08166794
191	0x3dc986ee	0.09840189
192	0x3d499b75	0.04922052
193	0x3dbb0848	0.09132439
194	0x3cdf37d6	0.027248304
195	0x3dc54a35	0.096332945
196	0x3bb0e719	0.0053986427
197	0x3d95d24c	0.073155016
198	0xbdb1b0c8	-0.086762965
199	0x3a4a5950	0.0007718997
200	0xbdb13123	-0.0865195
201	0xbcb1ef9c	-0.0217207
202	0xbd3fac31	-0.046795074
203	0x3c993e54	0.018706478
204	0x3d11e6f5	0.03562065
205	0x3dc81dfe	0.097713456
206	0x3e03d7dc	0.12875313
207	0xbd068667	-0.03284302
208	0x3ca3e013	0.020004308
209	0x3bc47cde	0.0059963306
210	0xbdc6baca	-0.09703596
211	0x3d90a855	0.07063357
212	0x3d892d8f	0.06698143
213	0x3d07c6d0	0.033148587
214	0x3d8a3bab	0.06749662
215	0xbdacd953	-0.08439889
216	0x3e076f2f	0.13226007
217	0xbc5bc488	-0.013413556
218	0xbdc2ac7f	-0.09505557
219	0x3e0392dc	0.12848991
220	0xbda76f55	-0.08175532
221	0xbdc00c5c	-0.09377357
222	0xbccf6f69	-0.02532168
223	0xbe014172	-0.12622622
224	0x3d9c9370	0.07645309
225	0xbcdf53ab	-0.027261576
226	0x3d544ba2	0.05182994
227	0xbd0eb94e	-0.03484469
228	0x3c0c572e	0.008565707
229	0x3db5709d	0.0885937
230	0xbccc9d44	-0.024977334
231	0xbd3f9713	-0.046774935
232	0xbc4220c5	-0.011848633
233	0xbce8b664	-0.028407283
234	0x3c9fd9ca	0.01951303
235	0x3c04c335	0.008103182
236	0x3dd0f835	0.10203592
237	0xbd943289	-0.07236201
238	0xbd424e11	-0.04743773
239	0xbdadbe64	-0.0848358
240	0x3dca83ea	0.09888442
241	0x3db5f9ea	0.08885558
242	0x3d90f0da	0.07077189
243	0xbd8d6847	-0.06904655
244	0x3b4d828c	0.003135833
245	0xbabf8293	-0.0014611058
246	0xbe04a0ef	-0.12952016
247	0x3d2adf14	0.04171665
248	0x3d2d867d	0.042364586
249	0x3dc022db	0.09381648
250	0x3d3864f7	0.045018163
251	0x3ce66a7a	0.028126944
252	0x3d81ed1c	0.06344053
253	0x3d27fbbb	0.041011553
254	0x3c51053d	0.012757597
255	0x3de4b3ab	0.111670814

lstm.weight_hh_l0 f4 [256, 64]
0	0x3c035651	0.008016185
1	0x3d36f76a	0.044669546
2	0x3d7e3d0f	0.06206995
3	0x3dd704cb	0.10498961
4	0x3e11e46e	0.14247295
5	0x3dfa6f5c	0.12228271
6	0x3d8577f5	0.065170206
7	0x3c50a08a	0.012733588
8	0xbda5d433	-0.080971144
9	0xbd7da31d	-0.061923135
10	0xbcb4c8a6	-0.022068333
11	0xbc49db15	-0.0123203
12	0xbdbbc61e	-0.09168647
13	0x3dc75ecc	0.09734878
14	0x3d92ef43	0.07174542
15	0x3d6b3c3f	0.057430502
16	0xbd491181	-0.04908896
17	0xbdc8a0ea	-0.09796317
18	0x3d11b933	0.03557701
19	0xbde6e58a	-0.1127425
20	0xbb8c0f9c	-0.0042743217
21	0xbdfb5d0f	-0.12273609
22	0x3cdde631	0.027087303
23	0xbc9d1dfc	-0.019179337
24	0x3db35f47	0.08758407
25	0x3cf491c4	0.029854663
26	0x3b8462f3	0.004040116
27	0x3de9b26d	0.11410985
28	0x3daa5e68	0.08318788
29	0x3db7d41a	0.08976002
30	0x3d430bc4	0.047618642
31	0x3bb367a6	0.0054750023
32	0xbdce2103	-0.1006489
33	0x3c506e3a	0.012721593
34	0xbdb0301c	-0.08602926
35	0x3b24a3e3	0.0025122098
36	0x3df66431	0.12030829
37	0xb920092a	-0.00015262203
38	0xbc4f0f2b	-0.012637894
39	0xbd7e4021	-0.062072877
40	0x3def5104	0.116853744
41	0x3e0ee89e	0.13955924
42	0x3bef54e1	0.0073038195
43	0x3bd20a9a	0.006409955
44	0x3d5dec7d	0.05418061
45	0xbcf475bf	-0.029841302
46	0xbdc33f2e	-0.09533535
47	0xbe0b5348	-0.13605988
48	0x3d184422	0.03717435
49	0x3c91088a	0.017704267
50	0x3c83fdc7	0.016112221
51	0x3c1b917d	0.009495136
52	0xbdccb96e	-0.099963054
53	0x3dde8dc0	0.108668804
54	0xbd9ed7d5	-0.077560104
55	0x3cc4c6b9	0.02402054
56	0x3dc10d62	0.09426381
57	0x3d5dc947	0.05414703
58	0xbdac3632	-0.084087744
59	0x3d3bf1bd	0.045884836
60	0x3dba6321	0.091009386
61	0x3d85df86	0.06536774
62	0xbd535367	-0.05159321
63	0xbcb044c5	-0.021517167
64	0x3d7a5d6d	0.061124254
65	0x3d89d5ed	0.06730256
66	0xbddaffd8	-0.106933296
67	0xbd8a1417	-0.06742113
68	0xbde123c0	-0.10993147
69	0xbcc86849	-0.02446379
70	0xbdb1ee93	-0.086880825
71	0xbe0e5d4f	-0.13902782
72	0x3d8661de	0.065616354
73	0xbd2733c5	-0.040820856
74	0xbd31bb7b	-0.043391686
75	0x3d0898d1	0.033348862
76	0xbdf80fca	-0.121123865
77	0x3da42030	0.08013952
78	0xbd5b3656	-0.053518616
79	0x3d8465e6	0.06464748
80	0x3d8c53c7	0.06851917
81	0x3cf25044	0.02957929
82	0xbbaeb587	-0.0053316983
83	0x3d11f738	0.035636157
84	0x3dbfd030	0.093658805
85	0x3d6d644b	0.057956975
86	0xbdc14529	-0.094370194
87	0x3d740ff4	0.059585527
88	0x3d765521	0.06013978
89	0xbda1a309	-0.078924246
90	0xbd6a4ce3	-0.05720223
91	0xbdb620ca	-0.08892973
92	0xbd87b8ef	-0.0662707
93	0xbb44fc82	-0.0030057733
94	0xbdfe2c9b	-0.124108516
95	0x3cd34ca3	0.02579338
96	0x3d88e51e	0.06684326
97	0x3d4eb692	0.05046708
98	0x3db2d250	0.0873152
99	0xbdc037a1	-0.0938561
100	0x3d79c10a	0.060975112
101	0xbd4cc987	-0.04999688
102	0xbdd75ff7	-0.10516351
103	0x3d0f7183	0.035020363
104	0x3d612d68	0.054974943
105	0xbd7f81dd	-0.062379707
106	0xbdd7d5ed	-0.1053885
107	0x3dd33a76	0.10313885
108	0x3bc9e0c8	0.006160829
109	0x3bb73097	0.005590509
110	0xbd9b5e99	-0.075864024
111	0x3d6dc730	0.058051288
112	0x3d9b5cfd	0.075860955
113	0xbc994dde	-0.018713888
114	0xbc5ffea4	-0.013671551
115	0xbd1e94bb	-0.03871606
116	0xbb2529b3	-0.0025201857
117	0x3cb7f426	0.022455286
118	0xbc9b470b	-0.018954774
119	0xbdc38c24	-0.09548214
120	0x3e005440	0.12532139
121	0x3e07db32	0.1326721
122	0xbd02eb83	-0.031962883
123	0xbc37eee7	-0.011226392
124	0xbd364349	-0.044497762
125	0x3d18f70e	0.037344985
126	0xbdf3db9c	-0.119071215
127	0x3db2ee15	0.08736817
128	0xbd917f41	-0.0710435
129	0x3c6b4b02	0.014361145
130	0x3da340e7	0.079713635
131	0xbcf710dc	-0.030159406
132	0xbdc5e55f	-0.0966289
133	0xbbe3ece5	-0.0069557303
134	0x3d05be70	0.03265232
135	0x3da91781	0.08256436
136	0x3d61dd48	0.05514267
137	0x3d5517bc	0.052024588
138	0xbd55df80	-0.0522151
139	0xbc96dd92	-0.0184162
140	0xbd526d05	-0.0513735
141	0x3d9449c7	0.072406344
142	0xbd8680aa	-0.065675095
143	0xbd4f3fa3	-0.050597798
144	0xbdc7ebe3	-0.09761789
145	0x3cd65ae0	0.02616638
146	0xbc1abd50	-0.00944455
147	0x3d8a8a66	0.06764679
148	0x3d9289e0	0.07155204
149	0xbd4b6106	-0.049653076
150	0x3db19d94	0.08672634
151	0x3de7fa70	0.11327064
152	0x3d043904	0.032280937
153	0xbc396a53	-0.011316854
154	0x3cf9e6c2	0.030505542
155	0xbddc1094	-0.107453495
156	0x3ac9c04c	0.0015392392
157	0xbd159b08	-0.036524802
158	0xbd04bf31	-0.032408897
159	0xbdcf2d05	-0.10116009
160	0x3bc81a38	0.006106641
161	0x3d1cf703	0.038321506
162	0x3db2c4f3	0.08728971
163	0xbcc5260e	-0.024065997
164	0xbe067ac8	-0.13132775
165	0x3e0162c8	0.12635338
166	0xbd6f5776	-0.05843302
167	0xbdde6703	-0.10859492
168	0x3dd04aaf	0.10170495
169	0xbd6bf97a	-0.057610966
170	0x3e03d21d	0.1287312
171	0xbd9fb987	-0.077990584
172	0xbdd4ffbe	-0.104003415
173	0xbd4b205c	-0.049591407
174	0xbdca144f	-0.09867155
175	0x3d9f1d6d	0.077692844
176	0xbc946ea4	-0.018119164
177	0xbda47021	-0.080291994
178	0x3d9827f9	0.07429499
179	0xbd088159	-0.03332648
180	0x3d9bebf6	0.07613365
181	0x3d691c7a	0.056911923
182	0xbd195988	-0.0374389
183	0xbce808a0	-0.028324425
184	0x3cfe3c65	0.031034658
185	0xbdb08db5	-0.086207785
186	0x3d5c74cb	0.05382232
187	0x3dc61300	0.09671593
188	0x3d32ec0f	0.043682154
189	0xbdc0bc2a	-0.094108894
190	0xbdb986f8	-0.09058946
191	0x3da1c708	0.0789929
192	0xbdf1646a	-0.117867306
193	0x3de44d93	0.111476086
194	0x3ded39a3	0.11583259
195	0x3d0f3894	0.034966066
196	0xbdd1911f	-0.10232758
197	0x3de10420	0.10987115
198	0x3d93530e	0.07193576
199	0xbde02505	-0.10944561
200	0x3ce2a631	0.027667137
201	0x3d8cd948	0.068773806
202	0x3c896529	0.01677187
203	0xbcb1c8a4	-0.021702118
204	0x3cb13d50	0.021635681
205	0x3d0d4720	0.03449166
206	0x3d11f6c9	0.035635743
207	0xbc1a30ce	-0.00941105
208	0xbbf1d4fb	-0.0073801256
209	0x3ddd006d	0.10791097
210	0xbd826c83	-0.06368353
211	0xbdcfc6f3	-0.101453684
212	0x3dc6b05f	0.09701609
213	0xbd696625	-0.05698218
214	0x3d8259d9	0.06364793
215	0x3cc3af0e	0.023887184
216	0x3d4e258d	0.05032878
217	0xbdbcc766	-0.0921772
218	0xbde5dfc0	-0.112243176
219	0x3db9fdf4	0.09081641
220	0xbddf8eef	-0.10915934
221	0xbe04c784	-0.12966734
222	0x3d3ce6c7	0.046118524
223	0xbdc9c308	-0.098516524
224	0xbdbbd50c	-0.09171495
225	0x3d81944f	0.06327116
226	0xbd2b7759	-0.041861866
227	0xbaf362f0	-0.0018568914
228	0x3d33946b	0.043842714
229	0xbdece21a	-0.11566563
230	0x3d30e242	0.043184526
231	0x3dedbcfa	0.1160831
232	0xbcdf0075	-0.027221898
233	0xbdb1ffbd	-0.08691356
234	0xbcf4bbe8	-0.029874757
235	0xbd8a958b	-0.06766804
236	0x3df87d15	0.121332325
237	0xbce52628	-0.027972296
238	0xbcf915d6	-0.03040592
239	0x3d828a8a	0.063740805
240	0xbdadb908	-0.084825575
241	0xbe123328	-0.14277327
242	0xbd891e24	-0.06695202
243	0x3dce07d0	0.10060084
244	0xbdac3113	-0.08407798
245	0xbd96069a	-0.07325478
246	0x3c6db964	0.014509533
247	0x3c626b18	0.013819478
248	0x3e0f7a80	0.14011574
249	0xbdbc8bf6	-0.09206383
250	0x3e13a629	0.14418854
251	0xbd1f6746	-0.03891685
252	0xbcf52a0a	-0.029927272
253	0x3d31357b	0.043263894
254	0x3d68da6a	0.05684892
255	0x3e04ee5e	0.12981555

lstm.bias_ih_l0 f4 [256]
0	0x3dccf52a	0.10007699
1	0x3c641981	0.013922096
2	0xbd1c6d30	-0.038190067
3	0x3de04339	0.10950322
4	0xbdd68c7c	-0.10476014
5	0x3ca376d9	0.019954132
6	0x3d2e6bd0	0.042583287
7	0x3df28479	0.118416734
8	0xbe0979db	-0.1342539
9	0xbcb987d5	-0.022647778
10	0xbd8c91b8	-0.06863731
11	0xbd6c93d9	-0.057758186
12	0xbd4fdcec	-0.050747797
13	0x3dace1b2	0.084414855
14	0x3c67cf45	0.014148538
15	0xbda22637	-0.07917445
16	0x3d49b743	0.049247038
17	0x3cd686f9	0.026187407
18	0x3d800572	0.062510386
19	0x3cbcae9e	0.023032483
20	0x3cabd423	0.020975178
21	0xbdeaf51f	-0.114725344
22	0xbc03a3db	-0.008034672
23	0x3da6824a	0.081303194
24	0x3d8de09f	0.06927609
25	0xbb51570c	-0.0031942753
26	0xbce1ad17	-0.027548356
27	0x3cc3c3ae	0.023897018
28	0x3dd7dec3	0.10540535
29	0x3d8958f6	0.06706421
30	0x3daf767d	0.08567522
31	0x3da79947	0.08183532
32	0xbcb52acc	-0.022115134
33	0x3d2241d7	0.03961357
34	0xbdbc82cb	-0.09204634
35	0x3dad3efc	0.08459279
36	0x3da18e1e	0.07888435
37	0x3b8a55c9	0.004221652
38	0x3cb419b6	0.021984916
39	0x3dce4d11	0.10073293
40	0x3dad236f	0.08454024
41	0xbcff1ebf	-0.03114259
42	0xbdee492e	-0.11635052
43	0x3dc7475c	0.097304076
44	0xbd58f909	-0.052971873
45	0xbd8695fb	-0.06571575
46	0x3dbeb9e2	0.09312798
47	0x3d8af19a	0.06784363
48	0xbd8cb42b	-0.06870302
49	0x3e0cacbb	0.13737766
50	0xbd73ed7a	-0.059552647
51	0x3d2ad9f2	0.041711755
52	0x3cbcab8f	0.023031024
53	0xbcbe6895	-0.023243228
54	0xbda258ad	-0.0792707
55	0x3dc8aaae	0.097981796
56	0x3d8440eb	0.064576946
57	0x3e0840a9	0.13305916
58	0xbd8d8df1	-0.06911839
59	0x3d413dac	0.047177956
60	0xbd83dc4b	-0.06438502
61	0x3d443ff9	0.04791257
62	0xbd65b8a7	-0.0560843
63	0xbc885764	-0.016643234
64	0xbb45d7f4	-0.0030188533
65	0x3d0600b7	0.032715525
66	0x3c196044	0.00936133
67	0x3de773eb	0.113014065
68	0x3d92ff00	0.07177544
69	0x3e097d33	0.13426666
70	0xbcaa0079	-0.020752179
71	0x3e0947f5	0.13406356
72	0x3d912c02	0.07088472
73	0x3c0456ff	0.008077382
74	0x3cd8325c	0.0263912
75	0xbd2da08a	-0.04238943
76	0x3e0cc861	0.13748313
77	0x3ce02d67	0.0273654
78	0x3ddebd3c	0.10875937
79	0xbd58eedf	-0.05296218
80	0xbe0b0606	-0.13576517
81	0x3dc1acab	0.09456762
82	0xbd9b019a	-0.07568665
83	0xbca4f0f1	-0.020134421
84	0x3dbd43c6	0.092414424
85	0x3a4be5a2	0.00077780534
86	0xbdee4b7c	-0.11635491
87	0xbd8aced4	-0.067777306
88	0xbd278107	-0.040894534
89	0x3d81cf26	0.063383386
90	0x3de69837	0.112595014
91	0xbdd87ef0	-0.105710864
92	0x3d410197	0.047120657
93	0xbc0c66df	-0.008569448
94	0x3d9f5979	0.077807374
95	0x3cbd0457	0.023073358
96	0xbbd7f058	-0.0065899305
97	0x3b93bfcb	0.0045089475
98	0x3dbed89b	0.09318658
99	0xbd9145dc	-0.07093403
100	0x3b2a7b89	0.0026013574
101	0x3c93982b	0.018016895
102	0x3cf075d2	0.029353056
103	0xbd86510c	-0.06558427
104	0x3dcb252c	0.09919199
105	0x3e0371c4	0.12836367
106	0xbd6db116	-0.05803021
107	0x3c4ef0c4	0.012630645
108	0x3d66e2bf	0.056368586
109	0x3da01a42	0.07817508
110	0xbd1f0444	-0.038822427
111	0xbdb230b6	-0.08700697
112	0x3de505ca	0.11182745
113	0xbd7bcca0	-0.061474442
114	0xbd629530	-0.055318058
115	0x3cde993e	0.027172681
116	0xbce98b5b	-0.028508833
117	0x3de36694	0.111035496
118	0x3dfa8cac	0.12233862
119	0x3d8ebb20	0.06969285
120	0xbdd8b7ee	-0.10581957
121	0xbcba7392	-0.022760186
122	0x3df30d0a	0.118677214
123	0xbbbf91e9	-0.0058462513
124	0x3d6296f8	0.055319756
125	0xbd922907	-0.071367316
126	0x37b9f660	2.2168446e-05
127	0xbd9bf610	-0.07615292
128	0xbdab3207	-0.08359151
129	0x3d4ebdca	0.050473966
130	0xbdcbac24	-0.099449426
131	0xbd5ad949	-0.053429876
132	0x3da90cad	0.08254371
133	0xbc14455c	-0.00904974
134	0xbd4962cb	-0.049166482
135	0xbdc5bcc1	-0.096551426
136	0x3dd28989	0.10280139
137	0xbceb9245	-0.02875627
138	0xbd27def5	-0.040984113
139	0xbde40fe0	-0.111358404
140	0xbd3e69ce	-0.046487622
141	0x3dcd3001	0.10018922
142	0x3d6c0e15	0.057630617
143	0x3de531c7	0.11191135
144	0xbdd28174	-0.102785975
145	0x3d303b8f	0.04302555
146	0x3de93606	0.11387257
147	0xbdf6e2f5	-0.12055007
148	0x3d2f7546	0.04283645
149	0x3d9130f2	0.07089414
150	0xbd54f47a	-0.051990964
151	0xbdeb2cd5	-0.114831604
152	0x3d05b93a	0.03264735
153	0xbdb5b645	-0.08872656
154	0xbdbbd019	-0.09170551
155	0xbcd70fa0	-0.026252568
156	0x3dbc765b	0.09202262
157	0xbcde437c	-0.027131788
158	0x3dbd770d	0.09251223
159	0x3cfc6a88	0.030812517
160	0xbd91fb6f	-0.07128035
161	0x3d66533b	0.05623172
162	0xbcbe4bb9	-0.023229467
163	0xbb324b7f	-0.0027205644
164	0x3dcdc9fe	0.100482926
165	0xbc406da6	-0.011744892
166	0xbd7a0d22	-0.06104768
167	0xbd6ff78a	-0.05858568
168	0xbda082d0	-0.078374505
169	0xbdb5684d	-0.088577844
170	0x3de5aaa1	0.112141855
171	0x3da9bf5b	0.08288451
172	0x3dd93076	0.10604946
173	0x3d74f421	0.059803132
174	0x3df78575	0.12086002
175	0xbde73a45	-0.11290411
176	0x3df0505f	0.117340796
177	0xbdffeba0	-0.12496114
178	0x3d8ff4ee	0.070291385
179	0xbd89312d	-0.06698833
180	0xbce127e9	-0.027484851
181	0xbde4c1d0	-0.11169779
182	0xbc059174	-0.0081523545
183	0xbd751c62	-0.05984152
184	0xbd67486b	-0.056465548
185	0xbdf95bff	-0.1217575
186	0x3d0d5f0f	0.034514483
187	0x3d20f0af	0.039292034
188	0x3e04dae1	0.1297412
189	0x3abc1a51	0.0014351105
190	0x3c2007fb	0.009767528
191	0xbdb0beb9	-0.086301275
192	0x3b5b8ca5	0.0033500579
193	0x3d42a091	0.04751641
194	0x3db17b73	0.08666124
195	0xbd624717	-0.055243578
196	0x3b2ced04	0.002638639
197	0xbc8d1c1f	-0.017225323
198	0xbc45899d	-0.012056735
199	0xbd001632	-0.031271167
200	0xbd3ca291	-0.046053473
201	0x3dfb66ec	0.1227549
202	0x3dab6825	0.08369473
203	0x3daef9d2	0.08543743
204	0x3c267533	0.010159778
205	0x3cf0bc57	0.029386682
206	0xb9fbf526	-0.000480571
207	0x3c915d91	0.017744811
208	0xbd69224a	-0.056917466
209	0xbdddc6dc	-0.10828945
210	0xbd0a105e	-0.033707015
211	0x3dd47473	0.103737734
212	0x3d2bf62d	0.04198282
213	0xbdb616a7	-0.08891039
214	0xbdec3440	-0.115334034
215	0x3d861335	0.06546632
216	0x3d4d1d62	0.05007685
217	0xbc9a683a	-0.018848527
218	0x3d9fd0f5	0.07803527
219	0xbd4df479	-0.050281975
220	0xbd8fb5e0	-0.07017112
221	0x3e02b227	0.12763272
222	0xb95164e3	-0.00019969376
223	0xbd8f1e4c	-0.069882005
224	0xbbef15dc	-0.007296307
225	0xbd546f75	-0.051864106
226	0x3b26e5b7	0.002546651
227	0x3d4b6ddd	0.04966532
228	0xbd987c86	-0.07445626
229	0x3cf8350b	0.03029873
230	0x3de6d535	0.11271135
231	0x3bfc30f4	0.0076962654
232	0xbd95954c	-0.07303867
233	0x3dfa98e9	0.122361965
234	0x3da2616b	0.07928737
235	0x3db785eb	0.0896109
236	0xba81b0f2	-0.0009894653
237	0x3db2a7c2	0.087234035
238	0x3dbe3365	0.092871465
239	0x3d5e8b32	0.054331966
240	0xbcdce536	-0.026964765
241	0x3d1dee95	0.038557608
242	0xbdb51e62	-0.08843686
243	0x3ddc2739	0.10749669
244	0x3de9d39c	0.114173144
245	0x3d8d6c0a	0.069053724
246	0x3cc2260a	0.023699779
247	0x3cf7c2f1	0.030244322
248	0xbd772926	-0.060341977
249	0xbdd639e5	-0.10460261
250	0xbde0758a	-0.10959919
251	0x3c30754e	0.010770155
252	0xbd626ee5	-0.05528154
253	0x3dc072d8	0.09396905
254	0x3d995b18	0.07488078
255	0xbd4f94bb	-0.05067895

lstm.bias_hh_l0 f4 [256]
0	0x3dfc42f3	0.12317457
1	0xbd077312	-0.033068724
2	0xbe063cd1	-0.13109137
3	0xbd875520	-0.06608033
4	0x3dd2ffdd	0.10302708
5	0xbd092e8f	-0.033491667
6	0xbc94fc2c	-0.018186651
7	0xbd49a2e6	-0.049227618
8	0xbcd2752c	-0.025690638
9	0x3bae96c1	0.00532803
10	0x3da9e6ea	0.082959965
11	0xbd070de0	-0.032972217
12	0x3ddfb52f	0.1092323
13	0xbde8090b	-0.1132985
14	0x3dbf48f8	0.093400896
15	0xbc87863d	-0.016543502
16	0xbd90d748	-0.07072312
17	0xbdfbe1a9	-0.12298901
18	0xbd8521e5	-0.065006055
19	0x3e0d398d	0.13791485
20	0x3d96fe60	0.07372737
21	0xbda61b87	-0.08110719
22	0xbdef4a7d	-0.116841294
23	0x3df4c676	0.11951916
24	0x3dea6743	0.11445477
25	0x3d8afd01	0.06786538
26	0x3d86587e	0.06559847
27	0x36b1ebd8	5.302467e-06
28	0x3d87baa3	0.06627395
29	0x3e0bd052	0.13653687
30	0x3db1fd77	0.08690923
31	0xbd80dcb3	-0.06292095
32	0x3dd45654	0.10368028
33	0x3cdba359	0.026811289
34	0x3b41100a	0.0029459023
35	0xbd13bcc3	-0.03606869
36	0xbd9b9d26	-0.07598333
37	0xbd340858	-0.04395327
38	0x3a976199	0.0011549472
39	0xbc7d2bd7	-0.015452347
40	0xbd8bc8e7	-0.068254285
41	0x3d1183d7	0.035526123
42	0x3dbe0148	0.09277588
43	0x3c6b193c	0.014349278
44	0xbd376780	-0.04477644
45	0x3e081fef	0.13293432
46	0x3dcbb269	0.099461384
47	0xbd8b16d2	-0.06791462
48	0xbd9635a1	-0.07334448
49	0x3e08fb72	0.13377169
50	0x3ca10304	0.019654758
51	0xbdbaaa46	-0.09114508
52	0x3dce46dd	0.1007211
53	0xbd8857b0	-0.0665735
54	0x3da00a25	0.07814435
55	0x3ca654e0	0.020304143
56	0x3d1b86ea	0.03797046
57	0x3db6273c	0.08894202
58	0x3d874989	0.066058226
59	0xbd9a618d	-0.075381376
60	0xbd947ebb	-0.072507344
61	0x3bec79f8	0.0072166882
62	0xbd1fb166	-0.03898754
63	0xbdafe7bc	-0.08589122
64	0xbdfe47b3	-0.12416019
65	0xbd4bd58c	-0.0497642
66	0xbcae9f4f	-0.021316199
67	0x3d7f4538	0.06232187
68	0xbc517d5f	-0.012786238
69	0x3bb24a40	0.00544098
70	0x3dac221c	0.08404943
71	0xbcb7281f	-0.022357998
72	0x3de1ff14	0.110349804
73	0xbdd79b7b	-0.105277024
74	0xbd050792	-0.032477923
75	0x3ddba364	0.10724524
76	0x3db3e677	0.08784192
77	0xbdad551a	-0.084634975
78	0xbb6743b0	-0.0035288148
79	0xbda59d6e	-0.08086668
80	0x3d9bfe0f	0.07616817
81	0x3d9a5914	0.075365216
82	0x3d288f21	0.041152123
83	0x3daafc91	0.083489545
84	0xbd2bdd42	-0.041959055
85	0x3c8080ca	0.015686411
86	0xbd81ce38	-0.06338161
87	0x3d8ac84b	0.06776484
88	0x3d11be6b	0.035581987
89	0xbd50d315	-0.050982554
90	0x3de12a01	0.1099434
91	0xbbfd1579	-0.007723507
92	0x3d09173e	0.03346943
93	0x3e18aa35	0.14908679
94	0x3c35f39e	0.011105446
95	0x3d9408c8	0.072282374
96	0xbd013a26	-0.031549595
97	0xbd59cb21	-0.053172234
98	0xbd1f253e	-0.038853876
99	0xbd99b234	-0.07504693
100	0x3d1cab11	0.03824908
101	0xbcd33b6b	-0.025785169
102	0x3d2a9185	0.041642684
103	0xbd1732cc	-0.036913678
104	0x3d68428d	0.056704093
105	0x3c5d752a	0.013516704
106	0x3d2edd48	0.0426915
107	0xbdaa6bc0	-0.08321333
108	0xbd74d0f4	-0.059769586
109	0xbdb993d2	-0.090613976
110	0x3d2edf0a	0.042693175
111	0xbdba3226	-0.09091596
112	0x3d00319e	0.03129732
113	0x3de2ab5b	0.1106784
114	0xbdcecae3	-0.10097291
115	0x3da2ef41	0.0795579
116	0x3aef0720	0.0018236376
117	0x3d2af23f	0.04173493
118	0xbcef4875	-0.029209355
119	0x3c5e280f	0.013559355
120	0xbd2c89e9	-0.04212371
121	0xbd626bbb	-0.05527852
122	0xbd33b6cb	-0.043875497
123	0x3cfb7112	0.030693565
124	0x3dfce023	0.12347438
125	0x3ca753c3	0.020425683
126	0x3df58b3a	0.11989446
127	0x3c8655d2	0.016398344
128	0x3d88dc2f	0.06682622
129	0xbd2a3bcb	-0.04156093
130	0x3d0154a2	0.031574853
131	0xbde51e7a	-0.111874536
132	0xbdbe1051	-0.09280456
133	0xbcc0bdc6	-0.023527991
134	0x3b6d28da	0.003618768
135	0x3c66633f	0.014061748
136	0x3cf18a49	0.029484885
137	0xbdc66622	-0.09687449
138	0xbdc31d9e	-0.095271334
139	0xbd4907ea	-0.049079813
140	0x3e018e27	0.12651883
141	0x3db4082d	0.08790622
142	0x3df18ccf	0.11794435
143	0xbe01fb57	-0.12693535
144	0x3dfb1f3a	0.12261815
145	0x3db84d5e	0.089991316
146	0x3c47b931	0.012190149
147	0xbdb1da67	-0.08684235
148	0x3df56779	0.119826265
149	0xbdc31115	-0.095247425
150	0x3d45fa72	0.048334546
151	0xbd83a63f	-0.06428193
152	0x3bc23165	0.0059262984
153	0xbd70f077	-0.058823075
154	0xbdf51bcb	-0.11968192
155	0xbdc097cd	-0.09403954
156	0x3c1b20ee	0.0094683
157	0xbdd7166d	-0.10502324
158	0xbb8c36fc	-0.0042790156
159	0x3d873d71	0.06603516
160	0xbd9af891	-0.075669415
161	0xbb7d4128	-0.0038643572
162	0x3de6ead7	0.11275261
163	0x3c918ef4	0.01776836
164	0xbda156b0	-0.078778625
165	0xbc8cc418	-0.017183349
166	0x3de738fd	0.112901665
167	0x3dadcfbf	0.0848689
168	0xbd0264ed	-0.03183453
169	0xbd772daa	-0.060346283
170	0xbd8fac65	-0.070153035
171	0xbdd83b6b	-0.10558208
172	0x3dd80a4c	0.10548839
173	0xbdb6f6aa	-0.08933766
174	0x3dc08a61	0.09401394
175	0xbdca7a97	-0.098866634
176	0xbc8ef1ed	-0.017449344
177	0xbdfca8e1	-0.123368986
178	0xbcc0d1b5	-0.023537496
179	0x3d7dd906	0.061974548
180	0x3dac8f3e	0.08425759
181	0xbd07f0a0	-0.033188462
182	0xbcec328d	-0.028832698
183	0x3ca2f5b4	0.019892551
184	0x3b2ca04c	0.0026340662
185	0x3dd7ce99	0.10537452
186	0x3c4b4f5c	0.0124090575
187	0x3d2488f6	0.04016968
188	0xbb82379b	-0.003973914
189	0x3e05af24	0.13055092
190	0xbd04ee8c	-0.03245406
191	0xbca5ddb3	-0.020247316
192	0xbd9c1621	-0.07621408
193	0x3cb38bb1	0.021917196
194	0xbdadd68d	-0.08488188
195	0x3c90f374	0.017694212
196	0xbdd97e1b	-0.10619756
197	0x3d89159d	0.066935755
198	0x3dbd3df3	0.092403315
199	0x3d02068a	0.031744517
200	0x3de48b79	0.11159415
201	0x3ce98722	0.02850682
202	0x3c221d6a	0.009894708
203	0x3ded36b7	0.11582702
204	0x3deb4221	0.114872225
205	0xbd856878	-0.065140665
206	0x3dcc6788	0.099806845
207	0xbdab0d6c	-0.083521694
208	0xbdcb329c	-0.09921762
209	0x3d3449a5	0.044015545
210	0xbb13d296	-0.002255594
211	0xbdc5693c	-0.096392125
212	0x3d66fa12	0.05639083
213	0x3d0a06e8	0.033697993
214	0x3d986b34	0.074423224
215	0xbdcd34f4	-0.10019866
216	0x3d353e38	0.04424879
217	0xbdb49d45	-0.08819059
218	0x3cbb80ad	0.022888506
219	0xbbc93b1e	-0.0061410805
220	0xbdf70df2	-0.12063207
221	0x3dbddf0d	0.09271059
222	0x3db3a02e	0.08770786
223	0x3e00f428	0.12593138
224	0x3d8f4050	0.069946885
225	0x3cf89116	0.03034262
226	0x3d1ad03c	0.037796244
227	0xbc15b0f6	-0.009136429
228	0x3d8ee810	0.06977856
229	0xbca09d83	-0.019606357
230	0x3daa240b	0.08307656
231	0x3da18d3d	0.07888267
232	0x3db1eeb0	0.08688104
233	0xbc05c8a2	-0.00816551
234	0xbca9ef01	-0.020743849
235	0xbd96e0a1	-0.07367063
236	0xbc886279	-0.016648518
237	0x3c6f3c5b	0.014601792
238	0xbc39eef7	-0.011348478
239	0xbdfb0947	-0.12257629
240	0x3d9c4b05	0.07631496
241	0xbdab8624	-0.08375195
242	0xbd420e7c	-0.047377095
243	0xbbaf71a4	-0.005354123
244	0xbdca1f46	-0.09869246
245	0x3cf2ce65	0.029639432
246	0xbd30cd43	-0.043164503
247	0x3d7a5b8b	0.06112246
248	0x3d0d06c3	0.034430277
249	0x3d88ca8d	0.066792585
250	0x3d8943ca	0.06702383
251	0x3d51712e	0.051133327
252	0x3c3831fd	0.011242387
253	0x3d4c183c	0.0498278
254	0x3d66374c	0.05620508
255	0xbcb63efa	-0.022246826

lstm.weight_ih_l0_reverse f4 [256, 111]
0	0x3e0e48ee	0.13895008
1	0xbd9d86da	-0.076917365
2	0xbcd0ba7e	-0.025479551
3	0xbd8e7b2e	-0.069570884
4	0x3b4d62d0	0.0031339414
5	0x3d260434	0.040531352
6	0x3be26b6b	0.006909778
7	0x3d88bc14	0.06676498
8	0xbdb28eb5	-0.087186255
9	0xbc94887a	-0.018131483
10	0xbd297c3d	-0.04137825
11	0xbc7aca84	-0.015307073
12	0xbdbb012a	-0.091310814
13	0x3b90bb96	0.0044168932
14	0xbd122995	-0.035684187
15	0xbbdda870	-0.006764464
16	0x3e024ff4	0.12725812
17	0xbdaa6787	-0.083205275
18	0xbc1ba79a	-0.009500409
19	0xbd817d5e	-0.0632274
20	0xbb9518c8	-0.0045500733
21	0xbca25207	-0.019814504
22	0xbd58a5a5	-0.052892346
23	0x3d499224	0.049211636
24	0x3d07a131	0.03311271
25	0xbda20f3f	-0.07913064
26	0x3dd07a2c	0.101795524
27	0x3df2b894	0.11851612
28	0x3c866461	0.016405286
29	0x3d9f390a	0.07774551
30	0xbd30f007	-0.043197658
31	0x3d2f0f8f	0.042739447
32	0x3cf5d654	0.030009426
33	0xbdcf7b43	-0.10130932
34	0xbbb14fd9	-0.00541113
35	0x3d35d4eb	0.044392508
36	0x3d8ed166	0.06973533
37	0x3d2abdf3	0.041685056
38	0xbdceaeff	-0.100919716
39	0xbda57915	-0.08079735
40	0x3de0afc0	0.10971022
41	0xbcb4cf3c	-0.022071473
42	0x3ce2fe99	0.027709292
43	0x3d5ae714	0.05344303
44	0xbd4e0da4	-0.050305977
45	0xbdb1153b	-0.086466275
46	0xbd07e3e2	-0.03317631
47	0xbcfcf3f7	-0.03087805
48	0x3bd98a9b	0.0066388375
49	0xbe0030d6	-0.1251863
50	0xbdf44caf	-0.11928689
51	0xbd8fa317	-0.07013529
52	0x3dd9b038	0.10629314
53	0xbd81f00c	-0.063446134
54	0xbd7b75a7	-0.0613915
55	0x3dd33d54	0.10314432
56	0xbdf5b22b	-0.119968735
57	0x3d19e1ad	0.037568737
58	0x3db23fdd	0.08703587
59	0xbd29d107	-0.04145911
60	0x3deb2217	0.114811115
61	0xbce9ce24	-0.028540678
62	0x3db522d6	0.08844535
63	0xbda383a8	-0.07984096
64	0xbd8b2685	-0.067944564
65	0x3d60231c	0.054720983
66	0x3dd71d2f	0.10503613
67	0xbdc675a2	-0.096904054
68	0xbcf23bd4	-0.029569544
69	0x3cbe92ec	0.023263417
70	0x3ce10a5c	0.02747076
71	0x3dd60948	0.10450989
72	0xbcf830ac	-0.030296646
73	0x3d1ebd4b	0.038754743
74	0x3dd49cac	0.10381445
75	0x3b0f17dd	0.0021834292
76	0xbde78324	-0.1130431
77	0x3d98d317	0.07462137
78	0xbc912489	-0.017717617
79	0x3d6df359	0.058093403
80	0xbcd3e438	-0.02586566
81	0x3d7cad33	0.061688613
82	0xbd2bc735	-0.041938026
83	0x3dc08a66	0.094013974
84	0x3b9efcbc	0.0048519056
85	0xbaf07832	-0.0018346368
86	0xbd93d47c	-0.072182626
87	0x3b594978	0.0033155363
88	0xbcbc8b0f	-0.023015527
89	0xbd341079	-0.043961022
90	0xbd39e582	-0.04538489
91	0xbe059a1a	-0.13047066
92	0xbdb8e344	-0.090277225
93	0xbdda3724	-0.106550485
94	0x3ded2a7b	0.11580368
95	0x3cf3d04e	0.029762413
96	0x3e0030e5	0.12518652
97	0xbd8cfa1a	-0.068836406
98	0xbd519f2e	-0.051177196
99	0xbdf934fd	-0.1216831
100	0x3d2b71b7	0.041856494
101	0xbc6c6f58	-0.014430843
102	0x3dd494b2	0.10379924
103	0x3d9e3fb8	0.07726997
104	0xbdecf087	-0.115693145
105	0xbe01c33a	-0.1267213
106	0x3d8388cd	0.06422577
107	0x3dce7876	0.1008157
108	0xbd039d95	-0.032132704
109	0xbdd41664	-0.10355833
110	0xbaccbc27	-0.0015620039
111	0xbdbadd91	-0.09124292
112	0xbd0817ed	-0.033225942
113	0xbdbd5693	-0.09245028
114	0xbd59cae9	-0.053172026
115	0x3cbebf71	0.023284646
116	0xbdc700f8	-0.09716982
117	0x3d26412a	0.04058949
118	0xbd63a564	-0.05557765
119	0xbb0fdbc7	-0.0021951066
120	0xbdfe3ebd	-0.1241431
121	0xbd10ff30	-0.035399616
122	0xbd538893	-0.05164392
123	0xbd4c0022	-0.049804814
124	0xbd26d73f	-0.04073262
125	0xbd8e1536	-0.069376394
126	0x3dcf9e5d	0.10137627
127	0xbdda4d1e	-0.1065924
128	0xbc40bb92	-0.01176347
129	0x3cb0495d	0.021519357
130	0x3db46c7e	0.08809756
131	0xbd56925c	-0.052385673
132	0xbe058377	-0.13038431
133	0xbdc19f1e	-0.09454177
134	0x3da4dbea	0.08049758
135	0x3d284db2	0.04108972
136	0x3dcefc85	0.10106758
137	0x3d9927b5	0.07478277
138	0xbc974708	-0.018466488
139	0x3c8ac724	0.01694066
140	0x3dec1ac8	0.115285456
141	0xbd9bd44e	-0.07608853
142	0x3cf48af9	0.029851424
143	0x3dcb51de	0.09927724
144	0xbba089c1	-0.004899234
145	0xbdd2d17a	-0.10293861
146	0x3e021fb3	0.12707405
147	0xbdc6bf5d	-0.097044684
148	0xbd8b6955	-0.068072
149	0x3cb1feb8	0.021727905
150	0xbd47fa20	-0.048822522
151	0x3e071b99	0.13194121
152	0xbd4d1f88	-0.0500789
153	0x3e0d1df7	0.13780962
154	0xbdcc8e89	-0.09988124
155	0x3d354038	0.044250697
156	0xbccd071a	-0.0250278
157	0xbc3c08df	-0.011476724
158	0xbd68fac1	-0.056879763
159	0xbcb9a2fe	-0.022660729
160	0x3d558d8f	0.052136954
161	0x3dd7fdc5	0.105464496
162	0x3d96fac2	0.07372047
163	0x3d4529b8	0.04813549
164	0xbcd8d694	-0.026469506
165	0x3cc4f666	0.024043273
166	0x3d2c61e0	0.04208553
167	0xbdaba415	-0.083809055
168	0x3e01c332	0.12672117
169	0xbdaea8b1	-0.08528269
170	0x3dfcc15a	0.123415664
171	0xbdd5a01e	-0.104309306
172	0x3da5c6b3	0.080945395
173	0x3c0e607b	0.008689995
174	0xbdd0ab52	-0.10188927
175	0xbd9eaa98	-0.07747382
176	0x3d20b042	0.039230593
177	0xba9b87e7	-0.0011866064
178	0x3d34fac8	0.044184476
179	0xbdbb8a32	-0.09157218
180	0xbdf12e76	-0.1177644
181	0x3dd23bcf	0.10265314
182	0xbd497d24	-0.04919161
183	0xbd8cda4c	-0.06877574
184	0xbdc7dc34	-0.09758797
185	0xbde199c5	-0.11015657
186	0xbcee8a83	-0.029118782
187	0x3d2dba3d	0.04241394
188	0x3d3090be	0.043106787
189	0x3d9a2225	0.07526044
190	0x3d259e7d	0.04043435
191	0x3d710488	0.058842212
192	0xbd825cfe	-0.06365393
193	0xbd9c1c9d	-0.07622645
194	0x3d76b055	0.060226757
195	0xbd6f7e22	-0.0584699
196	0xbe09096e	-0.13382503
197	0x3d94b887	0.07261758
198	0x3ce85b9f	0.028364
199	0x3d5b29a7	0.05350652
200	0xbca9e7cf	-0.020740418
201	0x3d287ffa	0.041137673
202	0x3cbd31d1	0.023095043
203	0xbdde1d25	-0.10845403
204	0xbd87d7e9	-0.066329785
205	0x3dae4987	0.08510118
206	0x3d9c89ce	0.07643472
207	0x3c439cc7	0.011939234
208	0x3d8d9c40	0.06914568
209	0xbd0411fe	-0.03224372
210	0xbd12bc6b	-0.03582422
211	0x3c82b842	0.015957002
212	0x3cb6def1	0.022323104
213	0x3cf4e07a	0.029892195
214	0xbcc7487d	-0.024326557
215	0xbbc7090a	-0.0060740756
216	0xbdcea3e1	-0.10089851
217	0x3da723a3	0.08161094
218	0x3da4c685	0.08045677
219	0xbe026ff7	-0.12738024
220	0x3c9f3334	0.019433595
221	0xbda7141b	-0.08158132
222	0x3cab3822	0.02090079
223	0x3c3e1049	0.011600562
224	0xbe048a9a	-0.12943497
225	0x3cfd5526	0.030924391
226	0xbd83b56b	-0.06431087
227	0xbde47335	-0.111547865
228	0xbda8251c	-0.08210203
229	0x3df3ce4a	0.11904581
230	0xbe007fa8	-0.12548697
231	0xbc587b82	-0.01321304
232	0x3db34f09	0.08755309
233	0x3d83fba0	0.06444478
234	0x3df37ca7	0.1188901
235	0x3d4d8eae	0.050184898
236	0x3c9edf0b	0.019393465
237	0x3da02957	0.07820385
238	0x3df07e5d	0.11742852
239	0x3ddd4035	0.10803262
240	0x3dca8737	0.098890714
241	0xbdc7050d	-0.0971776
242	0x3d3eb5ad	0.04655998
243	0xbd3dbffa	-0.04632566
244	0xbd9fb5df	-0.07798361
245	0x3dadee84	0.08492759
246	0x3d0983fc	0.033573136
247	0x3dd15194	0.10220638
248	0x3bc363f1	0.0059628417
249	0xbe005f2a	-0.12536302
250	0x3d7fc7ec	0.06244652
251	0x3dd4c286	0.10388665
252	0xbdaad93f	-0.08342218
253	0xbde9803e	-0.114014134
254	0xbc765d13	-0.015036839
255	0xbd6aa579	-0.057286713

lstm.weight_hh_l0_reverse f4 [256, 64]
0	0x3d55d368	0.052203566
1	0x3c1a23fb	0.0094079925
2	0xbca55b59	-0.02018516
3	0x3d6e083d	0.058113325
4	0xbd96b835	-0.073593535
5	0xbd0a7192	-0.033799715
6	0xbcef64d6	-0.029222887
7	0xbc09d333	-0.00841217
8	0xbd87f352	-0.066382065
9	0x3da3e0d6	0.080018684
10	0xbdbb6488	-0.09150034
11	0x3d9ed876	0.077561304
12	0xbd37e9d5	-0.044900734
13	0xbd827078	-0.06369108
14	0x3cf7ca18	0.030247733
15	0xbd4b5f57	-0.04965147
16	0xbd8088d0	-0.06276095
17	0xbc0cfe38	-0.008605532
18	0xbd8f62c3	-0.07001259
19	0x3d1a3cf8	0.0376558
20	0x3dc1e24c	0.09466991
21	0x3be62463	0.0070233806
22	0xbdee0723	-0.11622455
23	0x3d43a176	0.047761403
24	0x3cdcb7b2	0.026943062
25	0x3db8d506	0.09025006
26	0xbdd14aa0	-0.10219312
27	0xbd86e938	-0.06587452
28	0x3c00f0e4	0.007869933
29	0xbb3c4bc5	-0.0028731686
30	0xbd8d6398	-0.069037616
31	0xbdb2d72b	-0.08732446
32	0xbd829a49	-0.06377084
33	0xbd5500d4	-0.052002743
34	0xbda6d28f	-0.081456296
35	0x3e039140	0.12848377
36	0xbcea061b	-0.028567364
37	0x3dd30b68	0.1030491
38	0x3ca8d072	0.020607207
39	0x3dd24eb4	0.10268918
40	0x3d6d634d	0.05795603
41	0x3d9ec52b	0.077524506
42	0xbc0540c9	-0.008133122
43	0xbd1a471d	-0.037665475
44	0x3d707df1	0.058713857
45	0xbd6174a9	-0.055042896
46	0x3dd1eeca	0.102506235
47	0x3dba26c5	0.09089426
48	0xbd4a362c	-0.04936807
49	0x3c5466ee	0.0129639935
50	0x3dac8c89	0.084252425
51	0xbdf8be4c	-0.12145671
52	0x3e0b854a	0.13625064
53	0x3d72dddf	0.059293624
54	0x3e016cf4	0.12639219
55	0x3d8c499d	0.06849978
56	0x3dd33cc8	0.103143275
57	0xbde56d9d	-0.11202548
58	0x3c84d9e9	0.016217189
59	0x3d8f1977	0.06987279
60	0x3d993309	0.07480437
61	0x3d97c6da	0.07410975
62	0x3c792a18	0.01520779
63	0xbde8b5a1	-0.11362768
64	0xbd4eed17	-0.050519075
65	0x3d056a83	0.03257228
66	0xbd80cf20	-0.06289506
67	0x3df3e6fa	0.1190929
68	0x3a73bd7c	0.000929795
69	0xbd0db8a3	-0.03459991
70	0x3dd01a72	0.10161294
71	0xbd7d1898	-0.061791033
72	0xbbb37ebe	-0.0054777553
73	0x3dd152ce	0.10220872
74	0xbbbe2c08	-0.005803589
75	0xbd107ec8	-0.035277158
76	0xbde7192c	-0.11284098
77	0x3d64ef1b	0.05589209
78	0xbdb29696	-0.08720128
79	0x3dad6d6e	0.08468138
80	0xbdf57bd3	-0.11986508
81	0xbdf0e0e0	-0.117616415
82	0xbde7f0ca	-0.11325224
83	0xbe0403e2	-0.12892106
84	0x3dc04873	0.093888186
85	0xbe09f61e	-0.13472793
86	0xbdb54f54	-0.08853021
87	0xbcc76476	-0.024339896
88	0x3c7fd72a	0.015615264
89	0x3d2dfa42	0.042474993
90	0x3ca8b86a	0.020595748
91	0x3d8d7b20	0.0690825
92	0xbdee8b6e	-0.11647688
93	0xbc832ead	-0.016013468
94	0xbd82ee86	-0.06393151
95	0x3bfb0ccf	0.007661439
96	0x3dd142a3	0.10217788
97	0xbd9fb97d	-0.07799051
98	0xbcc35508	-0.023844257
99	0xbdfaed2b	-0.122522675
100	0xbda51ca0	-0.080621004
101	0x3d348606	0.044073127
102	0x3d99ae70	0.075039744
103	0xbcbd4655	-0.023104826
104	0x3b1f0d6c	0.0024269475
105	0xbdec2943	-0.115313075
106	0xbd82114a	-0.06350954
107	0x3d562d15	0.052289087
108	0x3dec2a6c	0.11531529
109	0x3d1471f8	0.0362415
110	0xbd5fe36e	-0.054660253
111	0x3d778301	0.06042767
112	0x3d4cadb1	0.049970333
113	0xbdcc4172	-0.0997342
114	0x3c90d30b	0.017678758
115	0x3d1169d7	0.035501327
116	0x3dda90ff	0.10672187
117	0xbd026167	-0.03183117
118	0x3c04e88a	0.008112082
119	0x3d13ba10	0.036066115
120	0x3d9159a2	0.07097174
121	0xbd9a6968	-0.07539636
122	0xbd83e262	-0.064396635
123	0xbddabfa2	-0.10681082
124	0x3dea580f	0.11442577
125	0xbde5263f	-0.111889355
126	0x3dbd3572	0.092387095
127	0x3d430798	0.047614664
128	0xbccd7d33	-0.025084114
129	0xbd7bb36a	-0.0614504
130	0x3ceac2d3	0.028657353
131	0xbd6b7da3	-0.057492863
132	0xbcbb14c0	-0.022837043
133	0x3d4de719	0.05026922
134	0x3ca9da59	0.020734
135	0xbda3d695	-0.07999913
136	0x3b9cb234	0.0047819857
137	0x3c88bb09	0.016690748
138	0x3d310f5c	0.04322754
139	0xbc8f6582	-0.017504457
140	0xbdc89864	-0.09794691
141	0xbde58c76	-0.112084314
142	0xbcd50699	-0.026004123
143	0xbd750b66	-0.059825324
144	0x3dd88830	0.10572851
145	0xbdbed511	-0.09317983
146	0xbdc533f8	-0.09629053
147	0xbd662808	-0.05619052
148	0xbc3cce72	-0.01152383
149	0xbd839914	-0.06425682
150	0x3d91c3d4	0.071174294
151	0x3c5c238c	0.013436209
152	0x3c119bb7	0.008887223
153	0x3dce8e8d	0.10085783
154	0x3be895fd	0.007097958
155	0xbd0bb22b	-0.03410546
156	0x3db5eaa0	0.08882642
157	0x3da58315	0.080816425
158	0xbcef2f55	-0.029197374
159	0x3d9f10d6	0.07766883
160	0xbd6e9ca1	-0.05825484
161	0xbc9961e9	-0.018723445
162	0x3e04ce95	0.1296943
163	0xbc5d2c05	-0.013499265
164	0xbb28b843	-0.0025744594
165	0xbddd288b	-0.107987486
166	0x3c6d2466	0.01447401
167	0x3d0475e0	0.032338977
168	0xbdbdb928	-0.092638314
169	0x3dddb013	0.10824599
170	0x3d8f9657	0.07011097
171	0xbdece2d8	-0.115667045
172	0x3c0539c9	0.008131453
173	0x3dc51714	0.096235424
174	0x3d3b0a6d	0.04566424
175	0x3c3f23b7	0.01166623
176	0xbc6ed87b	-0.01457798
177	0xbd4d8f6d	-0.05018561
178	0xbd04f6da	-0.03246198
179	0x3dac611a	0.08416958
180	0x3c8bd6bd	0.017070169
181	0x3d1f1712	0.03884036
182	0x3d1697ea	0.03676597
183	0x3d3f839d	0.046756376
184	0x3c8db273	0.017297005
185	0x3d9e48d6	0.07728736
186	0x3dcd3997	0.1002075
187	0xbdcf205e	-0.101135954
188	0xbde2fd52	-0.11083473
189	0xbdd59193	-0.10428157
190	0x3dcaa9cf	0.0989567
191	0xbde19cd1	-0.110162385
192	0xbc610c1e	-0.013735799
193	0x3defb3e1	0.11704231
194	0x3b08cb1f	0.0020873023
195	0x3daa1b17	0.08305948
196	0x3dce7c13	0.10082259
197	0xbd8c649d	-0.06855128
198	0xbdc41b6c	-0.09575543
199	0xbd73ebd9	-0.059551094
200	0xbdcfc2c6	-0.10144572
201	0xbdaefaf9	-0.08543963
202	0xbca5c36b	-0.020234784
203	0x3dbe94e2	0.09305741
204	0x3dc741e3	0.09729364
205	0xbb8e7001	-0.004346848
206	0x3cd120ed	0.025528396
207	0x3daaa251	0.08331741
208	0xbdee22fe	-0.11627768
209	0x3d341fb2	0.04397554
210	0x3c81ebf8	0.015859589
211	0x3cbae4f5	0.022814253
212	0xbdad70d9	-0.084687896
213	0x3dc21b3c	0.09477851
214	0xbdded192	-0.10879816
215	0x3dbabeeb	0.09118446
216	0x3cb03c64	0.021513171
217	0xbdc12062	-0.09430005
218	0xbb4c611b	-0.003118581
219	0xbdb42779	-0.08796591
220	0x3dbce752	0.09223808
221	0x3e00fc92	0.12596348
222	0x3d7fad71	0.062421266
223	0xbdd6b687	-0.10484033
224	0x3d9feeb2	0.078091994
225	0xbb854a89	-0.004067723
226	0x3dbe177c	0.09281823
227	0x3e0fb09c	0.14032215
228	0xbc6b80e1	-0.014373989
229	0x3d8d2fb7	0.068938665
230	0x3cd37421	0.02581221
231	0xbd4d0b03	-0.05005933
232	0xbd56017d	-0.052247513
233	0xbc0d835f	-0.008637278
234	0x3dcac448	0.09900719
235	0x3de0c370	0.10974777
236	0x3cbe20aa	0.023208935
237	0xbd80a623	-0.06281688
238	0xbe06e6d1	-0.13173987
239	0xbd08319c	-0.033250436
240	0x3cda1a25	0.026623795
241	0xbccec626	-0.025240969
242	0xbd495997	-0.049157705
243	0xbdb0d431	-0.08634222
244	0x3dbc5173	0.09195223
245	0xbe09030b	-0.13380067
246	0xbc3db143	-0.011577907
247	0xbe0598ce	-0.13046572
248	0x3dd87258	0.10568684
249	0xbdb3cb02	-0.08778955
250	0x3df34b1e	0.11879562
251	0x3d0381ec	0.032106325
252	0x3d9e132d	0.07718501
253	0x3db7ceed	0.08975015
254	0xbe05b34f	-0.13056682
255	0xbb0e168f	-0.0021680926

lstm.bias_ih_l0_reverse f4 [256]
0	0x3dd95513	0.1061193
1	0xbd5ce2e2	-0.05392731
2	0xbd080262	-0.033205397
3	0x3da9c238	0.082889974
4	0xbb63fd0c	-0.003478828
5	0x3d33b331	0.043872062
6	0x3d7d3d1b	0.061825853
7	0x3d52ee59	0.051496837
8	0x3be0c373	0.006859237
9	0x3dc1024b	0.094242655
10	0x3da338c4	0.079698116
11	0x3cbaaad8	0.022786543
12	0xbdfc0643	-0.12305882
13	0x3dd43a85	0.10362724
14	0xbd32f8c1	-0.04369426
15	0xbd41704b	-0.04722623
16	0x3df225e3	0.118236326
17	0xbd0a93cc	-0.033832356
18	0xbd99ec1b	-0.07515737
19	0x3ccfd8d6	0.02537195
20	0x3d33ee9c	0.043928728
21	0x3d72236f	0.059115823
22	0xbc601236	-0.013676217
23	0xbb0f2896	-0.002184426
24	0xbdd2eedb	-0.10299464
25	0x3d264f6a	0.04060308
26	0x3d7419f1	0.059595052
27	0xbcae553c	-0.021280877
28	0xbd95f972	-0.073229685
29	0x3da269a4	0.079303056
30	0xbde8de14	-0.11370483
31	0x3d48b746	0.04900291
32	0x3db622e6	0.08893375
33	0x3dbaeb0f	0.09126865
34	0x3be693bf	0.0070366557
35	0xbd00efcd	-0.03147869
36	0x3d4d9359	0.05018935
37	0x3d199cae	0.037502937
38	0x3d8e121b	0.06937047
39	0x3dbcd1cf	0.09219705
40	0xba8fb3a7	-0.0010963575
41	0xbdee4716	-0.11634652
42	0xbdb89748	-0.090132296
43	0xbd92095d	-0.07130692
44	0xbd9aa541	-0.07551051
45	0xbd407f89	-0.046996627
46	0xbd2e7a47	-0.04259708
47	0xbd3b0478	-0.04565856
48	0xbd820c7e	-0.06350039
49	0x3d49146f	0.049091753
50	0xbd445ad3	-0.04793818
51	0x3c9ecf39	0.01938592
52	0x3d779a23	0.06044973
53	0xbdb8ae0b	-0.09017571
54	0xbda1bb1a	-0.07897015
55	0x3d7d5124	0.06184496
56	0xbccd0bb1	-0.025029989
57	0xbe013a14	-0.12619811
58	0x3d8055cd	0.06266365
59	0x3d931ef6	0.0718364
60	0x3d942ad7	0.072347336
61	0x3da18f3c	0.07888648
62	0xbd4737b6	-0.048637114
63	0xbd090125	-0.033448357
64	0xbd575d1d	-0.052579034
65	0x3decfee1	0.11572052
66	0x3dd7e544	0.10541776
67	0xbdf91a9d	-0.12163279
68	0xbdefb264	-0.11703947
69	0x3db866a2	0.09003951
70	0xbdbbc813	-0.091690205
71	0xbe00baea	-0.12571302
72	0x3da7f3ec	0.08200821
73	0xbded47bd	-0.115859486
74	0x3d659399	0.056048963
75	0x3e072397	0.1319717
76	0xbdb0ad7f	-0.08626842
77	0xbd8dedf2	-0.0693015
78	0x3b3b6e99	0.0028599857
79	0xbdbaf153	-0.0912806
80	0xbdafb40d	-0.08579264
81	0xbd8fd1ac	-0.070224136
82	0x3df7146e	0.120644435
83	0x3d766d0d	0.060162593
84	0x3e03bf39	0.12865914
85	0x3c96cc85	0.01840807
86	0xbe025099	-0.12726058
87	0x3dafb35b	0.08579131
88	0xbba6466c	-0.005074313
89	0x3b8391fe	0.0040152064
90	0xbca65e97	-0.020308776
91	0xbd2630dc	-0.04057394
92	0xbd8ad358	-0.06778592
93	0x3d712fcc	0.058883473
94	0x3cbba7a2	0.022907082
95	0xbdb0bb6b	-0.08629497
96	0xbda1a6c6	-0.07893138
97	0xbb82616d	-0.003978899
98	0x3d903c64	0.070427686
99	0x3dd64251	0.104618676
100	0x3d76e303	0.06027509
101	0x3c8c0474	0.017091967
102	0xbd903f52	-0.070433274
103	0xbdace0a8	-0.08441287
104	0x3d22c837	0.03974172
105	0xbd49fbc7	-0.04931238
106	0xbddadbce	-0.10686456
107	0xbd5a0167	-0.053223994
108	0xbb98804f	-0.0046539675
109	0x3dd8c84a	0.10585077
110	0xbd552810	-0.05204016
111	0x3c8ef2bf	0.017449735
112	0x3d7f7294	0.06236513
113	0xbdc2062e	-0.09473835
114	0xbd94a3e4	-0.07257822
115	0xbdfe91f0	-0.12430179
116	0xbe0701bb	-0.13184254
117	0x3dc10217	0.09424227
118	0xbc25ddd3	-0.010123688
119	0xbd9feada	-0.07808466
120	0x3dc8ad51	0.097986825
121	0x3d934367	0.0719059
122	0xbc51c977	-0.012804381
123	0x3dc554ee	0.0963534
124	0x3db55d06	0.088556334
125	0x3d5a1200	0.053239822
126	0x3cf70369	0.030152993
127	0xba7054f0	-0.000916793
128	0x3d98a47e	0.074532494
129	0x3d8f00fd	0.069826104
130	0x3afeb0d0	0.0019431356
131	0x3cb7fb91	0.022458823
132	0x3c886127	0.016647888
133	0x3ccaab3b	0.024739852
134	0x3c1111aa	0.008854309
135	0x3da3fd8c	0.080073446
136	0x3dd4cc24	0.10390499
137	0xbe0259ca	-0.12729564
138	0xbd0da48e	-0.03458076
139	0xbc45f2f0	-0.012081847
140	0xbda89677	-0.08231824
141	0x3b8d018e	0.004303164
142	0x3ca5cba9	0.020238714
143	0xbdaa95e9	-0.08329374
144	0xbdbd0667	-0.09229737
145	0x3d0bfd16	0.03417691
146	0x3cf289a3	0.029606646
147	0xbda8a98b	-0.08235463
148	0xbdd469e5	-0.1037176
149	0xbdccf5ac	-0.10007796
150	0xbd1438c3	-0.036186945
151	0xbd480934	-0.0488369
152	0xbd34d9a6	-0.04415288
153	0xbd5f1c50	-0.05447036
154	0xbdd7f391	-0.105445035
155	0xbda8f31c	-0.082494944
156	0xbd5cf3f6	-0.053943597
157	0xbd57770b	-0.052603763
158	0xbd2cc700	-0.04218197
159	0xbdb99d9b	-0.09063264
160	0x3c4c5193	0.012470621
161	0xbdabd7cc	-0.08390769
162	0x3db6b821	0.089218386
163	0xbdef94f3	-0.11698332
164	0x3cef4944	0.02920974
165	0x3cf9dd9d	0.030501181
166	0x3db70670	0.08936775
167	0x3de8d124	0.113680154
168	0x3c3d5ad0	0.011557296
169	0xbcf039e2	-0.029324476
170	0x3d6a81de	0.057252757
171	0x3ded1275	0.11575786
172	0xbd546d95	-0.051862318
173	0xbddc3898	-0.10752982
174	0x3d3b25f3	0.045690488
175	0x3d0648d2	0.03278429
176	0xbd66ceec	-0.05634968
177	0x3d98a405	0.07453159
178	0xbcbcac3d	-0.023031348
179	0xbd5179d2	-0.051141568
180	0xbd5c5316	-0.053790174
181	0xbb5d21f8	-0.003374217
182	0xbd31aca1	-0.043377522
183	0x3ca526a2	0.020160023
184	0xbd9d0b2d	-0.07668147
185	0xbd37f523	-0.044911515
186	0x3daa2e64	0.083096296
187	0xbdeef6bd	-0.11668155
188	0xbde1402a	-0.109985664
189	0xbdded091	-0.10879625
190	0xbd3c2b11	-0.04593951
191	0xbdb00a45	-0.08595709
192	0x3d2b4342	0.04181219
193	0x3c99162a	0.018687326
194	0x3dcc3479	0.09970946
195	0x3d7e8334	0.062136844
196	0xbdac891b	-0.08424588
197	0x3d28b8fc	0.04119204
198	0x3d07910a	0.033097304
199	0x3d49e8a7	0.04929414
200	0x3d7cda86	0.061731838
201	0x3cdb8fda	0.026801992
202	0x3cae6b67	0.021291448
203	0x3ddec8f8	0.108781755
204	0xbde4cc4c	-0.11171779
205	0xbcb02c8b	-0.021505615
206	0xbdb64530	-0.08899915
207	0xbde7ed61	-0.11324573
208	0xbd389101	-0.04506016
209	0x3c6607ff	0.014039992
210	0x3dd8c24a	0.10583933
211	0x3cf159e6	0.029461812
212	0x3e10a3e8	0.14125025
213	0x3e0ea010	0.13928246
214	0xbe0aa004	-0.13537604
215	0x3cf3fc12	0.029783282
216	0x3c4b0d3e	0.012393294
217	0x3d5e95b0	0.054341972
218	0xbc9e260f	-0.019305257
219	0x3d931d29	0.07183296
220	0xbc399adc	-0.011328425
221	0x3b9eac62	0.004842327
222	0x3abc4f84	0.0014366959
223	0xbd0540c3	-0.032532465
224	0xbdcc0880	-0.09962559
225	0xbdb5dfbb	-0.08880564
226	0x3d817ce6	0.063226506
227	0x3d8d1d88	0.06890398
228	0xbc988d62	-0.018622104
229	0x3d089a21	0.033350114
230	0xbca0e775	-0.019641617
231	0xbd8a44c6	-0.06751399
232	0xbd0aebcc	-0.03391628
233	0x3d9d876e	0.07691847
234	0x3c8568fa	0.016285408
235	0x3d4f6704	0.050635353
236	0xbdab786b	-0.08372577
237	0xbd83f908	-0.06443983
238	0xbd86bcbc	-0.06578967
239	0xbd0d0e3d	-0.034437407
240	0x3c3dcb7a	0.011584157
241	0xbcfcddba	-0.030867446
242	0xbb1d8829	-0.0024037457
243	0x3cfd7295	0.030938426
244	0xbd84e846	-0.06489615
245	0x3da75441	0.08170367
246	0x3d78ab77	0.060710397
247	0xbde495cf	-0.11161386
248	0x3de81367	0.11331826
249	0x3ddfc348	0.10925919
250	0x3d51facc	0.05126457
251	0x3da25b82	0.0792761
252	0xbc7a6ac1	-0.015284241
253	0x3ce6da54	0.028180279
254	0x3dd02919	0.10164089
255	0xbd8043ba	-0.06262918
